app/src/main/ml/corn_model.tflite (tflite, 742344 bytes, 16 tensors)

sequential_2/conv2d/Relu;sequential_2/conv2d/BiasAdd;sequential_2/conv2d/Conv2D;sequential_2/conv2d/BiasAdd/ReadVariableOp f4 [32, 3, 3, 3]
0.00014871449 -0.00033024297 2.6569458e-05 -0.00028548512 -0.0003223541 -0.00041597692 -0.00054276007 0.000331254
-1.6575581e-05 -0.0002460972 0.00015380658 -0.0004581804 -0.00018979434 3.93695e-05 -0.00032102404 1.0142403e-06
-4.0401524e-06 -0.00016071094 -0.00035349216 -0.0002081776 -0.00046086332 -0.00055746007 0.00046830796 0.00019819455
0.00014332774 -0.00031850973 -0.00041952918 5.3340482e-05 0.00010727313 0.00029977434 0.0003062855 0.0002032958
1.6394259e-05 -0.0005624057 4.0571762e-05 -0.00036068266 0.00056740374 0.00017653016 0.00047929512 -0.00063331285
-0.00014917839 0.00047279402 -0.00089818845 -0.00046789707 -0.00065868616 -0.00037040244 -0.0002551788 -0.00021824641
-0.00034273978 -0.00016970052 0.00037764458 -0.00010151671 -0.00021774467 -0.00044316176 -0.0003430022 0.00018703956
-0.00038603495 -0.00048998464 -0.00032290534 -6.297733e-05 0.00038883998 -0.00036216388 0.0003645126 0.00014923331
0.00048798145 0.00024071794 -0.000268429 0.00016301013 -0.0002032971 -0.0002694822 -0.00052502827 0.0005247124
-0.00034022203 -0.00042535257 0.00031882312 0.0001735288 -0.00023210506 0.00028071718 -0.000302218 -0.00046965198
4.6359306e-05 0.000611668 0.00014487008 0.000272818 -0.0009159394 -0.00038722187 -0.00065635337 0.0004217819
-0.00044469466 0.00027911604 -0.00016025815 0.00017155331 -9.328244e-05 -0.00092752953 0.00016022396 -0.00077924755
3.0165444e-05 -0.00044566122 -0.00046077347 0.00026192653 0.0003352685 0.00040935195 -0.00037525114 -0.00038293863
0.00025782516 -0.0009259505 -0.00048601275 -0.00014138893 -0.00030454816 0.00017075003 -0.00037059473 -0.00010699997
-6.971544e-05 -0.00035677364 -0.0005593294 9.2896335e-05 0.00048076524 -5.5230586e-05 0.00033425502 -0.00031824375
0.00024512707 -0.00014623343 0.00039571297 0.00041873852 0.00051044737 0.00012223028 0.00044607275 -0.00015600078
-2.582806e-05 -0.00053639273 -0.00029388236 -0.0001318597 6.695836e-05 -0.00024583694 -4.9321056e-07 -0.0011289667
-0.001054896 -0.0003385111 -0.0005619543 -0.00038298627 -0.00019012802 0.00019794931 -5.1489537e-06 0.00022448553
0.00030303042 0.000100033096 -0.00036169981 -0.00027312987 -0.00059742766 -0.0007938205 -0.0010015037 -0.0007656737
-0.00032851184 -0.0002649529 -3.1714032e-07 0.00031853476 1.9859568e-05 0.00043941732 0.0006443491 -3.7148526e-05
0.00050053035 -0.00025999264 -5.526042e-05 0.0001563812 -0.00060947274 0.00056043704 0.00038045083 0.0003715252
0.00023278431 -0.00027915376 -0.00051388063 0.000119122706 0.00035030363 2.205245e-05 0.0005611956 0.00033023654
-4.8175694e-05 0.00048052164 -0.00037173418 -7.9306e-05 5.59459e-05 0.000101830046 -0.00035131586 -0.00028564612
-1.0208885e-05 -0.00061466265 -0.00011151277 -0.0005522809 -0.00028526384 -0.0004699475 -0.00043407493 0.00046516347
0.00021667505 -0.00040065084 0.00055150734 8.054178e-05 -7.111661e-06 -0.00013380923 -2.3062108e-05 0.00040677146
0.000547678 -0.00053884066 0.00017139365 0.00011486262 -0.00027651392 -0.00022810067 -2.9012805e-05 0.00017744921
0.00041741575 0.00036918477 -0.0006391716 0.00020946549 0.0003520228 -0.00014788046 -0.00028826788 0.0001592594
-0.00010254383 0.00013336855 0.00011343867 2.2314928e-06 -0.0004984128 0.00028605023 0.00030114356 0.00044026258
0.00022645874 -2.2339143e-05 0.00045182888 0.00037804522 0.00014661411 0.0003777619 -0.00033568946 -0.0005344382
0.00016011945 -0.00037900166 -0.0004494266 -0.00018221892 0.00038497095 0.00016122006 -0.00024245288 -0.00028420918
-7.724641e-05 -0.00028094547 0.00042678387 0.00016131591 0.0004488395 0.0005356571 -0.0003623548 -0.00013500437
-0.00029906505 -0.00068393 -0.00047541052 -0.00012414352 0.00032095725 0.00022821937 0.00025889208 0.0004786476
00000000: 3ef0 1b39 7624 adb9 7ae1 de37 2aad 95b9
00000010: a301 a9b9 7a17 dab9 0348 0eba 29ac ad39
00000020: ca0b 8bb7 9b06 81b9 2447 2139 ef37 f0b9
00000030: 8803 47b9 ae20 2538 1e4f a8b9 0821 8835
00000040: a590 87b6 8484 28b9 ea54 b9b9 404a 5ab9
00000050: 07a0 f1b9 8322 12ba 3b87 f539 72d2 4f39
00000060: 3f4a 1639 a7fd a6b9 41f4 dbb9 e8b9 5f38
00000070: d3f7 e038 082b 9d39 f294 a039 cd2b 5539
00000080: 6786 8937 686e 13ba 992b 2a38 021a bdb9
00000090: d2bd 143a f41a 3939 e749 fb39 e804 26ba
000000a0: c56c 1cb9 57e1 f739 6874 6bba 1550 f5b9
000000b0: aeab 2cba 9332 c2b9 85c9 85b9 13d9 64b9
000000c0: c1b1 b3b9 a3f1 31b9 99fe c539 5ee5 d4b8
000000d0: 6452 64b9 2a58 e8b9 fad4 b3b9 0d20 4439
000000e0: bc64 cab9 5072 00ba 9f4b a9b9 b212 84b8
000000f0: 38dd cb39 d0e0 bdb9 0e1c bf39 837b 1c39
00000100: c3d7 ff39 3b69 7c39 eebb 8cb9 b3ed 2a39
00000110: 262c 55b9 4a49 8db9 0da2 09ba da8c 093a
00000120: d45f b2b9 db01 dfb9 b727 a739 48f5 3539
00000130: 3a61 73b9 392d 9339 0373 9eb9 9f3b f6b9
00000140: ed71 4238 5858 203a 44e8 1739 0309 8f39
00000150: a71b 70ba 0a04 cbb9 210f 2cba 9c22 dd39
00000160: e825 e9b9 5256 9239 f80a 28b9 fee2 3339
00000170: a1a0 c3b8 7425 73ba cb01 2839 6b46 4cba
00000180: cc0b fd37 a3a7 e9b9 f893 f1b9 2f53 8939
00000190: fac6 af39 4a9e d639 5bbd c4b9 27c5 c8b9
000001a0: b52c 8739 7cbb 72ba 87cf feb9 cd41 14b9
000001b0: c3ab 9fb9 5d0b 3339 624c c2b9 2c65 e0b8
000001c0: 3134 92b8 590d bbb9 f69f 12ba 57d1 c238
000001d0: 380f fc39 64a7 67b8 f33e af39 f4d9 a6b9
000001e0: 6684 8039 3d56 19b9 b277 cf39 228a db39
000001f0: 8bcf 053a f12a 0039 dfde e939 2494 23b9
00000200: 56a9 d8b7 b59c 0cba 3914 9ab9 d243 0ab9
00000210: ff6b 8c38 ade3 80b9 2c65 04b5 d6f9 93ba
00000220: 7044 8aba 317a b1b9 1d50 13ba 8ccb c8b9
00000230: 1a5d 47b9 9d90 4f39 2dc5 acb6 e063 6b39
00000240: 0ee0 9e39 dcc8 d138 87a2 bdb9 df32 8fb9
00000250: b19c 1cba 6418 50ba e344 83ba 7eb7 48ba
00000260: 1d3c acb9 60e9 8ab9 6f43 aab4 0301 a739
00000270: 1998 a637 9861 e639 89e9 283a edcf 1bb8
00000280: 0636 033a 9f4f 88b9 6dc7 67b8 42fa 2339
00000290: 06c5 1fba 4bea 123a 3f77 c739 45c9 c239
000002a0: 9017 7439 625b 92b9 f2b5 06ba 84d1 f938
000002b0: f5a8 b739 47fd b837 331d 133a 9923 ad39
000002c0: 4210 4ab8 86ee fb39 51e5 c2b9 1651 a6b8
000002d0: 74a7 6a38 978d d538 d130 b8b9 c6c2 95b9
000002e0: d446 2bb7 5021 21ba f6db e9b8 f2c6 10ba
000002f0: 778f 95b9 4963 f6b9 8d94 e3b9 2fe1 f339
00000300: 4433 6339 720e d2b9 0893 103a 8ae8 a838
00000310: b4a0 eeb6 244f 0cb9 8075 c1b7 f143 d539
00000320: 0c92 0f3a fc40 0dba 22b8 3339 66e2 f038
00000330: 12f9 90b9 4f2e 6fb9 8660 f3b7 a911 3a39
00000340: 98d8 da39 248f c139 148e 27ba f7a3 5b39
00000350: b38f b839 5c10 1bb9 a922 97b9 dffe 2639
00000360: cd0c d7b8 d9d8 0b39 ece5 ed38 c1c0 1536
00000370: eba7 02ba 03f9 9539 cee2 9d39 0bd3 e639
00000380: 8e75 6d39 f264 bbb7 72e3 ec39 5f34 c639
00000390: 6dbc 1939 580e c639 7aff afb9 8a19 0cba
000003a0: bde5 2739 beb4 c6b9 04a1 ebb9 0512 3fb9
000003b0: edd5 c939 2e0d 2939 f33a 7eb9 e901 95b9
000003c0: 5aff a1b8 dd4b 93b9 f6c1 df39 e926 2939
000003d0: 3852 eb39 576b 0c3a 70fa bdb9 f68f 0db9
000003e0: d5cb 9cb9 c449 33ba 8540 f9b9 862c 02b9
000003f0: 2746 a839 2c4e 6f39 e8bb 8739 fef2 fa39

sequential_2/conv2d/BiasAdd/ReadVariableOp f4 [32]
-0.008124886 0.030184658 -0.0075783264 0.034013417 -0.0072484296 0.0058259466 -0.026981685 -0.03816882
-0.0031443753 0.013063011 0.039431695 -0.009590136 0.00848386 -0.0063182907 -0.027814759 -0.0075282548
-0.0015540564 0.007282364 0.010444362 -0.002058179 0.017560756 0.020010035 0.010639796 0.010445336
0.017713947 0.006860719 0.04015856 -0.01740851 0.0027315025 0.017529093 0.034671444 -0.018365327
00000000: 3e1e 05bc d145 f73c 9c53 f8bb a751 0b3d
00000010: 3c84 edbb 95e7 be3b b208 ddbc e956 1cbd
00000020: dd11 4ebb 3d06 563c 2183 213d f21f 1dbc
00000030: e3ff 0a3c aa09 cfbb c7db e3bc 94af f6bb
00000040: 7bb1 cbba e6a0 ee3b d41e 2b3c 83e2 06bb
00000050: 93db 8f3c 16ec a33c 8a52 2e3c ea22 2b3c
00000060: d71c 913c e2cf e03b 4d7d 243d 4b9c 8ebc
00000070: 0203 333b 2c99 8f3c a503 0e3d e272 96bc

sequential_2/conv2d_1/BiasAdd/ReadVariableOp f4 [64]
0.028519167 -0.0040359683 -0.03243808 0.019171068 -0.015478155 -0.011224096 -0.004114361 -0.014945777
-0.016602997 -0.041682743 -0.020848528 -0.015557295 0.051306818 0.017949509 0.005125705 -0.032072634
0.030807687 0.0023676292 -0.012778575 -0.026698979 0.018575583 0.023929635 -0.021309083 -0.030953152
0.030618489 0.021651896 -0.010488495 0.0040665823 -0.02318309 -0.003484341 -0.01798952 0.016580362
-0.00034747223 0.020076934 -0.03049288 -0.006607137 -0.019582523 -0.022560822 0.010169241 -0.028749412
-0.011361177 -0.010319902 0.004807339 0.017478554 -0.029504681 -0.022059439 0.019430084 -0.01652385
0.0040948265 0.014331019 -0.009373393 -0.019684436 -0.017282572 -0.0013043011 -0.0040079337 0.033686195
-0.00079955836 -0.02397246 0.019268941 -0.017111477 0.029757187 -0.030710058 0.017213063 0.011037861
00000000: 07a1 e93c 2840 84bb cbdd 04bd a50c 9d3c
00000010: 1698 7dbc 45e5 37bc c3d1 86bb 22df 74bc
00000020: 0203 88bc 86bb 2abd 88ca aabc 06e4 7ebc
00000030: 1927 523d d90a 933c 88f5 a73b 985e 03bd
00000040: 6760 fc3c 3a2a 1b3b 3a5d 51bc d1b7 dabc
00000050: d22b 983c 1508 c43c 6390 aebc 7791 fdbc
00000060: a0d3 fa3c 515f b13c f0d7 2bbc f740 853b
00000070: 77ea bdbc 8b59 64bb c25e 93bc 8ad3 873c
00000080: ef2c b6b9 6278 a43c 34cc f9bc af80 d8bb
00000090: 876b a0bc 79d1 b8bc e39c 263c e383 ebbc
000000a0: 3b24 3abc ce14 29bc e286 9d3b 2f2f 8f3c
000000b0: cdb3 f1bc ffb5 b4bc d72b 9f3c 065d 87bc
000000c0: e52d 863b a6cc 6a3c dc92 19bc 4141 a1bc
000000d0: 2e94 8dbc 15f5 aaba fc54 83bb 89fa 093d
000000e0: 7499 51ba e461 c4bc e6d9 9d3c 5e2d 8cbc
000000f0: 58c5 f33c a993 fbbc 6902 8d3c 25d8 343c

sequential_2/conv2d_2/BiasAdd/ReadVariableOp f4 [64]
0.037007958 -0.02030734 0.008832978 0.019097563 0.01878984 -0.008333817 -0.031806882 -0.0050236573
-0.0635388 0.061356906 0.024490504 0.004121367 0.0017110306 -0.008932607 -0.009060193 -0.013571387
-0.022518884 -0.03669013 -0.05508266 -0.01591769 -0.06248533 0.018197132 -0.0070075574 0.0098543875
-0.03875448 0.0088230455 -0.0077321017 -0.040966205 0.021995708 0.014743852 0.021304833 -0.010401015
-0.012411137 0.023229448 0.00844836 0.019448549 -0.03090105 -0.014136712 -0.02585269 0.046969995
0.007792501 -0.013084053 -0.011883224 0.028824018 -0.0028038225 0.0075952117 0.022520252 -0.0298647
0.014478634 -0.010078928 -0.009142857 -0.023289146 -0.019580353 -0.0366114 -0.036479544 0.03038227
-0.010265192 0.024244802 -0.06775821 0.017928813 0.009032444 0.019302355 -0.021707725 0.01865992
00000000: a895 173d 945b a6bc 32b8 103c 7e72 9c3c
00000010: 27ed 993c 908a 08bc ef47 02bd 7e9d a4bb
00000020: a120 82bd 6151 7b3d 4fa0 c83c 880c 873b
00000030: a944 e03a 125a 12bc 3471 14bc 865a 5ebc
00000040: 8679 b8bc 6448 16bd 5b9e 61bd d165 82bc
00000050: 9ef0 7fbd 2712 953c a79f e5bb 4c74 213c
00000060: 05bd 1ebd 898e 103c 925d fdbb 2ecc 27bd
00000070: 5830 b43c 3390 713c 7987 ae3c 0569 2abc
00000080: 1558 4bbc af4b be3c fd6a 0a3c 9052 9f3c
00000090: 3324 fdbc ab9d 67bc 05c9 d3bc 9c63 403d
000000a0: 3c58 ff3b 7f5e 56bc dbb1 42bc 5920 ec3c
000000b0: 56c0 37bb 41e1 f83b 647c b83c d1a6 f4bc
000000c0: cb37 6d3c 1722 25bc eccb 15bc e1c8 bebc
000000d0: fa66 a0bc d6f5 15bd 936b 15bd 3de4 f83c
000000e0: 562f 28bc 099d c63c d1c4 8abd 72df 923c
000000f0: d1fc 133c f91f 9e3c 66d4 b1bc b0dc 983c

sequential_2/conv2d_3/BiasAdd/ReadVariableOp f4 [64]
-0.013605365 0.04190728 0.04215239 -0.07463841 -0.009150715 0.021786615 -0.015410601 -0.0015618424
0.0020032756 0.0009023687 0.014537226 -0.004872127 0.004971914 -0.0036667697 0.042854927 0.017934565
0.018737823 -0.002438643 -0.057310164 -0.06686386 -0.0003265796 0.011561735 -0.003150291 -0.005854558
-0.028596377 0.016648052 -0.009071293 -0.049106773 -0.0050994228 -0.040375955 -0.009179619 -0.03957291
0.029302502 -0.0077631003 0.0051946905 0.04008414 -0.012484774 0.016081873 -0.0034362664 -0.011233455
-0.06323076 0.0065519544 0.02321046 -0.057613082 0.001687828 -0.010151994 0.022239957 0.016938295
0.04985013 0.040073793 -0.07530423 -0.004262068 0.0016134128 0.0017297385 0.008447963 -0.05775537
-0.0742406 -0.008830735 0.012320099 0.027569838 0.03490053 -0.018048514 -0.015795179 0.03864371
00000000: 09e9 5ebc f8a6 2b3d fca7 2c3d 06dc 98bd
00000010: e1ec 15bc d879 b23c bf7c 7cbc bcb6 ccba
00000020: 6349 033b f08c 6c3a 8c2d 6e3c 5da6 9fbb
00000030: 70eb a23b 304e 70bb a688 2f3d 82eb 923c
00000040: 1080 993c a4d1 1fbb 10be 6abd ebef 88bd
00000050: c638 abb9 6e6d 3d3c 1d75 4ebb 98d7 bfbb
00000060: f342 eabc 7f61 883c c39f 14bc 2f24 49bd
00000070: 0f19 a7bb 4261 25bd 1d66 16bc 3417 22bd
00000080: cd0b f03c 9b61 febb 3938 aa3b 442f 243d
00000090: f08c 4cbc 22be 833c fc32 61bb 860c 38bc
000000a0: 217f 81bd c7b1 d63b dd23 be3c b2fb 6bbd
000000b0: 1c3a dd3a 8d54 26bc 9230 b63c 2ec2 8a3c
000000c0: a62f 4c3d 6b24 243d 1b39 9abd d1a8 8bbb
000000d0: 2679 d33a 65b8 e23a 5369 0a3c e590 6cbd
000000e0: 750b 98bd caae 10bc 3eda 493c 24da e13c
000000f0: dcf3 0e3d 7ada 93bc e464 81bc de48 1e3d

sequential_2/conv2d_4/BiasAdd/ReadVariableOp f4 [64]
0.04869485 -0.030983837 -0.024833305 -0.03525637 -0.028556935 -0.041438237 -0.06072984 0.040656906
-0.015328771 -0.021189893 -0.009957431 0.002631131 -0.011018285 -0.043961924 0.011363939 0.07309057
-0.032899503 -0.009015254 -0.07993444 -0.015193656 -0.013541542 -0.022089815 -0.007998196 0.020021781
0.084710754 0.06585643 0.058652375 0.0046821157 0.045847896 -0.053612877 -0.017892005 0.045707427
-0.020601688 -0.0035612704 -0.047205534 -0.026741238 0.043322854 -0.009582409 -0.010135783 -0.009546238
0.016789826 -0.0029236386 -0.055508345 -0.011348957 -0.02386089 0.070792496 0.010217186 -0.021547657
-0.008354824 -0.004075513 -0.011522741 -0.0091287205 0.052074574 -0.029839603 -0.056910012 -0.02161706
-0.026927693 0.07121066 -0.031423595 -0.03261424 0.04385029 0.026614197 0.0009613033 -0.0067032715
00000000: 4074 473d d1d1 fdbc 376f cbbc fc68 10bd
00000010: 3cf0 e9bc 24bb 29bd dabf 78bd db87 263d
00000020: 8725 7bbc 6d96 adbc 7e24 23bc 0e6f 2c3b
00000030: 0986 34bc 6b11 34bd d12f 3a3c 82b0 953d
00000040: a1c1 06bd b7b4 13bc abb4 a3bd d0ee 78bc
00000050: 58dd 5dbc b3f5 b4bc de0a 03bc b804 a43c
00000060: d57c ad3d bcdf 863d 793d 703d 6f6c 993b
00000070: 01cb 3b3d 2d99 5bbd 4192 92bc b637 3b3d
00000080: dfc4 a8bc 3464 69bb 975a 41bd 7110 dbbc
00000090: 4e73 313d 89ff 1cbc 8e10 26bc d367 1cbc
000000a0: d18a 893c 849a 3fbb b85c 63bd faf0 39bc
000000b0: ea77 c3bc a8fb 903d fc65 273c b684 b0bc
000000c0: ace2 08bc e28b 85bb e1c9 3cbc a190 15bc
000000d0: 264c 553d 2f72 f4bc 791a 69bd 4316 b1bc
000000e0: 7797 dcbc e5d6 913d 07b6 00bd 8296 05bd
000000f0: 5d9c 333d 0406 da3c f9ff 7b3a 1ea7 dbbb

sequential_2/conv2d_5/BiasAdd/ReadVariableOp f4 [64]
-0.01384119 -0.0078437645 -0.039836228 0.067449376 -0.023389818 0.018956278 -0.067487925 0.048701636
-0.003687702 -0.07065774 -0.029539388 0.089301966 -0.009990869 0.08178305 -0.039457824 -0.02672078
0.0033016226 -0.029419703 -0.044615213 0.044429526 0.066195615 -0.02299032 -0.051214386 -0.01747531
-0.022759778 -0.022548055 -0.014896298 0.054917824 -0.059271604 -0.016732233 0.017055988 -0.029148284
0.04693368 0.065503165 -0.012302918 -0.003541277 -0.03175784 -0.04209519 -0.043569703 -0.0064323987
-0.048556514 0.017512651 -0.031392783 -0.010927151 0.058592286 -0.0021965231 0.061640974 -0.03825038
-0.0041881 -0.01035111 -0.04039064 -0.03491212 -0.0039263787 0.006322558 -0.032484446 -0.030630637
0.06452963 -0.025053669 -0.018175798 -0.00901231 -0.07950744 -0.026096616 0.0028021287 -0.0015502314
00000000: 29c6 62bc 2283 00bc 502b 23bd e622 8a3d
00000010: 019c bfbc 324a 9b3c 1c37 8abd 5e7b 473d
00000020: 5fad 71bb 01b5 90bd 96fc f1bc f3e3 b63d
00000030: beb0 23bc df7d a73d 879e 21bd 8ae5 dabc
00000040: 0960 583b 9701 f1bc 71be 36bd bcfb 353d
00000050: 9191 873d 3256 bcbc 2dc6 51bd 6228 8fbc
00000060: b772 babc b3b6 b8bc 9a0f 74bc 83f1 603d
00000070: c8c6 72bd 0912 89bc 00b9 8b3c 62c8 eebc
00000080: 883d 403d 8626 863d 2e92 49bc c514 68bb
00000090: 8214 02bd 026c 2cbd 2576 32bd dfc6 d2bb
000000a0: 32e3 46bd b176 8f3c b895 00bd cb07 33bc
000000b0: 77fe 6f3d 8bf3 0fbb 3f7b 7c3d 6eac 1cbd
000000c0: 543c 89bb b497 29bc a870 25bd 0300 0fbd
000000d0: daa8 80bb 762d cf3b 690e 05bd 1aed fabc
000000e0: 1c28 843d 5a3d cdbc 69e5 94bc 5ea8 13bc
000000f0: ccd4 a2bd 92c8 d5bc eba3 373b 2231 cbba

sequential_2/conv2d_1/Conv2D f4 [64, 3, 3, 32]
0.05606674 -0.048918128 -0.052503582 0.08411108 0.04991985 0.15716346 -0.06397495 -0.07739691
0.023229672 0.012580073 0.10867006 0.012102948 0.101217285 -0.026412496 0.047843225 -0.009600989
0.070282646 -0.015947042 0.018655358 -0.022310216 0.04636258 0.06273688 -0.0056451187 0.0010640075
-0.031135617 -0.07834318 0.011348711 -0.01319792 -0.0054225232 0.011616167 0.027895883 0.05137095
-0.08285521 0.014780468 0.042589806 0.021207066 0.06257072 0.10027964 0.053536866 -0.06567809
-0.036408454 0.054472625 0.01630885 0.015666805 0.0045581805 -0.06989235 -0.069466904 -0.03997641
-0.037760235 0.053976588 0.038484298 -0.06281568 -0.0062349965 -0.002026291 0.03939614 0.012441365
-0.0633391 0.017661052 0.053485867 -0.009354771 -0.058328405 -0.081909895 0.00072594517 -0.030802127
0.0025631327 -0.0037300095 0.037263744 0.026452135 -0.057323486 0.09919049 0.056999087 -0.07207816
-0.06246477 -0.03450685 -0.026458917 -0.06834047 0.10658966 0.023841882 -0.009988813 0.050988067
0.049709007 -0.032499764 -0.04196883 0.005192229 0.07404481 0.089684926 0.068319835 -0.064497225
0.08052127 0.018037492 0.1822515 0.027521327 0.014337761 -0.09252655 0.096817136 -0.075344644
-0.022512384 -0.018599883 0.004413112 0.090136856 -0.06977803 0.060495973 0.03486587 0.010119613
-0.07561962 0.045888998 0.13880688 0.031185944 -0.049079776 0.018960621 -0.06484241 -0.0059226668
-0.07856615 0.0017253258 -0.0019996953 -0.003115542 0.028573167 -0.056544054 -0.026547557 -0.01919286
0.025014265 -0.08017145 0.1092687 -0.054272976 0.047398575 0.0023610864 0.0113679515 0.08313444
0.0057212934 0.14878081 0.03450999 0.06923098 -0.007821422 0.07749611 -0.0560276 0.06473959
0.06520741 0.030443553 0.21219268 0.057570215 0.07028884 -0.0884064 -0.03612507 0.03726734
-0.07023537 -0.04921077 0.025172256 -0.012892913 0.17024873 0.08695113 0.053036943 0.021266315
0.09291033 0.018633647 0.05450981 -0.011103709 0.00930295 -0.08876955 0.0061753443 -0.017239528
0.07040497 0.14126885 0.057265967 -0.03397473 -0.0364746 -0.039430507 0.05422701 -0.069092065
-0.040880807 0.04933002 0.07508594 -0.06589942 -0.026948359 0.0076297713 0.06473368 0.028610209
-0.08328155 0.063975856 -0.015799075 -0.058357447 0.09194348 0.099578336 0.090316534 -0.07603636
0.116852224 -0.07271348 0.09005795 0.043990463 0.041654997 -0.077344224 0.12140042 0.01827094
0.038456365 0.024711203 -0.050949536 0.08127799 0.044267982 0.08589076 -0.06487309 0.015526528
0.06015045 0.07945562 0.09019655 0.023124339 0.030419113 -0.015522761 0.004073091 -0.0008037247
-0.0018704033 0.070174016 -0.023041354 0.020470193 0.10722923 0.09448634 0.007296616 -0.01926558
-0.043729264 -0.04411834 0.03487854 0.032303967 0.053911984 -0.060036175 0.0027556417 -0.015825333
-0.013946578 0.09028004 0.066210546 0.036111403 0.07466652 0.05354834 0.04880128 0.01657108
-0.052543323 0.006494323 0.024570873 -0.08378347 -0.0020129492 -0.075757354 0.026423048 0.0013728875
0.04708078 0.07369928 -0.027137633 -0.09411407 0.101564385 0.07128489 0.03783417 -0.097627506
0.07478475 0.0350885 0.06677974 0.08950829 -0.05854195 -0.014585303 -0.03162307 0.05087815
00000000: 3da6 653d 605e 48bd ff0d 57bd 6e42 ac3d
00000010: c278 4c3d 75ef 203e 4c05 83bd 4582 9ebd
00000020: 274c be3c a71c 4e3c 698e de3d 714b 463c
00000030: 024b cf3d 055f d8bc 42f7 433d 774d 1dbc
00000040: 59f0 8f3d 5fa3 82bc 1fd3 983c eac3 b6bc
00000050: b0e6 3d3d 317c 803d b0fa b8bb 2b76 8b3a
00000060: 1f10 ffbc 6472 a0bd f2ef 393c 173c 58bc
00000070: 6caf b1bb bc51 3e3c e885 e43c 586a 523d
00000080: feaf a9bd c729 723c a672 2e3d 71ba ad3c
00000090: 1425 803d 695f cd3d 7949 5b3d 3c82 86bd
000000a0: 0821 15bd b01e 5f3d 239a 853c ac57 803c
000000b0: ca5c 953b b823 8fbd aa44 8ebd 4ebe 23bd
000000c0: 7aaa 1abd 8e16 5d3d b6a1 1d3d 82a5 80bd
000000d0: f14e ccbb 86cb 04bb d95d 213d ded6 4b3c
000000e0: eeb7 81bd e9ad 903c ff13 5b3d c144 19bc
000000f0: c4e9 6ebd 60c0 a7bd 5b4d 3e3a be54 fcbc
00000100: 3bfa 273b 2d73 74bb dea1 183d 26b2 d83c
00000110: 08cc 6abd 6224 cb3d e077 693d b79d 93bd
00000120: 0fdb 7fbd 0e57 0dbd 5fc0 d8bc 17f6 8bbd
00000130: ae4b da3d 0d50 c33c 1ea8 23bc ddd8 503d
00000140: ac9b 4b3d 791e 05bd 82e7 2bbd 9323 aa3b
00000150: cea4 973d bbac b73d 45eb 8b3d 1f17 84bd
00000160: 56e8 a43d 5dc3 933c 23a0 3a3e 6874 e13c
00000170: eee8 6a3c 8f7e bdbd 1048 c63d 4b4e 9abd
00000180: e46b b8bc c85e 98bc de9b 903b ac99 b83d
00000190: c9e7 8ebd a0ca 773d 84cf 0e3d bccc 253c
000001a0: 76de 9abd 1af6 3b3d 6423 0e3e aa79 ff3c
000001b0: e007 49bd 4e53 9b3c 19cc 84bd ee12 c2bb
000001c0: 4ae7 a0bd 5424 e23a 520d 03bb 1f2e 4cbb
000001d0: 4612 ea3c bd9a 67bd 437a d9bc 583a 9dbc
000001e0: b7ea cc3c ee30 a4bd 45c8 df3d 574d 5ebd
000001f0: 0225 423d 75bc 1a3b a540 3a3c 6442 aa3d
00000200: b079 bb3b ff59 183e 595a 0d3d f9c8 8d3d
00000210: 6c25 00bc 48b6 9e3d 327d 65bd 3196 843d
00000220: 768b 853d c264 f93c 0a49 593e bfce 6b3d
00000230: 98f3 8f3d 6a0e b5bd e2f7 13bd a3a5 183d
00000240: 90d7 8fbd 3b91 49bd 0c36 ce3c cc3c 53bc
00000250: af55 2e3e 6f13 b23d 443d 593d b236 ae3c
00000260: c547 be3d 97a5 983c ae45 5f3d 55ec 35bc
00000270: 676b 183c cfcc b5bd 8b5a ca3b e939 8dbc
00000280: 7b30 903d c8a8 103e b88f 6a3d 1629 0bbd
00000290: 6466 15bd e281 21bd 241d 5e3d 2480 8dbd
000002a0: a272 27bd 460e 4a3d a8c6 993d 46f6 86bd
000002b0: cec2 dcbc 2903 fa3b 1793 843d f55f ea3c
000002c0: 848f aabd c605 833d 106d 81bc 3808 6fbd
000002d0: dd4c bc3d baef cb3d e0f7 b83d f3b8 9bbd
000002e0: 3850 ef3d ceea 94bd 4d70 b83d 582f 343d
000002f0: 6e9e 2a3d a666 9ebd c9a0 f83d f0ac 953c
00000300: 6c84 1d3d 266f ca3c 76b0 50bd 1375 a63d
00000310: 5852 353d 7fe7 af3d 2fdc 84bd fa62 7e3c
00000320: 5160 763d a1b9 a23d f8b8 b83d 416f bd3c
00000330: 8131 f93c 2e53 7ebc 9077 853b 0db1 52ba
00000340: 5228 f5ba 65b7 8f3d 39c1 bcbc 1bb1 a73c
00000350: 009b db3d 0e82 c13d 7418 ef3b dad2 9dbc
00000360: 751d 33bd 6fb5 34bd cddc 0e3d 2a51 043d
00000370: d0d2 5c3d 7ee8 75bd ff97 343b 21a4 81bc
00000380: 3080 64bc bee4 b83d 6599 873d 8de9 133d
00000390: c3ea 983d 8155 5b3d dae3 473d 13c0 873c
000003a0: ab37 57bd 54ce d43b db48 c93c ab96 abbd
000003b0: afeb 03bb ac26 9bbd 2675 d83c 76f2 b33a
000003c0: c7d7 403d a6ef 963d be4f debc e1be c0bd
000003d0: fd00 d03d d0fd 913d 01f8 1a3d eef0 c7bd
000003e0: bf28 993d f5b8 0f3d d1c3 883d 1f50 b73d
000003f0: afc9 6fbd 32f7 6ebc 3187 01bd 9b65 503d

sequential_2/conv2d_2/Conv2D f4 [64, 3, 3, 64]
-0.0019418094 0.062168173 -0.028019594 0.04017309 0.003096468 0.047916356 -0.1489746 -0.050196547
-0.08784507 0.03508321 -0.06330359 0.0077681732 0.11769042 -0.039937675 -0.050820384 -0.106938235
0.04337759 -0.042687792 -0.16793866 -0.05880256 -0.036531974 0.024816787 0.06858983 -0.052477702
0.034624394 0.007299777 -0.04703449 0.07335053 -0.015147694 0.032745406 -0.055519003 0.062474225
0.06902936 0.018963419 0.1326475 -0.040842112 0.03860881 -0.16477184 0.0026044766 -0.18129157
0.12294668 -0.11659372 -0.013964689 0.08478439 -0.061226785 -0.117908776 0.107930794 0.020655274
0.07891645 -0.0012524888 -0.082191184 -0.17168027 -0.1061769 -0.04615708 -0.031640053 0.0795015
-0.056633987 -0.02856705 0.025803478 -0.110808924 -0.012754328 -0.016247455 0.094626315 0.09261954
0.03545341 0.059822652 -0.028319016 0.12567562 0.024069887 0.011312538 -0.19925815 0.027377777
-0.14714657 -0.1167922 -0.113090836 -0.056507397 0.044133127 0.0075431247 0.018913908 -0.102691635
0.09326821 -0.07347031 -0.16830981 -0.05871764 -0.0101413755 0.0295942 -0.009738728 -0.030397993
0.027808292 0.044770602 -0.14537498 0.08121448 -0.005165602 0.028955143 -0.13308841 0.08186429
0.0894025 0.043483414 0.036063585 -0.07091488 0.045682624 -0.078626536 0.059379514 -0.041786246
0.12751298 -0.06635881 -0.022296956 0.052037966 -0.020125233 -0.10876142 -0.030900383 0.06289791
0.034069993 -0.046659898 -0.109857455 -0.09759939 -0.064177774 -0.07277536 -0.060678788 0.00948637
0.07431193 -0.07490935 0.09303659 -0.0059289457 0.027663818 0.023447286 0.01069503 0.04595299
0.06569461 0.017587353 -0.073667146 0.0028511703 0.060644332 -0.046332378 -0.09212411 -0.0074070455
-0.17076758 -0.010009523 -0.09234653 -0.030619623 0.0003529288 -0.051058725 0.019627063 -0.0945403
0.088545606 0.0014779882 -0.12563112 -0.0854114 -0.05390623 0.088604264 -0.06705556 -0.068096824
0.14018348 0.07280568 -0.07455751 0.067909844 -0.0010989864 -0.06815469 -0.12888363 0.019586705
-0.0021379949 0.07351905 -0.040742524 -0.04120357 0.023815634 -0.11753279 0.012733285 -0.09947022
0.010197289 -0.11102171 0.00021036397 0.06280498 -0.097822495 -0.08925862 0.053745463 0.06938651
-0.012256385 0.00236946 -0.092533015 -0.17314307 -0.06258144 -0.062242884 -0.031841703 0.10631549
0.051125858 -0.13236605 0.06538375 0.025323035 -0.020891618 -0.02517623 0.01602814 -0.035478245
0.060402844 -0.047510937 0.027159682 0.07442578 0.023913182 0.046024743 -0.16265595 -0.10683972
-0.08412168 -0.11917665 -0.06349614 -0.05623449 0.013232563 -0.023206757 -0.020811027 -0.0890699
0.032387774 -0.003803921 -0.08843536 -0.08558498 0.042795043 0.0823726 -0.039778955 -0.010326218
0.094912134 -0.010632954 -0.127422 0.02689949 0.0045786886 0.045789532 -0.15111184 0.058998182
0.032912757 0.08327044 0.014639223 -0.06263005 -0.06394592 -0.18097942 -0.03711787 -0.07929056
-0.04244845 -0.066723235 -0.02410679 0.04581613 -0.114618696 -0.10303513 0.0057611763 0.00818438
0.024404697 -0.008664197 -0.14542045 -0.16279835 -0.16768841 -0.08419832 -0.05927353 0.060860064
-0.0071349186 -0.024700195 0.030955402 -0.06482968 -0.025281193 0.017880064 -0.0355821 0.104037695
00000000: 5084 feba 0ea4 7e3d 5989 e5bc 8a8c 243d
00000010: 1dee 4a3b f143 443d cc8c 18be e59a 4dbd
00000020: 1ee8 b3bd 69b3 0f3d 50a5 81bd 298c fe3b
00000030: ad07 f13d b095 23bd 0929 50bd 6f02 dbbd
00000040: b3ac 313d 65d9 2ebd 1df8 2bbe f4da 70bd
00000050: 8da2 15bd 934c cb3c d378 8c3d dcf2 56bd
00000060: 4fd2 0d3d f832 ef3b 3da7 40bd cd38 963d
00000070: 092e 78bc 0c20 063d e567 63bd f9e4 7f3d
00000080: 445f 8d3d 2c59 9b3c bfd4 073e 0f4a 27bd
00000090: 4624 1e3d f3b9 28be deaf 2a3b 7fa4 39be
000000a0: 78cb fb3d b0c8 eebd 27cc 64bc 70a3 ad3d
000000b0: f0c8 7abd 287a f1bd d20a dd3d 4035 a93c
000000c0: f39e a13d 8d2a a4ba da53 a8bd f4cc 2fbe
000000d0: 4673 d9bd 350f 3dbd 0099 01bd afd1 a23d
000000e0: 0af9 67bd 7205 eabc d161 d33c caef e2bd
000000f0: 87f7 50bc 6219 85bc 71cb c13d 50af bd3d
00000100: 9837 113d 9908 753d 48fd e7bc 1cb1 003e
00000110: 362e c53c 3958 393c 540a 4cbe 5c47 e03c
00000120: 97ad 16be c030 efbd 2b9c e7bd 4d74 67bd
00000130: f0c4 343d 512c f73b 57f1 9a3c fe4f d2bd
00000140: 6703 bf3d 9a77 96bd 6859 2cbe e881 70bd
00000150: 0328 26bc 896f f23c 308f 1fbc 3605 f9bc
00000160: 37ce e33c 6161 373d 2edd 14be c753 a63d
00000170: 3644 a9bb 5633 ed3c 5448 08be 77a8 a73d
00000180: a818 b73d aa1b 323d 69b7 133d d23b 91bd
00000190: b41d 3b3d f306 a1bd ef37 733d 0e28 2bbd
000001a0: c392 023e 21e7 87bd 1ba8 b6bc c325 553d
000001b0: acdd a4bc 4fbe debd cd22 fdbc 9fd0 803d
000001c0: fa8c 0b3d 731e 3fbd f2fc e0bd 30e2 c7bd
000001d0: a36f 83bd 3f0b 95bd 528a 78bd b86c 1b3c
000001e0: da30 983d 136a 99bd f889 be3d 9a47 c2bb
000001f0: 3b9f e23c 8614 c03c 353a 2f3c 3439 3c3d
00000200: e58a 863d 5a13 903c cdde 96bd b3da 3a3b
00000210: 3166 783d 05c7 3dbd 91ab bcbd cdb6 f2bb
00000220: b2dd 2ebe fbfe 23bc 2d20 bdbd 01d6 fabc
00000230: 4d09 b939 f422 51bd efc8 a03c 589e c1bd
00000240: 6657 b53d 0eb9 c13a 72a5 00be 2cec aebd
00000250: c7cc 5cbd 2776 b53d 6d54 89bd 5976 8bbd
00000260: 428c 0f3e 251b 953d 9cb1 98bd 5114 8b3d
00000270: dd0b 90ba b094 8bbd 12fa 03be 4c74 a03c
00000280: 9a1d 0cbb 2891 963d a2e1 26bd 13c5 28bd
00000290: 0119 c33c 08b5 f0bd 459f 503c 0bb7 cbbd
000002a0: 8812 273c 5a5f e3bd 2695 5c39 e69f 803d
000002b0: 2957 c8bd 39cd b6bd 3424 5c3d 841a 8e3d
000002c0: 01cf 48bc f148 1b3b f381 bdbd 6b4c 31be
000002d0: b32a 80bd 65f2 7ebd 726c 02bd f0bb d93d
000002e0: 5969 513d f78a 07be eae7 853d 4172 cf3c
000002f0: e624 abbc 623e cebc 724d 833c a351 11bd
00000300: f968 773d d49a 42bd fb7d de3c 8b6c 983d
00000310: 94e5 c33c 7184 3c3d 488f 26be c8ce dabd
00000320: fd47 acbd e312 f4bd 440a 82bd 2356 66bd
00000330: 64cd 583c 191c bebc e37b aabc 486a b6bd
00000340: 0ba9 043d 344b 79bb 991d b5bd 2e47 afbd
00000350: db49 2f3d f7b2 a83d 42ef 22bd 4c2f 29bc
00000360: 4b61 c23d d735 2ebc ea7a 02be 525c dc3c
00000370: d308 963b ce8d 3b3d 10bd 1abe 14a8 713d
00000380: 87cf 063d b189 aa3d 5ad9 6f3c 2f44 80bd
00000390: 14f6 82bd ab52 39be e808 18bd 1763 a2bd
000003a0: 6dde 2dbd 31a6 88bd 9a7b c5bc b2a9 3b3d
000003b0: 35bd eabd 1504 d3bd 40c8 bc3b c717 063c
000003c0: 5cec c73c 47f4 0dbc 19e9 14be 9cb4 26be
000003d0: 83b6 2bbe 2b70 acbd cdc8 72bd 6748 793d
000003e0: 09cc e9bb 1058 cabc 2f96 fd3c 6cc5 84bd
000003f0: 811a cfbc 3679 923c 89be 11bd b711 d53d

sequential_2/conv2d_3/Conv2D f4 [64, 3, 3, 64]
-0.017841466 0.054248158 -0.06725221 -0.016708937 -0.0047672293 0.038731784 0.012860465 0.06425292
-0.057039604 0.02532937 -0.0073491256 0.047392055 -0.029551951 0.01469167 -0.014066354 0.059572965
-0.032253902 0.024941325 0.042996407 -0.0023544147 -0.05879629 -0.061046697 -0.0023589872 0.059727926
-0.024214879 0.035650767 0.0114904605 -0.002696797 -0.019319607 0.011378734 -0.012543224 -0.0018147016
0.05427264 -0.015460807 0.059284214 -0.00027405782 -0.0120935775 -0.015553157 -0.042059626 -0.041304186
-0.05516129 0.012731929 0.049482167 -0.07308468 -0.017317494 -0.0272984 0.051150717 0.0570188
-0.01204387 0.020893045 0.06771321 0.051421326 -0.03215027 0.020180188 0.039574012 -0.07446023
-0.011049152 0.042462863 0.019721625 -0.037800115 -0.018351525 -0.06277202 -0.0001938862 0.03889025
-0.05609926 -0.0024976202 -0.011275018 -0.057644293 0.053685267 0.0039150966 0.05964173 0.047628548
0.018509151 0.0013603749 -0.06283873 0.013118201 -0.043979194 -0.028900065 -0.021432778 0.06359564
-0.048005603 0.055150326 -0.03403306 0.03513122 -0.073628694 0.057340194 0.04568997 -0.04856613
0.020118367 0.023986757 -0.0026916927 -0.050217565 -0.030085938 0.028109848 -0.0110961525 0.031595245
-0.06860681 -0.061255626 -0.011628595 -0.03577477 -0.057656687 -0.05177024 0.036410518 -0.01666
-0.06285785 -0.05381423 -0.06922502 -0.01643247 0.028904282 0.020545376 -0.0327601 0.0069884737
0.046318572 -0.04350176 -0.045264002 0.058417283 -0.015387658 -0.029613927 0.04669958 -0.01949777
-0.049811374 -0.101703525 0.0789506 -0.07789046 0.028409682 -0.06294862 0.050044693 0.06423206
-0.032451026 -0.037446953 -0.025560576 -0.00076680974 -0.0029462478 0.03614823 -0.03358747 -0.042312104
0.030962529 0.008451359 -0.07255895 0.05183477 0.03556142 0.036221333 0.044883255 0.0298775
0.016340218 -0.03753529 0.028142633 -0.003084761 0.03418714 0.0108248005 0.030449824 0.021655705
-0.07216318 -0.022379829 0.029094743 0.033281166 0.015507479 -0.009110926 -0.0358627 -0.045250915
-0.05634194 -0.02481311 0.034023985 -0.06783825 0.040190212 -0.039770063 -0.026617574 -0.04840777
-0.035235904 -0.05300405 0.039172806 0.051115718 -0.009411967 -0.062930785 0.016065584 -0.029473864
-0.08649293 0.016848462 -0.028270934 -0.03333086 0.0061989175 0.054762233 0.03684436 0.030654192
-0.012768567 -0.07897023 -0.040331244 -0.0496018 0.05935592 0.00024964137 -0.072707966 0.0134021845
-0.08555186 -0.038336333 0.05602429 -0.016030058 -0.035588205 0.037330803 -0.013443956 -0.046919227
-0.02928183 -0.06669709 -0.0100383265 -0.06485587 0.03555915 0.06656227 0.051953442 -0.025521373
-0.057599124 0.021816755 0.043265373 0.061430972 0.017098296 -0.030363277 0.06687581 -0.064133205
0.068196826 -0.039261624 -0.058078848 0.055876866 0.02730246 0.057301775 0.032539047 -0.00023475169
0.049083672 -0.07545094 0.028265653 -0.07266209 -0.0052812635 0.04134908 -0.039888382 0.042518336
-0.073549524 -0.013420259 0.031976305 -0.03094574 0.05576737 -0.07732451 -0.044080548 0.06582364
-0.06433041 0.07431449 0.014764912 -0.03251436 -0.01907071 0.029344931 -0.006953757 -0.07209322
-0.07866902 -0.01695996 0.06926357 -0.051283244 0.041478433 -0.03957599 0.008721412 -0.06646553
00000000: 4428 92bc 5133 5e3d 87bb 89bd 2ee1 88bc
00000010: 6b36 9cbb 38a5 1e3d b3b4 523c 0997 833d
00000020: 5ca2 69bd 8a7f cf3c efd0 f0bb 2c1e 423d
00000030: ef16 f2bc 55b5 703c 9176 66bc c802 743d
00000040: ab1c 04bd c051 cc3c 001d 303d 864c 1abb
00000050: 61d4 70bd 1a0c 7abd 3d99 1abb 45a5 743d
00000060: 485e c6bc 8a06 123d 7c42 3c3c bfbc 30bb
00000070: 2744 9ebc df6d 3a3c 1882 4dbc 48db edba
00000080: fd4c 5e3d 534f 7dbc 01d4 723d 6baf 8fb9
00000090: 2424 46bc abd2 7ebc b746 2cbd 942e 29bd
000000a0: cef0 61bd 9599 503c d0ad 4a3d 6cad 95bd
000000b0: 6bdd 8dbc e5a0 dfbc 6a83 513d 8c8c 693d
000000c0: a753 45bc e427 ab3c 39ad 8a3d 2b9f 523d
000000d0: 00b0 03bd ec50 a53c 5c18 223d 9b7e 98bd
000000e0: 8107 35bc 8aed 2d3d 3f8f a13c 4bd4 1abd
000000f0: f055 96bc 9e8e 80bd ee4d 4bb9 624b 1f3d
00000100: 56c8 65bd 1daf 23bb daba 38bc 6c1c 6cbd
00000110: 15e5 5b3d 364a 803b e34a 743d 2716 433d
00000120: 81a0 973c 9b4e b23a 98b1 80bd b9ed 563c
00000130: 8723 34bd d4bf ecbc cb93 afbc 6e3e 823d
00000140: 86a1 44bd 4fe5 613d 4066 0bbd c1e5 0f3d
00000150: a4ca 96bd 8ddd 6a3d 6825 3b3d 47ed 46bd
00000160: 46cf a43c e07f c43c 1c67 30bb efb0 4dbd
00000170: c976 f6bc a046 e63c a3cc 35bc 046a 013d
00000180: ba81 8cbd 2ee7 7abd dd85 3ebc 9188 12bd
00000190: 6b29 6cbd 080d 54bd 3223 153d 8d7a 88bc
000001a0: 9ebb 80bd 4f6c 5cbd d9c5 8dbd 639d 86bc
000001b0: acc8 ec3c c74e a83c 742f 06bd 91ff e43b
000001c0: 8bb8 3d3d e72e 32bd bf66 39bd f646 6f3d
000001d0: 841c 7cbc e898 f2bc 0f48 3f3d cab9 9fbc
000001e0: 0307 4cbd f049 d0bd dab0 a13d 0985 9fbd
000001f0: 6cbb e83c 35eb 80bd aafb 4c3d 198c 833d
00000200: 5eeb 04bd fa61 19bd 6a64 d1bc bb03 49ba
00000210: d615 41bb 2b10 143d 0493 09bd 754f 2dbd
00000220: 21a5 fd3c 9277 0a3c c999 94bd b250 543d
00000230: daa8 113d d25c 143d 81d7 373d a9c1 f43c
00000240: ecdb 853c 9bbe 19bd 618b e63c b429 4abb
00000250: d107 0c3d 815a 313c e971 f93c 4e67 b13c
00000260: 4aca 93bd e755 b7bc 1958 ee3c d551 083d
00000270: 1513 7e3c fe45 15bc c4e4 12bd 0659 39bd
00000280: cec6 66bd dd44 cbbc bc5c 0b3d c8ee 8abd
00000290: 7e9e 243d efe5 22bd 190d dabc 3a47 46bd
000002a0: 8653 10bd c61a 59bd aa73 203d b75e 513d
000002b0: a734 1abc dbe1 80bd f99b 833c 2c73 f1bc
000002c0: 3523 b1bd c905 8a3c 7298 e7bc f185 08bd
000002d0: 4a20 cb3b 5d4e 603d 1dea 163d 801e fb3c
000002e0: 4033 51bc 25bb a1bd 6032 25bd 422b 4bbd
000002f0: 311f 733d 4ce2 8239 eae7 94bd d694 5b3c
00000300: d035 afbd 8f06 1dbd ba79 653d 7851 83bc
00000310: f0c4 11bd 2fe8 183d 0a44 5cbc 602e 40bd
00000320: 73e0 efbc 7c98 88bd cb77 24bc 28d3 84bd
00000330: 79a6 113d cd51 883d 22cd 543d 3312 d1bc
00000340: 0fed 6bbd 0db9 b23c 0837 313d 0b9f 7b3d
00000350: ba11 8c3c 68bc f8bc 2ff6 883d 4558 83bd
00000360: c7aa 8b3d ccd0 20bd 16e4 6dbd 24df 643d
00000370: 69a9 df3c 44b5 6a3d aa47 053d ad27 76b9
00000380: f60b 493d 0686 9abd 5f8d e73c ddcf 94bd
00000390: 730e adbb a75d 293d 0062 23bd b527 2e3d
000003a0: 22a1 96bd a5e0 5bbc 96f9 023d ec81 fdbc
000003b0: 536c 643d 505c 9ebd ce8d 34bd 8bce 863d
000003c0: a9bf 83bd 3232 983d 88e8 713c c72d 05bd
000003d0: 2d3a 9cbc c864 f03c 57dc e3bb 9ca5 93bd
000003e0: 391d a1bd 9def 8abc 0fda 8d3d 610e 52bd
000003f0: 4ae5 293d 6f1a 22bd 41e4 0e3c 141f 88bd

sequential_2/conv2d_4/Conv2D f4 [64, 3, 3, 64]
0.030431384 0.0086534405 -0.01549533 -0.023265734 0.012084482 0.07393401 0.022120532 0.10040652
0.017368626 -0.051436763 0.057965983 0.038347553 -0.06125339 0.040137704 -0.05414701 -0.033407364
-0.044396613 -0.08304729 -0.04017551 -0.07592089 -0.00021939259 0.064164944 0.008367357 0.023025092
-0.10223636 -0.053509645 0.00925946 0.013556885 0.006155345 -0.057297062 -0.026317412 -0.06822921
-0.048587132 0.023358343 0.042871237 0.027107432 0.062171843 -0.015529841 0.06358264 -0.040884998
-0.09570341 0.06924149 0.07778697 -0.03595214 0.020606315 -0.034531534 0.050857645 0.057655457
0.09442137 0.06335262 -0.003546955 0.06736515 -0.0032928747 -0.010536931 0.009602085 -0.0695315
-0.10603627 -0.018557798 0.0030196556 -0.058599796 -0.040760294 0.04771052 -0.057497606 0.007322019
0.018030286 0.06599259 -0.035889767 0.026221214 -0.043562297 -0.02255798 -0.04352633 -0.057868958
-0.018086983 0.028615836 -0.08480611 -0.06186154 -0.0611456 -0.008548546 0.03534358 0.025315138
-0.059839644 -0.09146197 0.029547425 0.030420043 0.005476504 -0.088804744 -0.09391464 -0.0071236654
0.08215411 -0.035298172 -0.01382318 0.01835602 -0.0126763405 0.048995305 -0.0028275463 -0.08441501
0.081167415 -0.05632321 -0.08148688 0.031900406 0.06767235 0.030197356 -0.041410603 -0.02485082
-0.035951246 0.07321961 -0.025825124 -0.052691117 0.024531838 0.07955801 0.022749538 0.0096101435
0.12474151 0.020477628 -0.062541194 -0.09822147 0.033203654 -0.077611655 0.026096057 -0.014628932
0.004766083 -0.000649835 0.0074661137 0.07735737 -0.0835639 -0.041246556 0.02099714 -0.06383649
0.0065258364 0.06435358 0.062808864 -0.057834383 0.013935518 -0.050161764 -0.029181998 -0.063052356
-0.10383189 -0.08356296 -0.101889886 0.06715046 -0.12322691 -0.017310472 0.044269312 -0.05771079
-0.030485662 -0.004989504 -0.06525029 0.04222599 -0.054607213 -0.13440341 -0.023080299 -0.10952144
0.0162767 0.0663595 -0.015276901 0.032408714 -0.068548344 -0.066205494 0.040794313 0.00027074452
-0.009501562 0.01276777 0.023748236 -0.041615494 0.03243662 0.06156526 0.020735081 -0.03343954
0.026638994 -0.0959318 0.04490622 -0.025627278 -0.12831841 -0.033657435 0.04157253 -0.073055655
0.029717362 0.07703578 -0.08089547 -0.077985205 -0.06906304 -0.06819239 -0.11852445 0.075801045
-0.046682347 -0.006025347 0.0448953 0.07490792 -0.11921549 -0.05343957 0.05780171 0.031562828
-0.06912614 -0.011616199 -0.079151556 0.045716394 0.08179711 0.08147751 0.025727596 0.11993005
-0.08927273 0.0049884226 -0.019905029 -0.0063913977 0.0017018074 0.05209223 0.012151158 -0.023848835
0.06388554 0.010053369 0.027818384 -0.14519851 -0.009104347 0.016653074 0.024747506 0.100768715
-0.075528555 -0.014753492 -0.0073282886 0.076506846 0.0010187814 0.030632379 -0.067156725 -0.060585503
-0.013654582 -0.032737833 -0.054666925 0.011561598 0.059673797 -0.08060291 -0.052647527 -0.062478427
-0.1165659 0.09569053 0.032850605 -0.09594746 -0.030364372 0.05901922 0.049641475 -0.0028880986
0.13569136 0.053417943 -0.06324632 -0.02682171 -0.015254412 -0.04493611 0.048030004 -0.024346553
-0.03209257 0.019453052 0.062224586 -0.006452951 0.007424472 0.073782414 -0.073436335 0.004441061
00000000: 3d4b f93c 29c7 0d3c 20e0 7dbc c897 bebc
00000010: fefd 453c b76a 973d 1e36 b53c efa1 cd3d
00000020: a648 8e3c 5baf 52bd bd6d 6d3d 5312 1d3d
00000030: d6e4 7abd 6f67 243d 41c9 5dbd 29d6 08bd
00000040: 39d9 35bd b314 aabd 138f 24bd 697c 9bbd
00000050: c00c 66b9 e968 833d 3d17 093c 1e9f bc3c
00000060: 4c61 d1bd ee2c 5bbd fdb4 173c b21d 5e3c
00000070: c7b2 c93b 53b0 6abd 9d97 d7bc c2bb 8bbd
00000080: 4d03 47bd ff59 bf3c c099 2f3d 6810 de3c
00000090: e7a7 7e3d e070 7ebc 9d37 823d 0777 27bd
000000a0: 2600 c4bd 7bce 8d3d c64e 9f3d 8d42 13bd
000000b0: 93ce a83c f070 0dbd 1b50 503d 2128 6c3d
000000c0: fe5f c13d 05bf 813d 0874 68bb bdf6 893d
000000d0: 45cd 57bb 18a3 2cbc 1052 1d3c 8866 8ebd
000000e0: 8b29 d9bd 8606 98bc 6ae5 453b 5706 70bd
000000f0: 44f4 26bd 1b6c 433d 9c82 6bbd 8ced ef3b
00000100: 40b4 933c 1f27 873d 2601 13bd dfcd d63c
00000110: 616e 32bd 83cb b8bc aa48 32bd 0008 6dbd
00000120: 272b 94bc c26b ea3c d3ae adbd 8762 7dbd
00000130: cf73 7abd 330f 0cbc 6ec4 103d b161 cf3c
00000140: 6a1a 75bd 6a50 bbbd 710d f23c 7433 f93c
00000150: 3f74 b33b 43df b5bd 5256 c0bd a36d e9bb
00000160: 6a40 a83d d194 10bd 9f7a 62bc 5d5f 963c
00000170: 6db0 4fbc 4daf 483d 5b4e 39bb c7e1 acbd
00000180: 1a3b a63d 2bb3 66bd 98e2 a6bd 00aa 023d
00000190: cd97 8a3d 7260 f73c 2a9e 29bd f293 cbbc
000001a0: 9d41 13bd 2af4 953d 368f d3bc a4d2 57bd
000001b0: fef6 c83c 4fef a23d 3d5d ba3c dd73 1d3c
000001c0: 7a78 ff3d b3c0 a73c 9915 80bd 5728 c9bd
000001d0: 8e00 083d dcf2 9ebd 66c7 d53c 30ae 6fbc
000001e0: cd2c 9c3b b059 2aba 4da6 f43b 8a6d 9e3d
000001f0: 8d23 abbd 26f2 28bd 3202 ac3c b5bc 82bd
00000200: afd6 d53b cfcb 833d efa1 803d bfe3 6cbd
00000210: cd51 643c 6c76 4dbd 160f efbc 9821 81bd
00000220: d0a5 d4bd 0f23 abbd a5ab d0bd 2e86 893d
00000230: 645e fcbd b1ce 8dbc bd53 353d 2662 6cbd
00000240: 11bd f9bc fe7e a3bb f2a1 85bd 29f5 2c3d
00000250: d0ab 5fbd 0ca1 09be e512 bdbc c74c e0bd
00000260: b756 853c 7de7 873d f84b 7abc 00bf 043d
00000270: 1363 8cbd bf96 87bd f017 273d b7f2 8d39
00000280: 71ac 1bbc e92f 513c a98b c23c 0275 2abd
00000290: 43dc 043d db2b 7c3d 9edc a93c e6f7 08bd
000002a0: 053a da3c e477 c4bd 96ef 373d 4cf0 d1bc
000002b0: e765 03be 61dc 09bd f547 2a3d 349e 95bd
000002c0: d371 f33c efc4 9d3d 86ac a5bd b5b6 9fbd
000002d0: ec70 8dbd 74a8 8bbd f2bc f2bd 943d 9b3d
000002e0: fd35 3fbd 4670 c5bb 22e4 373d 5369 993d
000002f0: 4027 f4bd 73e3 5abd 7cc1 6c3d 0648 013d
00000300: 0192 8dbd df51 3ebc 361a a2bd 1d41 3b3d
00000310: 3e85 a73d aedd a63d aec2 d23c e39d f53d
00000320: 9fd4 b6bd ec75 a33b df0f a3bc ee6e d1bb
00000330: 2e0f df3a aa5e 553d a715 473c a25e c3bc
00000340: 6cd6 823d e3b6 243c 61e3 e33c ebae 14be
00000350: 662a 15bc 076c 883c 48bb ca3c d45f ce3d
00000360: b7ae 9abd a1b8 71bc 2422 f0bb 9faf 9c3d
00000370: a288 853a c1f0 fa3c 7789 89bd 8128 78bd
00000380: 78b7 5fbc 1b18 06bd 6dea 5fbd db6c 3d3c
00000390: 836c 743d 2313 a5bd efa4 57bd 61e9 7fbd
000003a0: 1aba eebd 66f9 c33d 5b8e 063d 1a80 c4bd
000003b0: b4be f8bc 23be 713d dc54 4b3d 4146 3dbb
000003c0: adf2 0a3e c6cc 5a3d 4987 81bd 34b9 dbbc
000003d0: a4ed 79bc ed0e 38bd 1cbb 443d 6c72 c7bc
000003e0: 8073 03bd 025c 9f3c 35df 7e3d 4773 d3bb
000003f0: fc48 f33b 3c1b 973d ca65 96bd 5286 913b

sequential_2/conv2d_5/Conv2D f4 [64, 3, 3, 64]
0.054565564 0.039614186 0.032092713 -0.040316988 -0.06091168 0.061551705 -0.08631543 -0.0072851796
-0.0011209622 -0.0120490175 -0.019325903 0.07054087 -0.085650876 -0.014008843 0.016385276 0.060455028
0.014099403 -0.0963392 -0.016338632 -0.060946133 0.035916824 -0.015497629 -0.07249654 -0.0157846
-0.06381574 -0.05711156 -0.06362009 -0.016639283 -0.048314042 -0.07701601 0.006195921 0.040427815
-0.058341544 -0.044127684 -0.06578413 -0.0627247 -0.023223234 -0.04423251 -0.08309999 -0.01681391
0.00068838015 0.041389342 -0.06285699 0.026168143 -0.050283343 -0.058658294 -0.0691494 -0.032953866
-0.04563462 -0.063363165 0.027456155 0.05773577 -0.102610655 -0.005456783 0.0029970722 -0.08782335
-0.030728992 -0.0054967976 -0.052889626 -0.12653722 -0.019034708 0.044574764 -0.05254807 0.039985284
-0.047090344 -0.025177594 -0.017005637 0.0025674547 0.0109716235 -0.031201374 0.0072507216 -0.026398096
0.030285053 -0.033610553 -0.090878636 0.03974147 0.035860483 -0.09188144 -0.019747268 -0.014082934
-0.012093477 0.0099233445 0.073108606 -0.008479504 -0.07778812 0.058410473 -0.02992349 0.06094785
0.032887973 -0.02657664 -0.07718311 -0.04194109 -0.048769426 -0.08937007 -0.0026122762 0.065316305
-0.07373386 -0.014366139 -0.0005371379 0.019086402 -0.019401403 0.038917013 -0.090053625 0.071391575
-0.06757789 -0.034887094 -0.013511781 -0.028431617 -0.072092935 -0.0055189086 -0.019715758 -0.021031737
-0.015429369 0.009310307 -0.00015604617 0.05005796 0.019952081 -0.07013615 0.09611074 -0.023172699
-0.059872136 -0.048483 -0.08725852 -0.010632381 -0.03712866 -0.009240154 -0.09556351 0.017247478
-0.0044895215 0.018261978 0.0124902725 -0.043690577 0.049165927 -0.082160376 -0.0211226 -0.07508935
0.05541028 -0.002863707 0.0093469955 -0.07332776 0.019309798 0.043473613 0.0343334 -0.030061485
-0.016728545 -0.036788724 0.020179413 0.027695946 0.041342158 0.064360805 0.05551686 -0.05681666
0.024073465 -0.001281615 -0.0040219277 -0.0048474562 -0.030903552 -0.04887961 -0.055169497 0.07273942
0.02130518 -0.0036568663 0.10680909 0.058676083 0.06585366 -0.015922539 0.07563033 -0.027289337
-0.0076822173 0.051745158 0.021448592 0.028559996 0.005853021 -0.045027163 0.06485632 -0.05808548
-0.0061862078 -0.006681795 -0.0062904134 -0.030076034 0.057754163 0.0026249741 0.10119498 -0.03481368
0.042923838 0.017860673 0.046519883 -0.053435072 -0.026320746 0.07700802 -0.028354593 -0.000436813
-0.037311092 -0.022876106 -0.07002485 -0.0757018 -0.10051873 -0.010221609 -0.033286013 -0.07898524
0.009351425 -0.047088426 -0.06447322 -0.063518874 -0.029131912 -0.10858302 -0.07651134 -0.024978297
-0.018925767 -0.07443649 -0.08528935 -0.11114889 0.0637337 0.06822227 -0.07316277 -0.059712574
-0.05741025 0.015888495 -0.028995302 -0.019057142 -0.070572935 0.009648272 -0.005579984 0.031041067
-0.003151192 0.012815556 -0.10577834 -0.0658222 0.052225526 -0.037445575 -0.06148504 0.003156738
-0.08807324 -0.03819414 -0.030896572 -0.00046967325 -0.08513037 -0.0723519 -0.0835175 -0.041884065
-0.07211269 -0.04113773 0.0212515 0.0070531666 -0.018422842 -0.03396996 0.013934673 -0.020456193
-0.06596351 -0.013338503 0.056041494 -0.034085855 -0.026934085 -0.061671566 0.005106234 -0.06386342
00000000: 2480 5f3d 7c42 223d a673 033d 6d23 25bd
00000010: 877e 79bd a41d 7c3d 25c6 b0bd 84b8 eebb
00000020: 40ed 92ba 3e69 45bc 5b51 9ebc bb77 903d
00000030: ba69 afbd 5985 65bc 6a3a 863c b19f 773d
00000040: 2f01 673c 7d4d c5bd 98d8 85bc a7a2 79bd
00000050: 851d 133d c4e9 7dbc 1179 94bd b54e 81bc
00000060: d4b1 82bd d0ed 69bd 404b 82bd 1b4f 88bc
00000070: f2e4 45bd 92ba 9dbd 2707 cb3b a397 253d
00000080: 8bf7 6ebd 3bbf 34bd d4b9 86bd cf75 80bd
00000090: a73e bebc 262d 35bd 5430 aabd 53bd 89bc
000000a0: 6974 343a df87 293d 2abb 80bd 935e d63c
000000b0: e8f5 4dbd ae43 70bd 339e 8dbd a2fa 06bd
000000c0: 5eeb 3abd 8cc4 81bd bbeb e03c 587c 6c3d
000000d0: 8925 d2bd d0ce b2bb 876a 443b bbdc b3bd
000000e0: 5ebb fbbc 7b1e b4bb cba2 58bd f992 01be
000000f0: adee 9bbc 0794 363d a53c 57bd 9cc7 233d
00000100: cee1 40bd 3e41 cebc 684f 8bbc be42 283b
00000110: 53c2 333c 069a ffbc 7697 ed3b d240 d8bc
00000120: 5c18 f83c 38ab 09bd 941e babd f4c7 223d
00000130: 71e2 123d 562c bcbd 06c5 a1bc 1bbc 66bc
00000140: b823 46bc 8695 223c f7b9 953d 9eed 0abc
00000150: 614f 9fbd d23f 6f3d 1b22 f5bc 74a4 793d
00000160: 8ab5 063d 41b7 d9bc 2e12 9ebd 6cca 2bbd
00000170: 73c2 47bd a807 b7bd b932 2bbb 8ec4 853d
00000180: c701 97bd f45f 6bbc b7ce 0cba 165b 9c3c
00000190: b1ef 9ebc 7267 1f3d 096e b8bd bf35 923d
000001a0: 4766 8abd c5e5 0ebd 8460 5dbc 6ce9 e8bc
000001b0: 76a5 93bd f6d7 b4bb f182 a1bc c04a acbc
000001c0: 77cb 7cbc 428a 183c 53a0 23b9 9309 4d3d
000001d0: 8c72 a33c 8ba3 8fbd b5d5 c43d acd4 bdbc
000001e0: 7c3c 75bd 1c96 46bd 98b4 b2bd 7033 2ebc
000001f0: 3914 18bd 0464 17bc cdb6 c3bd 954a 8d3c
00000200: d61c 93bb 259a 953c 00a4 4c3c e4f4 32bd
00000210: 3662 493d b343 a8bd 4e09 adbc 72c8 99bd
00000220: e4f5 623d 08ad 3bbb 2424 193c dd2c 96bd
00000230: 952f 9e3c 6311 323d 2ea1 0c3d 8143 f6bc
00000240: 4d0a 89bc c6af 16bd 4c4f a53c 9ce2 e23c
00000250: 6556 293d 99cf 833d a665 633d 96b8 68bd
00000260: b735 c53c ddfb a7ba 60ca 83bb 69d7 9ebb
00000270: 7229 fdbc fc35 48bd 69f9 61bd 68f8 943d
00000280: 3388 ae3c 09a8 6fbb b9be da3d 5556 703d
00000290: 49de 863d fc6f 82bc 13e4 9a3d e38d dfbc
000002a0: 1cbb fbbb bbf2 533d f5b4 af3c a7f6 e93c
000002b0: b3ca bf3b 676e 38bd 64d3 843d 0aeb 6dbd
000002c0: acb5 cabb f6f2 dabb d01f cebb 0462 f6bc
000002d0: a18f 6c3d c207 2c3b 503f cf3d ca98 0ebd
000002e0: e8d0 2f3d 8c50 923c a28b 3e3d bcde 5abd
000002f0: 9b9e d7bc 61b6 9d3d e447 e8bc 0c04 e5b9
00000300: 84d3 18bd ac66 bbbc 3069 8fbd 8c09 9bbd
00000310: c4dc cdbd 8978 27bc ea56 08bd 03c3 a1bd
00000320: b836 193c cbdf 40bd 890a 84bd 2f16 82bd
00000330: 0ca6 eebc c660 debd fab1 9cbd 499f ccbc
00000340: 360a 9bbc 2972 98bd 2fac aebd 07a2 e3bd
00000350: d086 823d 1eb8 8b3d 5dd6 95bd 2c95 74bd
00000360: 0327 6bbd 9728 823c 8e87 edbc b91d 9cbc
00000370: 8b88 90bd c913 1e3c 4cd8 b6bb d649 fe3c
00000380: 3b84 4ebb 56f8 513c 50a2 d8bd cacd 86bd
00000390: 6fea 553d 8860 19bd bdd7 7bbd 46e1 4e3b
000003a0: be5f b4bd 7571 1cbd cf1a fdbc 7a3e f6b9
000003b0: d558 aebd 3c2d 94bd 390b abbd a08e 2bbd
000003c0: d1af 93bd 0980 28bd a017 ae3c 401e e73b
000003d0: 80eb 96bc 1624 0bbd 414e 643c bf93 a7bc
000003e0: e017 87bd bd89 5abc c48b 653d 9c9d 0bbd
000003f0: dfa4 dcbc 539b 7cbd 3252 a73b d3ca 82bd

sequential_2/dense_1/BiasAdd/ReadVariableOp f4 [5]
-0.08499609 0.023526825 0.04225308 0.029186748 -0.036862824
00000000: 6e12 aebd 54bb c03c 9111 2d3d 0c19 ef3c
00000010: 79fd 16bd

sequential_2/dense/BiasAdd/ReadVariableOp f4 [64]
-0.041809827 -0.008329154 -0.06916638 0.054443885 -0.050827652 0.037794773 -0.014941533 0.04549553
-0.066911034 -0.011023997 0.12106274 -0.019788507 0.010540099 0.021103336 0.042546347 -0.020654798
0.014278547 -0.06228631 -0.0061841086 0.04984389 0.052724216 -0.00979645 0.010338138 0.057151444
-0.055795725 -0.02808104 -0.029380806 -0.037161894 -0.020141166 -0.022904204 0.022306783 -0.07596003
-0.010674285 -0.007749221 0.044671934 0.062848255 -0.08155487 0.008738708 -0.022725863 0.002851316
-0.035668626 0.013051066 -0.07470892 0.054005425 -0.04209742 0.07932933 -0.014106122 -0.0136677325
0.05273953 -0.011199054 0.024135191 -0.0250989 0.07620764 -0.07840122 0.0002820656 -0.022432635
0.07657691 0.036139295 -0.048890207 -0.018629065 -0.032647293 -0.020196443 0.05624852 -0.058984708
00000000: c840 2bbd 0177 08bc 1aa7 8dbd 8d00 5f3d
00000010: a830 50bd b1ce 1a3d 55cd 74bc 8559 3a3d
00000020: a708 89bd ff9d 34bc beef f73d 821b a2bc
00000030: 61b0 2c3c e7e0 ac3c 1445 2e3d 4034 a9bc
00000040: 91f0 693c ee1f 7fbd 10a4 cabb 1b29 4c3d
00000050: 59f5 573d 4a81 20bc 4b61 293c a217 6a3d
00000060: 0f8a 64bd 360a e6bc 04b0 f0bc 1237 18bd
00000070: 16ff a4bc 99a1 bbbc b7bc b63c ef90 9bbd
00000080: 32e3 2ebc 2ded fdbb ebf9 363d 96b6 803d
00000090: 3d06 a7bd cc2c 0f3c 972b babc 25dd 3a3b
000000a0: 4419 12bd 23d4 553c fe00 99bd cb34 5d3d
000000b0: 586e 2cbd 6a77 a23d 5d1d 67bc a0ee 5fbc
000000c0: 6805 583d 3d7c 37bc 2ab7 c53c 359c cdbc
000000d0: c012 9c3d d290 a0bd 34e2 9339 a5c4 b7bc
000000e0: 5bd4 9c3d cc06 143d 1941 48bd fb9b 98bc
000000f0: 2bb9 05bd 0373 a5bc d964 663d f399 71bd
