app/src/main/ml/model.tflite (tflite, 742348 bytes, 16 tensors)

sequential_2/conv2d/Relu;sequential_2/conv2d/BiasAdd;sequential_2/conv2d/Conv2D;sequential_2/conv2d/BiasAdd/ReadVariableOp f4 [32, 3, 3, 3]
00000000: f257 9739 8586 3d39 271a 9b38 5539 8b39
00000010: 2bb9 c539 a0d7 dc39 d4d2 b4b9 fc6c 23b9
00000020: 12d7 e139 c475 f0b9 eded b639 9f89 dbb9
00000030: 1913 a339 d34b 15ba a9ee d839 d36d b2b9
00000040: 147f 18b9 7753 e1b9 c3a4 03ba bce6 a6b8
00000050: cf44 ae39 242a eb39 4c92 a7b9 53f7 fab9
00000060: cd66 09ba 5d44 2539 54a3 e638 947a 5bb9
00000070: 9336 06b8 c7c9 d339 f7dc a039 9411 a539
00000080: 84d6 ec39 c955 c5b9 eaa3 b438 89cc 84b9
00000090: d21f fa38 d596 14ba 7244 9439 e676 e739
000000a0: 4c37 95b8 e62c 11ba 6c9a 3db9 0a41 c9b9
000000b0: fc36 6239 dc11 abb7 0a8c 9438 cb4b 4339
000000c0: e3be ec36 723e b7b8 8ea8 8eb8 56cd 2639
000000d0: 19ea 38b9 02a5 d9b9 64b2 8439 a50c cf39
000000e0: 4d68 c7b8 63c2 d1b9 589e 95b9 0170 02ba
000000f0: d1ee 7239 edf5 a9b9 36f9 2bb9 a7da 2eba
00000100: 64dd 03b9 1246 a4b9 728d f138 3c1c 9c38
00000110: 7f6d ce38 851d 05ba c214 22ba eeec dab9
00000120: 2d05 c0b9 12e8 bd38 459b 3e39 d9b2 a2b7
00000130: 591d 5a39 75c9 2f37 ad4e a439 6f31 8038
00000140: 19a5 bb39 63f6 7db9 f941 2138 a79a b7b9
00000150: db88 a239 85aa e339 943d 8a39 bb9e 1439
00000160: b75a e3b9 5412 a8b8 8ee0 04ba d301 ff39
00000170: fd5c e739 5002 7439 84bf dcb9 db6f ae39
00000180: 4dbf bb39 28a3 68b9 5f01 15b9 e245 c438
00000190: 37f7 a3b8 a1eb 6838 4b00 97b8 1761 d939
000001a0: 5f36 75b9 b010 bd39 6f1f d7b8 f9ff a4b9
000001b0: 2e06 0b39 71d4 ed38 78ee 4cb9 528a 07b9
000001c0: 9d1a 103a b76e 8739 1995 2eb9 ada9 2cb7
000001d0: 8f3c af39 2d9a e739 b495 abb9 7f03 b9b9
000001e0: 6762 87b9 ffa8 073a bad8 193a a421 21b8
000001f0: ba5d 90b5 a977 e4b7 9dc5 05ba a9ce beb9
00000200: 780e d4b9 c590 89b9 3d53 99b9 061a 7839
00000210: 48bf e8b9 5dc7 bcb9 bd95 023a d55c 11b9
00000220: 5caa 2bba 1ae6 0bba b8f0 3bb9 dc9b 78b8
00000230: 70ff cdb9 3eb5 4839 1fa9 5339 8f8f 003a
00000240: fb9e bc38 016c 2f39 ce5a 42b9 1596 2138
00000250: db00 88b9 d6c6 b239 c0e3 1bba 1e1b 04ba
00000260: 6234 a039 eb0b 8e39 f529 c339 f107 af39
00000270: e680 c4b9 8199 e038 8550 71b9 f377 80b8
00000280: afd9 8bb8 10a3 edb8 a5d4 66b9 2ea9 ef39
00000290: a326 5cb9 2d2b 54b9 155e e9b8 4c9a 6639
000002a0: 7aa6 02ba 64bf 74b9 79b1 e1b9 437b be39
000002b0: 844e 8ab9 d3d7 00ba e253 b3b9 dc81 79b6
000002c0: 9b4f 8239 986d 8137 cd03 1ab9 c321 2139
000002d0: a081 1338 b8a1 f9b9 3855 27ba e4a7 c537
000002e0: a892 d2b7 7523 09ba 78cd d039 2691 ef39
000002f0: 0cb2 d139 a96d adb7 6142 d1b9 f1db 8639
00000300: 8129 ad39 b863 dbb9 1297 1337 9070 cf39
00000310: ddc6 08ba 04bf b339 062d ebb7 1203 ca38
00000320: fdfd 1ab9 f2fd 3a39 1c8e 0bba d7c7 f839
00000330: c298 7fb9 6018 09ba 0461 7f39 af22 47b8
00000340: c995 55b9 bdb8 d638 5ad0 b439 fbc1 cc38
00000350: 946f e6b9 5d90 3f39 fc74 bc39 05a9 d039
00000360: eee6 e139 6860 b439 c40d 083a e5f5 01ba
00000370: 5a2d 55b9 f695 27b9 25d1 dbb9 b14e ddb8
00000380: e4f1 e438 1ab9 56b8 300f 50b9 92a2 1838
00000390: eaf7 ad38 e2d2 21b9 3ec3 5eb9 f152 40b9
000003a0: 4c4a 27ba c379 8bb9 c1fc c439 3ab1 123a
000003b0: c0ca 6639 dbd8 7cb9 24f3 1eb8 d2a7 65b9
000003c0: a43c 8639 9909 05ba e999 093a 8e46 f8b8
000003d0: a73c b238 c28b 8738 5964 a039 147a 143a
000003e0: 9d90 9f39 1867 5d38 fcdf 8639 509b db38
000003f0: 27f7 84b7 8175 be39 8024 dcb8 9414 0bba
0.0002886649 0.00018074557 7.395847e-05 0.00026554862 0.0003771273 0.00042122323 -0.00034489355 -0.00015585491
0.00043075584 -0.0004586411 0.00034891014 -0.0004187347 0.00031104012 -0.00056951976 0.00041376546 -0.0003403263
-0.0001454319 -0.0004297753 -0.0005021805 -7.9584745e-05 0.00033239133 0.0004485409 -0.00031961722 -0.00047867987
-0.0005241454 0.00015761094 0.00010997677 -0.00020931131 -3.1998916e-05 0.00040395392 0.0003068221 0.0003148435
0.00045173254 -0.00037638683 8.6136e-05 -0.00025329393 0.00011926856 -0.00056682277 0.00028279755 0.0004414834
-7.1151735e-05 -0.00055380014 -0.00018081971 -0.00038386165 0.00021573523 -2.0393105e-05 7.083274e-05 0.00018624884
7.05557e-06 -8.737751e-05 -6.8024834e-05 0.00015907487 -0.00017634816 -0.00041512406 0.00025309913 0.00039491538
-9.508487e-05 -0.00040008416 -0.0002853747 -0.00049757963 0.00023167885 -0.0003241742 -0.00016400669 -0.0006670155
-0.00012575608 -0.00031332724 0.00011518122 7.443919e-05 9.843241e-05 -0.0005077946 -0.0006182903 -0.00041756727
-0.0003662495 9.055449e-05 0.00018177654 -1.9395187e-05 0.00020801033 1.0477718e-05 0.00031339136 6.112723e-05
0.00035790427 -0.00024219746 3.8446833e-05 -0.00035019705 0.00031001013 0.0004342386 0.0002636729 0.00014173512
-0.00043364402 -8.014278e-05 -0.00050688616 0.0004863875 0.00044129035 0.00023270515 -0.0004210436 0.00033271205
0.0003580995 -0.00022186025 -0.00014210258 9.359025e-05 -7.818493e-05 5.5532557e-05 -7.200296e-05 0.00041461803
-0.00023385276 0.00036061322 -0.00010257854 -0.00031471232 0.00013258375 0.00011340611 -0.00019543793 -0.00012926132
0.000549713 0.00025831696 -0.00016649476 -1.0291505e-05 0.0003342372 0.00044174623 -0.000327272 -0.00035288554
-0.00025822522 0.00051750237 0.00058687816 -3.841672e-05 -1.0756114e-06 -2.723544e-05 -0.0005102994 -0.00036393598
-0.0004044657 -0.00026238538 -0.0002924445 0.00023660818 -0.00044393004 -0.00036006692 0.0004981419 -0.0001386286
-0.0006548518 -0.0005336717 -0.00017923384 -5.9272963e-05 -0.00039290963 0.00019141004 0.0002018553 0.00049042044
8.994151e-05 0.00016729535 -0.00018535109 3.8525166e-05 -0.0002594058 0.0003409895 -0.0005946718 -0.0005039441
0.00030556606 0.0002709323 0.0003722456 0.00033384518 -0.0003748007 0.00010709745 -0.00023013547 -6.125858e-05
-6.668583e-05 -0.000113314134 -0.00022013726 0.0004571168 -0.00020995228 -0.0002023398 -0.0001112783 0.0002199199
-0.00049839134 -0.00023340952 -0.00043047572 0.0003633146 -0.0002637991 -0.0004914973 -0.00034204038 -3.717948e-06
0.00024854843 1.5429032e-05 -0.00014688 0.00015366734 3.5168254e-05 -0.0004761347 -0.0006383243 2.356241e-05
-2.5102243e-05 -0.0005231419 0.00039825938 0.00045693776 0.00039996242 -2.0674272e-05 -0.00039913043 0.0002572234
0.00033028054 -0.0004184523 8.797057e-06 0.00039565982 -0.0005217621 0.00034283858 -2.8035149e-05 9.6326825e-05
-0.00014781202 0.00017832944 -0.0005323605 0.00047451138 -0.00024375602 -0.00052297674 0.00024354836 -4.74776e-05
-0.00020369062 0.000102387254 0.0003448751 9.76361e-05 -0.0004395215 0.00018268959 0.00035945314 0.0003979878
0.000430874 0.00034404104 0.00051900395 -0.00049576006 -0.00020330158 -0.00015982226 -0.0004192676 -0.000105527586
0.00010916943 -5.1193965e-05 -0.00019842084 3.639103e-05 8.2954604e-05 -0.00015432716 -0.00021244303 -0.00018341445
-0.00063816155 -0.00026602866 0.0003757235 0.0005595867 0.0002201004 -0.00024113378 -3.7896578e-05 -0.0002190166
0.00025603652 -0.00050749775 0.00052490697 -0.00011838703 8.498999e-05 6.4633336e-05 0.00030592343 0.0005663943
0.0003043459 5.278652e-05 0.00025725353 0.00010471663 -1.5850715e-05 0.0003632717 -0.00010497216 -0.00053054956

sequential_2/conv2d/BiasAdd/ReadVariableOp f4 [32]
00000000: 446f c9ba 523b ae3b 07d4 873c ba4f 303b
00000010: 05d6 46bb b847 a0bb 4de7 143c 73ba a03c
00000020: 1c37 e33c 76d5 f6bb 675d 113d b160 a33c
00000030: a6c4 e03c f219 c63c 352b e03c b337 dfbc
00000040: df08 60bc 4283 0abd 57d4 c13b 66f4 fa3c
00000050: a3b9 a7bc e766 603b 3af4 c2bc c809 973b
00000060: 3733 1c3a a200 c9bb 7324 383c 91d4 b43c
00000070: d704 b03a f29e 1b3c 7d38 cf3c b255 cbbb
-0.0015368243 0.00531713 0.016580595 0.002690299 -0.0030339968 -0.004891362 0.0090883495 0.019620156
0.02773624 -0.0075327707 0.035489466 0.019943567 0.02743752 0.024182294 0.027364353 -0.02724824
-0.01367399 -0.033816583 0.0059152055 0.030634116 -0.02047426 0.0034241022 -0.023798097 0.0046093203
0.00059585593 -0.0061341086 0.011239159 0.022074016 0.0013429177 0.009498345 0.02529549 -0.006205284

sequential_2/conv2d_1/BiasAdd/ReadVariableOp f4 [64]
00000000: da82 1fbc d9c4 9cbc 2e3e e73b abe5 3e3c
00000010: e0f9 403d b1df 87bb 2b4a fb3b 9428 ba3b
00000020: c920 943c b4db ffba 9ded 033b e51a ff3b
00000030: 9c13 dcba 5b8c 13bc a5aa 8a3c 198b 4b3c
00000040: 822f f23c bfb3 c1b9 88d3 6e3c bdd1 e73b
00000050: b9db 073d ae40 08bc 5082 ca3b fed7 1dbb
00000060: 7c05 bcbc 58b2 303a 8642 b0b9 d048 6abc
00000070: 0bdb 6fbc 0b16 8b3c 681b 05bc bb14 4b3c
00000080: 47f0 393c d908 993b 4bfc 89ba 5260 08bc
00000090: ac3f 133c 0231 353c 66b5 e0bb c3ce 91bc
000000a0: f973 423c 36c3 59ba afc8 a2bc 5e86 0f3c
000000b0: 31f8 873c bdd3 9a3a e408 d638 852d ca3c
000000c0: b33e ee3c 3dcb 603c 69d3 10bb aeed 20bc
000000d0: 184d 553a 2ad8 2ebc 12c2 2b3d 546b c6b9
000000e0: 3bf8 233c 1430 09bb 330a dc3b 6052 0e3c
000000f0: 84c7 38b8 764d 813c 9052 c93c 8cfc a33c
-0.009735787 -0.019136833 0.007056973 0.011651437 0.0471133 -0.004146539 0.0076687536 0.005681107
0.01808204 -0.0019520433 0.0020130642 0.0077851885 -0.0016790512 -0.009005631 0.016927073 0.0124233
0.02956367 -0.0003694575 0.0145768 0.0070745633 0.03316853 -0.008316202 0.0061800852 -0.002408504
-0.022951834 0.00067404425 -0.000336189 -0.014299586 -0.014639626 0.016978284 -0.00812421 0.012395079
0.0113487905 0.004670244 -0.001052746 -0.008323746 0.0089873485 0.011059048 -0.006857562 -0.017798787
0.01186847 -0.0008306982 -0.019871084 0.008760063 0.01659784 0.001181237 0.00010205971 0.024679909
0.029082632 0.013720331 -0.0022098667 -0.009822292 0.0008136793 -0.010671655 0.041933127 -0.0003784547
0.010007913 -0.0020933198 0.006715083 0.008686632 -4.4054832e-05 0.015784007 0.024575502 0.020017885

sequential_2/conv2d_2/BiasAdd/ReadVariableOp f4 [64]
00000000: e5f7 1fba 0c5e 5ebc 675a 35bc 6ff1 66bc
00000010: 6edc 97bc 24f1 ea3b 07e1 233c 8489 babc
00000020: e597 043c 944e 0a3c 299e 92bc 1502 2abc
00000030: 6f50 ed3c 89fb 263d cb57 0a3c bde9 cabc
00000040: f580 06bc 4064 7aba caa1 a3bb 2863 0fbc
00000050: ece9 c1bb 003f 10bc 5367 cebb 44de 813b
00000060: fa26 40bc 2a8e 5f3c 4642 133c faca 2abb
00000070: 028a 68bc 46b5 243a 578b 4c3a c896 27bb
00000080: c334 693c 0f66 213c 3f11 cdbb 616d df3c
00000090: 3106 3d3b cc31 a1bb 557a 35bc 0bb9 6b3b
000000a0: 4beb 0f3d edb1 593c 8279 ccbb 214d e23c
000000b0: e5e7 cbba ec52 593b 25bc 183d 4a50 303c
000000c0: 9b7c 193b cf1d 4dbc 3d2f 40bc 7adf 1f3d
000000d0: c8af 8dbc a07c 53bc 7e37 483c cc15 b1bc
000000e0: 2bcf bbba 08a5 dfbb 24b2 f7bb b881 14bc
000000f0: 3f7f 503c 13e1 5e3b a232 82bc 1a8a c93b
-0.0006102308 -0.013572227 -0.011068917 -0.014095648 -0.018537726 0.0071698595 0.010002381 -0.02277065
0.008092855 0.008441586 -0.017897682 -0.010376473 0.028969018 0.040767226 0.008443783 -0.024769658
-0.008209457 -0.00095516816 -0.004993652 -0.008751668 -0.0059177782 -0.008804083 -0.0062989383 0.0039632637
-0.011728043 0.013644734 0.008987969 -0.0026060925 -0.01419306 0.00062831154 0.00078027457 -0.002557205
0.014233771 0.009850993 -0.0062581594 0.027273836 0.0028842802 -0.0049192663 -0.0110765295 0.0035968449
0.035136502 0.01328705 -0.006240071 0.027624669 -0.0015556781 0.0033160998 0.037288804 0.01076133
0.0023420218 -0.012519314 -0.0117300125 0.039031483 -0.017295733 -0.012908131 0.012220262 -0.021616839
-0.0014328709 -0.006825093 -0.007559078 -0.0090641305 0.01272565 0.0034008666 -0.015893284 0.006150496

sequential_2/conv2d_3/BiasAdd/ReadVariableOp f4 [64]
00000000: 1ca7 2e3c 92c3 a9bb 782e 7bbc 7346 cb3c
00000010: 40bc 5d3c da48 85bb f613 90bb 9781 cebb
00000020: 39bd 113d bc6e 223c c9e7 a43c 2061 a4ba
00000030: 002b 07bc 058d 7e3c 7449 a5bb 9458 1bbc
00000040: 2d1d 953c 5a4e e3bc 03fb 843c 5ce4 e3bc
00000050: 057c 8bbc 16d5 0fbc 6f25 c7bc 432d 3dbc
00000060: 5fb4 a23c f78d 73bb 170c 21bd 1de2 853c
00000070: 7a61 15bc 1186 803c f448 913c a43b 42bd
00000080: 8791 1dba 87ff d53c 7b69 4e3d 6bc3 ac3c
00000090: 0396 c7bb add5 083d 7e04 803c 26be 273b
000000a0: cb4a 57bb 86b2 f3bc 8b85 65bb 3636 2d3d
000000b0: d694 473c abeb 5eb9 dc4e 5dbc 5556 aa3c
000000c0: 9a3b a9bc a53f 8e3c 8bf6 843c 018e 143c
000000d0: 6c22 17bc eb9d b53c 5692 96bc 7447 56bc
000000e0: 7cc7 60bb 4b3b 1fbd f00c 933c 2b33 533c
000000f0: 52c0 7dbc f46b b4bc 3991 993c 683c 5dbc
0.010659959 -0.0051807845 -0.015330903 0.024813866 0.013533652 -0.0040675225 -0.004396911 -0.0063020694
0.035580847 0.009914096 0.020130055 -0.0012541153 -0.008249998 0.015536551 -0.0050441567 -0.009481568
0.018202389 -0.027747322 0.016232973 -0.027818851 -0.01702691 -0.008778831 -0.024309842 -0.011546436
0.019861398 -0.0037163475 -0.03931817 0.01634317 -0.0091174785 0.015688928 0.017734982 -0.04742016
-0.000601076 0.026122821 0.050393563 0.021089276 -0.006090881 0.033406902 0.015627142 0.0025595515
-0.0032850977 -0.029748213 -0.0035022225 0.042288028 0.012181481 -0.00021259363 -0.013507571 0.02079312
-0.020658303 0.017364332 0.016230842 0.0090670595 -0.009224515 0.022170028 -0.018380325 -0.013078559
-0.003429859 -0.038874906 0.017950505 0.012890617 -0.015487747 -0.022024132 0.018746005 -0.0135031715

sequential_2/conv2d_4/BiasAdd/ReadVariableOp f4 [64]
00000000: 834d 82bc 8ddd 053c 0a0a 22bd 467c 1cbc
00000010: a6e9 8bbc 86b3 ce3c f44b 6bbb ffdc 4bbb
00000020: b935 a03c 8ed9 16bc c621 843b 49c9 fcbc
00000030: 0694 273c ebca d4bb 7089 a1bc 299b ac3c
00000040: 85ed e63c 074d 84bc b9d6 0cbc 65ae b03c
00000050: 8a9f 903c f542 07bc 4097 8b3b 6a08 d73c
00000060: 8b33 e4bc b3e2 113d 6945 41bb 4016 eebb
00000070: 304b 08bc dc08 ffbb 9e7b ea3b e937 3cbc
00000080: 8b54 b43c 42fb 833b ff8e 573b 4fec 223d
00000090: 8bb6 e8bb 95c6 313d 34f0 0c3d a870 04bc
000000a0: 1f18 bbbc ef7a c2bb f1b4 963c 0d2b f83c
000000b0: 2765 3e3c 64fc 03bc 1a71 013d 9383 fc3c
000000c0: 8a0c abbc 37d6 8dbc 0da5 bfbb b45b 033d
000000d0: 2fdb aebc e0e4 40bc ca65 3a3b bf8a 1fbc
000000e0: 566f 4dbc a4c4 90ba e792 b23c 3983 acbc
000000f0: 36d6 8d3c 4b30 53bc eebe ea3c 047e 7c3c
-0.015906101 0.008170498 -0.039560355 -0.0095511135 -0.017079186 0.025232088 -0.0035903426 -0.0031107066
0.019556867 -0.0092071425 0.0040323464 -0.030857699 0.010228163 -0.0064939163 -0.019718856 0.02107008
0.02818943 -0.01615001 -0.008596116 0.021567533 0.0176542 -0.00825571 0.0042599738 0.02624913
-0.027856609 0.035616588 -0.0029490835 -0.007265836 -0.008318707 -0.0077830385 0.0071558496 -0.011487939
0.02201297 0.004027755 0.0032891629 0.039776143 -0.007101839 0.043402273 0.034408763 -0.0080835
-0.02283865 -0.005935065 0.018396826 0.030293966 0.011620796 -0.00805578 0.031602003 0.030824458
-0.020880003 -0.01731406 -0.005848533 0.032069877 -0.02134475 -0.011773318 0.0028442019 -0.0097376695
-0.012538752 -0.0011044932 0.021798564 -0.021058666 0.017314058 -0.012889932 0.028655495 0.015410904

sequential_2/conv2d_5/BiasAdd/ReadVariableOp f4 [64]
00000000: 1fa4 853d 85fc f0bb 0102 b23b 2c34 26bc
00000010: e43b 64bc fdea fab8 00c1 8a3c ebca d63b
00000020: afe7 8f3c b073 16bc 773e 46bb 35f1 aabc
00000030: 473f 203d 448a 71bc eb7b bbbc 2d44 9e3c
00000040: d4fe f0bc 4c49 563d 64c3 27bc 9c7e 68bc
00000050: ea96 28bc 99cb f3bc 6645 e8bb 1712 e7bc
00000060: f5a5 78bc 5209 f3bc 7576 c4bc 76e5 ffbc
00000070: 2eea 2bbc 48af 07bc a624 623c f038 aabc
00000080: 1d01 c1bb b921 64bb b8a3 0ebc 7cac 9fbc
00000090: cf19 fabb 1b57 f3bc 6c37 c5bc 6a37 8bbc
000000a0: 7269 da3c ee3f b2bb 7063 52bc fcde 9abc
000000b0: 6a07 f03c ecd4 d0bc 6e06 debc c3ca cdbc
000000c0: c1c4 343c c7ec 4ebb 8773 01bc 3957 b0bb
000000d0: f7d0 603c d409 263b e60f af3b 1280 073d
000000e0: e856 f1bb b6ff 10bc ceb4 393d c9ea 46bc
000000f0: 2ba6 44bc 3b7f 7fbc acb7 bc3b b3ed 4abc
0.06525444 -0.0073543214 0.005432368 -0.010144275 -0.013930295 -0.00011964699 0.016937733 0.0065549514
0.01756653 -0.0091828555 -0.0030249634 -0.02086697 0.039122846 -0.014742438 -0.022886237 0.019319618
-0.029418387 0.052315995 -0.010239456 -0.014190342 -0.010289887 -0.029760169 -0.007088351 -0.028206868
-0.015176286 -0.02966753 -0.023982266 -0.031237345 -0.0104928445 -0.008281536 0.013802683 -0.020779103
-0.0058900253 -0.003481014 -0.008706026 -0.019491427 -0.007632471 -0.029704621 -0.024074279 -0.016994197
0.026661608 -0.00543975 -0.012841091 -0.018905155 0.02930041 -0.025492154 -0.027102675 -0.025121098
0.011033238 -0.0031574236 -0.007901079 -0.0053814915 0.013721696 0.0025335448 0.0053424714 0.03308112
-0.0073650964 -0.008850029 0.045338444 -0.012140938 -0.012002508 -0.015594299 0.0057592 -0.0123857735

sequential_2/conv2d_1/Conv2D f4 [64, 3, 3, 32]
00000000: 7166 d2bc f3c5 12bd 362e b83c 763d 783d
00000010: 324e 873d b60e 443d c8cf a8bd 6db6 2539
00000020: 7713 e6bd 139e 4dbd b5c3 89bd f81d 2abd
00000030: 77d7 11bd 92b4 9cbd 1f84 83bd ea9a 8cbd
00000040: dc12 913c 7818 1b3d 36d1 45bd 6baf b03c
00000050: 0318 79bd 983c ce3d ce32 c13c 2955 d5bd
00000060: 660e fdbc b96e 633d d750 633c dcc2 13be
00000070: 378e cbbc 1fbb a8bd 655a 0dbd e7e5 f7bc
00000080: 834c 72bd ec74 8d3d 0b95 eeba 9679 a63c
00000090: 1b3a 06bd e426 8e3d d443 d6bb 2643 fbbc
000000a0: b0ef 27bd f37c da3c 94c9 3cbc 15bb 62bd
000000b0: 93aa e73b e215 43bc 3cba dc3b e947 78bc
000000c0: ec42 70bc cf21 aa3c ac7c e5bd 0dc8 573d
000000d0: 3a9b 71bd 3996 edbb db1f 433d 8f6c 97bd
000000e0: 6422 6b3c 7aa8 97bd f36c ca3c c09a 60bd
000000f0: 5367 913d 56b8 b4bd 08fe c2bd 88f0 803d
00000100: f375 43bd db64 933d 3809 f6bc dbc8 d0bc
00000110: b889 53bd 7d9b c43c 73d7 14bd 7c7a 19bd
00000120: fc49 363d 4e59 833c 73b1 4b3d fc55 063d
00000130: 5bf1 5cbd 8f64 3cbd f6d5 0c3c 503e 9fbd
00000140: 0357 3b3d fc1e 05bd c37a f5bd 34be 18bd
00000150: 414a 39bb a16c 993d be09 863d 6e65 60bd
00000160: a76f 34bd 538d 7b3b ccd9 a6bc d55b 373c
00000170: ca50 60ba 8b45 c8bd 0792 b8bd 136b a23d
00000180: 64de 5fbd 832e 773d 5cff 7d3d 047e c1bb
00000190: efdc a1bd 2a58 8e3d c6a8 23bd ec39 92bc
000001a0: 1a48 5ebd 19fb 573d b51b 003d 7369 a93d
000001b0: cce5 3a3c 95de 8139 113d 8abb 5a32 6e3d
000001c0: 6d93 b0bc 3c1f a9bd 8de0 29bc 5443 3b3d
000001d0: 14f7 6bbd 627e a13d d0ea 8d3c 3008 6e3c
000001e0: 456f 343c fcef 7bbd ec4f 463d 4a96 f6bd
000001f0: ba43 843d 0d9a 603d 2923 b43c a3f1 8bbd
00000200: db53 4dbc 31d5 a0bd 02e7 00bd bc89 133d
00000210: 5235 abbd 52e6 a1bd d68c 77bd c35c 153d
00000220: 9ca4 423b 12d7 49bd 7b63 723c 4827 193d
00000230: c851 9fbb 923e 90bc 95ca 02bc 0bb1 40bd
00000240: 5f94 47bd b176 1cbd 593c 8dbd 9c85 2fbd
00000250: caf4 723d 8f86 433d 5e1f a0bd b20a 9cbb
00000260: 5096 b9bd ad2c b5bc 90e0 a63c b830 a0bd
00000270: 9ef5 123d d248 743d d918 3abd 1312 b03c
00000280: be30 a3bd 4a9f 94bd 0165 0abd d26f 5f3d
00000290: 2e62 4cbd f488 9bbd 9687 873d 0a0c edba
000002a0: 6df0 8e3b 4113 8d3c 5706 c4bd 68ae 2bbd
000002b0: edf8 99bc 1120 e0bc fd4b 38bd 617a e43c
000002c0: 565a 15bd 5ab4 763d 866a 0a3d 28ca c63b
000002d0: d334 833d fb41 75bd e6fd 933d 8026 723d
000002e0: 384b af3c f1b8 1abd ef09 9abc 3fa8 7b3d
000002f0: f5ce 9ebc 747f 91bd ea1d 8cbc 5dfc 7a3d
00000300: 5a40 0f3b f962 9e3c ab5b 3cbd 7547 8c3c
00000310: d044 87bd 4505 ad3c 2a20 963d 00cc 723c
00000320: 31ee 59bc 8ff8 44bc d8aa cc3b 900d 85bd
00000330: 8709 833d 87ed 2b3d f35c 083a c22a 743d
00000340: 81c5 983c 1133 a63d 739a d2bd de70 02bd
00000350: 971b 863c af57 44bd 83a1 babd 128e f03b
00000360: 491a 63bd 9f02 50bd 4e7f 13bc 1f64 2fbd
00000370: 3d22 823d 1bf4 073d 06b4 aabd a95b e6ba
00000380: fa69 a0bc c56c 273c 62e6 a6bc baf5 12bd
00000390: 919e 613d 46b9 153d 02d4 87bd e6d0 293d
000003a0: a5d3 bcbd 3a1d 1b3d 9ce9 3f3b edd3 8a3d
000003b0: ba1b 81bd 4538 233d 3531 44bd 924b 4c3c
000003c0: cc94 a6bd d282 66bc 875c efbd a539 47bc
000003d0: ea88 433d 3147 af3d 0f2c 463d cbf5 48bd
000003e0: ce1f 05bd bc78 063d 25ff 303d 2201 c4bd
000003f0: 0405 50bd 81a8 83bc bc27 cebd 08b6 153d
-0.025683613 -0.03583331 0.022482973 0.06060549 0.066067114 0.047865592 -0.08242756 0.00015803585
-0.112341814 -0.05019958 -0.06726781 -0.041532487 -0.035605874 -0.076516286 -0.064216845 -0.06865485
0.017709188 0.037865132 -0.048295222 0.02156802 -0.060813915 0.10070151 0.023583796 -0.10416634
-0.030890655 0.055525515 0.013874254 -0.14429802 -0.024848087 -0.082388155 -0.034510035 -0.030260993
-0.059155 0.06907067 -0.0018202377 0.020321649 -0.032770257 0.069410115 -0.0065388475 -0.030671667
-0.04100007 0.026670909 -0.011522669 -0.055354197 0.0070698946 -0.011907073 0.006736068 -0.0151538635
-0.014664393 0.020768074 -0.1120542 0.052681018 -0.058985926 -0.007250574 0.0476378 -0.07393753
0.014351461 -0.07405181 0.024710154 -0.05483508 0.07099786 -0.08824222 -0.09521109 0.06295878
-0.047719907 0.07196971 -0.030033693 -0.0254864 -0.05164501 0.023999924 -0.03633828 -0.037470326
0.04450415 0.016033795 0.049729776 0.032796845 -0.053941112 -0.045994338 0.008595934 -0.07775557
0.045737278 -0.032500252 -0.119863056 -0.037290767 -0.0028273019 0.074914224 0.06544827 -0.05478423
-0.044051792 0.0038383796 -0.020367526 0.011191328 -0.00085569604 -0.09778889 -0.090122275 0.07930579
-0.054655448 0.06034709 0.062011108 -0.005904915 -0.07903468 0.0695041 -0.039955877 -0.017849885
-0.05426798 0.0527297 0.031276423 0.08272066 0.011407327 0.00024770634 -0.0042187055 0.058153488
-0.021554673 -0.082579106 -0.0103684785 0.045718506 -0.05760868 0.07885434 0.017323881 0.014528319
0.011012857 -0.061508164 0.048416063 -0.12040384 0.0645823 0.054834414 0.021989422 -0.06833198
-0.0125322 -0.07853163 -0.031470306 0.036020026 -0.083597794 -0.07905258 -0.060437046 0.036465418
0.0029700166 -0.049277373 0.014794226 0.037390977 -0.004862044 -0.01760796 -0.00798287 -0.04704384
-0.048725482 -0.03819913 -0.06896276 -0.04285203 0.05931548 0.047735747 -0.07818483 -0.004762017
-0.09061873 -0.02211603 0.020370752 -0.07821792 0.03587877 0.05963976 -0.045433853 0.021492993
-0.07968281 -0.072569445 -0.03378773 0.05455 -0.04989832 -0.07594481 0.06617658 -0.0018085253
0.004362157 0.017221095 -0.09571522 -0.041914374 -0.018795455 -0.02735904 -0.044994343 0.027890386
-0.036463104 0.06023059 0.033792995 0.0060665794 0.0640656 -0.059877377 0.07226162 0.059118748
0.021398172 -0.03777403 -0.018803565 0.06143975 -0.019385794 -0.07104388 -0.017104108 0.06127583
0.0021858425 0.019334303 -0.04598586 0.017123917 -0.06604922 0.021120677 0.073303536 0.014819145
-0.013301418 -0.012022152 0.006245952 -0.064967275 0.063983016 0.04197457 0.0005201839 0.05961109
0.018648865 0.08115209 -0.10283365 -0.03184592 0.016370578 -0.047935184 -0.09112837 0.007341155
-0.05544499 -0.05078375 -0.00900252 -0.042820092 0.06354187 0.03319178 -0.08335118 -0.0017574924
-0.019581784 0.010218804 -0.020373527 -0.035878874 0.05508286 0.036553644 -0.06632234 0.041458987
-0.092200555 0.03786967 0.002928353 0.06778703 -0.063041165 0.039848585 -0.04789849 0.012469189
-0.081338495 -0.014069276 -0.1168757 -0.01215974 0.047737993 0.085585006 0.04838186 -0.04906253
-0.032501034 0.032829985 0.043212075 -0.095705286 -0.050786033 -0.01607156 -0.100661725 0.03655055

sequential_2/conv2d_2/Conv2D f4 [64, 3, 3, 64]
00000000: be69 24bd f9db 4c3c 9fa5 cc3c 6389 2ebb
00000010: 3f9c c1bc 4e2a 3cbb 8c87 0ebd 518c 863c
00000020: 1503 17bd 37c8 113b 3ed8 883d 0f3b fb3c
00000030: 62ae 9abc 059f 433d e146 20bd a116 ab3c
00000040: c0a2 a3bd 7292 79bd 4a36 67bc 26d5 abbc
00000050: 35de 11bd fa66 9cbc 8a85 883d 6b2e 06bd
00000060: 7d78 eb3b e4ea 1bbb 783c 25bc 32f5 023d
00000070: a0db aebd 4bbf 93bb 9494 49bd 05f3 753d
00000080: 93fb 653d bb0d 693d e06d 27bc 8d71 3abd
00000090: 4d87 6bbd 0abf 3cbd 5fb3 713c 1675 943c
000000a0: 40d2 033d e6bd cfbc e23a d13a e312 21bd
000000b0: b812 27bd 479e f6bc 2e16 523d 5886 3d3c
000000c0: 96d6 113d 1030 29bd 6a82 983d e76f 65bd
000000d0: c07e 703d 708b 2fbd e621 773d 9dab 20bd
000000e0: 1c68 afbc d755 4c3d 989d d73c 7668 323d
000000f0: 8511 483d cb58 403d aced 34bd ba03 b03c
00000100: b0d7 81bd cb60 493c e8f2 bdbb cd1d 123c
00000110: ccc7 dcba eb6f 403d e8fc 82bd 404d 103d
00000120: 1e78 893b 6b9d 483d 1462 8a3c 719c 203d
00000130: ba0e a5bd 0ea8 003c c08b 09bd a4fa 653d
00000140: da98 393d df01 4cbd 6a51 1d3c 24f7 173d
00000150: 290f a73d ea71 823d 1690 5bbd 940f 623b
00000160: 7c71 0d3d 8478 3b3d 4045 663d 562b 6b3d
00000170: 055d 9f3a 46ab 96bd b6a6 97bd f2c3 58bd
00000180: ad2a 29bc 5f99 03bd 7ca1 443c ac28 81bc
00000190: 8817 a83d fab8 4e3a 106b 363a 3294 2f3c
000001a0: 87a3 89bd bcde 063d 9784 053d f1ef 9ebd
000001b0: 000f ac3c 3d7f 89bc 511a 20bd a5fc 60bd
000001c0: ec34 0d3d 4bcb a7bd bfb9 823d 4657 6e3d
000001d0: fd11 1bbc 4a4d 803d ab46 f43b a4df 163d
000001e0: 3f51 0a3d 5a86 2abd eacd 92bd 4f9d 49bd
000001f0: 9de9 64bd 1fac 0d3c 8f49 433d 73d9 733d
00000200: abdc 5dbd 31d9 103d e29e 403d fc9b 7cbd
00000210: b0a1 61bc de96 823c 1c40 f8bc dd40 5cbd
00000220: 74c5 9ebb 89c1 693c aa49 03bd ef03 833c
00000230: 25ee dcbc dff8 48bd 05b3 043d 357a 61bd
00000240: e440 6dbc fe39 5b3b 6a25 0b39 fec1 a0bd
00000250: 530d 083d 8e00 4b3d 87a0 663d 45ae 833d
00000260: 90c9 a8bc a609 1fbd a55f a0bc 5c70 113d
00000270: cdba d83c a2db e0bc e9cb 5bbd 639d babc
00000280: 9a6b 513d ad5e 703d b959 80bd 32ec 81bd
00000290: efdd 803c 3ce7 37bd 1ee0 483d d3a6 e3bc
000002a0: 43f5 82bd b779 9e3c cc31 9a3c 420f b3bc
000002b0: 4bff 533d 8163 1d3d 1f8e 9ebc a998 02bd
000002c0: 1a44 16bc 9810 05bd 7c52 78bd 19f9 31bd
000002d0: c64b c9bc 3b6e 89b9 f22b f03c a357 fc3c
000002e0: 9d92 8e3d 931f 4bbd e55d 363d f494 823c
000002f0: 9fca 64bd 7ba4 193c fe96 6f3c bfe0 e3bc
00000300: 835e eb3b 0cdc 55bd 0862 1ebd 218b 65bd
00000310: 255c 2ebd 7307 bfbc 3bcc 133c d7de 3dbd
00000320: 7642 96bd e740 9bbd c823 a33c b560 8fbc
00000330: 16dc bf3c 3c65 d9bc 7ce2 913d f231 003d
00000340: 02ec 533d 4896 0e3d da4b 143d 43e4 38bd
00000350: 37f3 dfbc 1a49 8dbd 6d61 b43c 10d4 383d
00000360: 3370 14bd 3540 863d ca6d 563d bc05 4abd
00000370: 4c51 a9bd 8142 4fba 1678 95bd 5ea0 d4bc
00000380: 630c 0c3b bb06 9b3c 97ee 01bc 4e63 06bd
00000390: 9669 423d 0441 34bd c113 893b 607d 803d
000003a0: 7689 0dbc 2f1b 043d 36d2 80bd 43e1 1abc
000003b0: 3caf 8b3b 05b8 27bd a5f1 a5bd 3720 23bd
000003c0: 07af 3f3d b9a7 8abd 9d09 29bc 96b2 273d
000003d0: 2b2b 71bc 24bf 353d ce0d 653b 1f49 89bd
000003e0: 17b5 453d ae22 d1bc 5478 25bd 5480 283d
000003f0: 4e11 3f3d 0164 cebc 870b f93c 8369 5ebd
-0.040139906 0.012503617 0.024981318 -0.0026632182 -0.023634074 -0.002871174 -0.034797236 0.01642433
-0.036868174 0.0022244581 0.0668187 0.03066781 -0.01888198 0.047759075 -0.039130095 0.020884814
-0.079900265 -0.060930677 -0.014112065 -0.02097566 -0.035612304 -0.019092072 0.066660956 -0.03275911
0.007185994 -0.0023791129 -0.010085218 0.031972118 -0.08537984 -0.004508888 -0.04921396 0.060046215
0.056148123 0.05689786 -0.010219067 -0.045518447 -0.05750208 -0.046080627 0.014752238 0.018122237
0.032182932 -0.025359105 0.0015962983 -0.039324652 -0.040789336 -0.03010477 0.051290683 0.011567675
0.035605036 -0.0413056 0.074467495 -0.05601492 0.05871463 -0.042857587 0.060335062 -0.039226163
-0.021411948 0.04988655 0.026320264 0.043556653 0.048844833 0.04695968 -0.044171974 0.021486152
-0.06339967 0.012291144 -0.005796779 0.008918238 -0.0016844212 0.046981733 -0.06395894 0.03522992
0.0041952273 0.04897825 0.01689247 0.039211694 -0.080594495 0.007852567 -0.03358054 0.056147233
0.045311786 -0.049806472 0.00960193 0.037100926 0.081571884 0.06369384 -0.053604208 0.0034494149
0.034532055 0.04576923 0.056218386 0.057414375 0.0012158459 -0.073568866 -0.074048445 -0.052921243
-0.010325116 -0.032128688 0.0120013915 -0.015766464 0.08207613 0.000788584 0.00069587026 0.010716485
-0.067206435 0.03292726 0.03259715 -0.07760609 0.021003246 -0.016784305 -0.039087597 -0.05492844
0.0344743 -0.08193072 0.063830845 0.0581887 -0.009464738 0.06264742 0.0074547133 0.036834374
0.03376889 -0.041632034 -0.07168181 -0.049222287 -0.055886853 0.008646994 0.047677573 0.059533548
-0.054165523 0.03536338 0.047026522 -0.061672196 -0.013771459 0.01594108 -0.030304007 -0.053772796
-0.0048453156 0.014267334 -0.032052673 0.015993087 -0.026969025 -0.049065467 0.03239729 -0.055048186
-0.014480803 0.0033451314 0.00013270011 -0.07849501 0.033215832 0.049561076 0.056305435 0.06429724
-0.020603925 -0.03882756 -0.019576857 0.035507545 0.026456261 -0.02744848 -0.05366126 -0.022780126
0.051128007 0.05868404 -0.06267113 -0.06343879 0.015730826 -0.044898257 0.04904186 -0.027789509
-0.06394436 0.019345148 0.018822573 -0.021857861 0.05175714 0.038424972 -0.019354878 -0.03188387
-0.00917151 -0.03248653 -0.06062554 -0.04345045 -0.024572264 -0.00026212804 0.02931783 0.030803507
0.06961558 -0.04959066 0.04452314 0.015940167 -0.055857297 0.009377594 0.014623402 -0.027817128
0.0071828975 -0.052211806 -0.03866771 -0.056040887 -0.042568345 -0.023318982 0.00902086 -0.046355095
-0.07336895 -0.075807385 0.019914523 -0.017502168 0.023420375 -0.02653753 0.071232766 0.03129763
0.051738746 0.034811288 0.03620515 -0.045139562 -0.027337654 -0.06898709 0.022019112 0.045124114
-0.036239814 0.06555215 0.052350797 -0.049321875 -0.08267459 -0.0007906333 -0.07298295 -0.025955375
0.0021369688 0.018924108 -0.007930419 -0.032809548 0.047463976 -0.044007316 0.004183263 0.062739134
-0.00863873 0.032252487 -0.062900946 -0.009453121 0.004262833 -0.04094698 -0.08102731 -0.039825644
0.04679778 -0.06770272 -0.010317233 0.040941797 -0.014719765 0.04437174 0.0034950855 -0.067034
0.048268404 -0.025529232 -0.040397957 0.04113801 0.046647362 -0.02519417 0.030401004 -0.054299843

sequential_2/conv2d_3/Conv2D f4 [64, 3, 3, 64]
00000000: 5d33 84bd 4c34 c93b 3eb3 723d 88bb 5cbd
00000010: fe9d a23c ea5f 113d 0aaa 443d 461e 73bd
00000020: fc5a 2abd 45df 0a3c 715f 42bc 9745 68bd
00000030: 901c 6f3d 9e0b 723d fe02 1e3d 3598 0e3d
00000040: 1ed6 4a3d 1d87 943d c4d4 663d a162 90bd
00000050: e525 823d 97f4 8dbc 79c9 95bd e0d1 adbc
00000060: 00ac 68bd a06b 2f3d 70fe 3fbc ce43 5abc
00000070: 20a7 983c 5ec7 90ba 4b5f 783d 2915 203c
00000080: c1b7 5d3d 7a6e 97bc ab72 d43c 244e 1abd
00000090: 8fea 5e3d 4612 24bd 3041 71bc 1826 113d
000000a0: 32ce 32bc ae6a 7e3b eb66 673d 8a8a 05bd
000000b0: c054 113d bcd8 1ebd cbc5 b63d 2e83 393c
000000c0: 296e 02bd d4a1 de3c 83db 703d e3bb 553d
000000d0: 24a9 38bd 254a ce3c d36d a4bd 2edd 003d
000000e0: 0680 f53b 8005 273c b681 00bc c8c4 eabc
000000f0: b678 673b 099c 3f3c 6bcf d4bc aa1b 21bd
00000100: 464f 58bd 66b2 933d 0cdc 16bb fca5 56bd
00000110: 4124 4fbd 72ff a1bb 4051 293b 553e 173d
00000120: 4aa5 773d 3b43 ae3c fb3c 033d 7980 dcbc
00000130: 8fb2 b03d 5a68 6f3d 2294 9c3d 650a 40bc
00000140: 4cf2 29bd 6900 6fbc c8c2 3abd b34b 0a3d
00000150: 7ba3 eb3c 87f1 303d 2652 ac3c 4c76 7dbd
00000160: b2b1 7fbd ff11 84bc ab8b 8f3d 9366 993d
00000170: e5e3 75bc 0972 ee3b 0c5b 5d3d 63c8 9fbd
00000180: 498f b3bc dc0a 8dbd 7a53 8a3d bfcb d8bc
00000190: 4df5 7dbd 84e6 9dbd bfaf 62bd 439d 853d
000001a0: 5612 b83d 035f 08bc d7c6 8e3d 1f5d b73d
000001b0: 3adb db3c a551 363d 642b 803d 2857 bbbc
000001c0: a6cc 36bd 4bfb e73c 3eea 0b3d 0c9b e43d
000001d0: 7554 2a3d 48ee afbc b110 213d c9d5 fc3b
000001e0: b3e0 ec3c 3f3e 403d dd9a 2b3d dd57 c03d
000001f0: c85e 81bd a5e8 a13c e847 673c 66b9 e8bc
00000200: 14b4 a6ba 2bbf b83d 2cf0 82bd d33f 123d
00000210: 65c0 da3c 5b59 f2bc 93e1 643d 9277 6e3d
00000220: 66f2 03bd 4f31 71bc ffcd a5bb b23f 8dbd
00000230: 163c 4cbd 846e 893d f02e 5dbd bceb 223c
00000240: a063 6f3d 8994 a33d d19a 063c 2a41 9fbc
00000250: e91c 5bbd c314 673c 8d97 c63b d4e1 3abc
00000260: ea6d 4c3d b4ab fb3c 6113 debc 27f1 6d3d
00000270: 8c63 153d cca3 ab3c 1bcf 853b 32c7 6abd
00000280: 4124 793d 3340 703d 2e18 d8bc 2d72 beba
00000290: 90ed d3ba 165b 52bc 772b 18bd ceaa 323c
000002a0: 3888 303c 286b 813d bb67 783d d2d1 5e3d
000002b0: 8d31 033d 1f86 40bd 29c4 a6bc fff8 b53c
000002c0: 6922 71bd 44d3 b53c 3d1e 2bbd 5c2c 1c3c
000002d0: bbda 52bb 0952 013d 0baa bfbc 11b1 acba
000002e0: 6ea7 95bd 9ff5 263d 9b9f ed3c 1abd e43c
000002f0: b1c5 09bd 651e 75bd 0649 e4bb dd66 4e3d
00000300: 4d63 01bd ff7d 17bd 4caa 36bd fd97 89bd
00000310: 8ba8 13bd 4c13 d7bc 9f6e 92bd c794 1c3d
00000320: 506b 9c3b 161c 823c 2c7a 813d bdf4 cc3c
00000330: dd97 903d 76a0 bf3d e8c2 6a3d 2012 1dbd
00000340: b1b9 3e3d fb74 613d 9746 293d 7025 2b3d
00000350: 66dd 7cbc c495 9ebd 965f 00bd ee80 49bd
00000360: b061 0c3b 4ff6 883d 5a49 733d 2da3 893c
00000370: 71b1 513d a126 b2bc 31f5 65bb 65fc 6a3d
00000380: 50c3 b73d 9106 d83c 7ec5 81bd 43d5 19bd
00000390: b5c0 f83c a801 463d 0298 b4bc 9b93 3fbc
000003a0: 3f04 b43d 1593 5fbd ecdd 3f3d fc90 923d
000003b0: fedf 71bd f7a6 15bb 0fa7 283d 2cd7 333d
000003c0: 019d 91bd 5a0c b73d 545c d33d a823 bf3d
000003d0: 42a2 083d 2bbc f6bb 906a 493d 3684 0b3d
000003e0: 429d ad3c da8f 74bd 009b d9bc 6207 f23b
000003f0: cbb4 cd3a aeb9 56bc d167 3ebd 6a4c ddbc
-0.06455109 0.0061402675 0.05925297 -0.05388978 0.019850727 0.03549186 0.048013724 -0.059355043
-0.041590676 0.008476083 -0.011863575 -0.05670699 0.05837685 0.05909311 0.038577072 0.034813125
0.049520604 0.07252333 0.056355253 -0.07050062 0.06354884 -0.017328544 -0.073138185 -0.02121824
-0.056804657 0.04282725 -0.0117183775 -0.01332183 0.018634379 -0.0011045744 0.060637753 0.00977067
0.05413032 -0.018485297 0.025933584 -0.037672177 0.05442291 -0.04005649 -0.014725015 0.03543672
-0.010913419 0.003882091 0.056494635 -0.032602824 0.035481215 -0.038780913 0.08924445 0.01132278
-0.03184334 0.027176775 0.058803093 0.052181136 -0.04508318 0.02518184 -0.0802876 0.031460933
0.007492068 0.010194182 -0.0078434255 -0.028658286 0.0035319752 0.0116949165 -0.02597781 -0.039333023
-0.052809976 0.07211761 -0.0023019342 -0.05240439 -0.050571684 -0.0049437815 0.0025835782 0.03692468
0.060460366 0.021272292 0.032040577 -0.02691673 0.08627807 0.058449127 0.076454416 -0.011721228
-0.041490838 -0.0145875 -0.045595914 0.0337636 0.028764477 0.04319909 0.021035265 -0.061880395
-0.062425323 -0.016121862 0.070090614 0.074902676 -0.015007948 0.0072767776 0.054041907 -0.078018926
-0.02191891 -0.06886837 0.06754203 -0.026464341 -0.062001515 -0.07709983 -0.055343386 0.06524136
0.08987872 -0.008323434 0.069715194 0.08953308 0.026837934 0.044511456 0.06258276 -0.022868708
-0.04462876 0.028318068 0.034158938 0.11162385 0.04158445 -0.021475926 0.03932256 0.007715915
0.028915739 0.046934363 0.041895736 0.093917586 -0.06316906 0.019764254 0.014116265 -0.028408717
-0.0012718462 0.090208374 -0.063934654 0.0357054 0.026703069 -0.029583624 0.055879187 0.0582195
-0.03221359 -0.014721229 -0.005059957 -0.068969145 -0.04986199 0.06710532 -0.05399984 0.009943899
0.05844462 0.07987315 0.008215622 -0.019440252 -0.053494368 0.014104071 0.0060605467 -0.011406381
0.04990951 0.030721523 -0.02710885 0.05809131 0.03647189 0.020952128 0.004083527 -0.057318874
0.06082559 0.058654975 -0.026378717 -0.0014529877 -0.0016168822 -0.012839099 -0.037150826 0.010904981
0.010774665 0.063192666 0.0606458 0.05439932 0.032029677 -0.047002908 -0.020357208 0.022213457
-0.058870707 0.022195466 -0.041776884 0.0095320605 -0.003217383 0.031572375 -0.023396512 -0.0013175328
-0.07307325 0.040761586 0.02900677 0.027922202 -0.0336358 -0.05984344 -0.006966713 0.050391067
-0.03158884 -0.036985394 -0.044596 -0.067184426 -0.036049407 -0.026254319 -0.071500055 0.038227823
0.004773535 0.015882533 0.063221306 0.025019044 0.070602156 0.09356777 0.057314783 -0.038347363
0.046563808 0.055043202 0.041327085 0.04178375 -0.015433645 -0.07743409 -0.031341158 -0.049195223
0.002142053 0.06687605 0.059396125 0.016801441 0.051194612 -0.021746935 -0.0035088772 0.05736961
0.089728 0.026370319 -0.06336497 -0.037556898 0.030365327 0.048341423 -0.02204514 -0.011692907
0.087898724 -0.054583628 0.0468425 0.0715656 -0.059051506 -0.0022835115 0.041174944 0.043906376
-0.07110024 0.08937903 0.103203446 0.09332973 0.033357866 -0.0075297556 0.04917389 0.034061633
0.02119315 -0.0597075 -0.026563168 0.007386134 0.0015694139 -0.013105793 -0.046485726 -0.027013976

sequential_2/conv2d_4/Conv2D f4 [64, 3, 3, 64]
00000000: bb2d 793d 71af 633d e906 3fbc a930 15bc
00000010: 0d40 5b3d f0af 90bc ea02 64bd 7a45 e0bc
00000020: 13e5 25bb 5d0c c23d 7297 4b3d d0be 9a3d
00000030: 5ce5 f4bc 9059 1bbd 638a 27bd 788b 2c3b
00000040: 6323 16bc ff55 503d c58d 853d fc17 883d
00000050: b874 db3c 5877 403d d8e5 263b 1ba4 ba3d
00000060: 2dea 8c3d 3cd7 873c 88c0 913c 5ac8 93bc
00000070: 0fe0 85bc ddcf 1b3d 9270 463d 8e24 be3d
00000080: 3968 7e3d 8bed 433d 1cb8 70bd aa4d 943d
00000090: b9cb 853c f7b8 453c c002 143d 1ab5 62bc
000000a0: f6fb 61bc 1c23 fb3c 8d23 c93d 7e3a d53c
000000b0: 6604 be3c 3f27 5cbc f2b4 3e3d 61cf 8dbc
000000c0: 9240 f73c f132 393d e2ab 58bd d133 a63d
000000d0: 1f59 a239 99db ed3b ba69 273c 0ea9 853c
000000e0: 0d73 9f3d 738f 693d 5ed0 b83d 0038 6e3d
000000f0: 5d55 fe3c 3762 863d 7789 583d b08f 4d3d
00000100: 25ae 9e3d 511e 7e3d c9e2 84bb a71b 65bc
00000110: 5846 6c3d d05f 3a3d 5624 8c3d 5266 f23c
00000120: db48 823d 7819 9e3d b3a4 983c 0fc8 1e3d
00000130: f660 9d3d 654a 9cbd bfb3 cebc cbcc a43d
00000140: 8a15 603d dbbb b03a 7e2b af3d 685b ac3d
00000150: 601b 30bd 5ba4 0a3d a83d 2abc 6a91 0c3b
00000160: b7cd dabc 4c9e 0dbd f913 083c 7481 993d
00000170: 8452 59bc d31c 44bd 136f 873d c832 993d
00000180: e3e6 34bd 4714 363d a799 0fbd 8545 a93d
00000190: c49c 903c 71cd e339 fdb4 03bd b402 8b3d
000001a0: 2f5a 89bc 823a 3d3d 9991 4f3d 55c0 603d
000001b0: d7a0 1bbd c630 9c3c 8da3 9b3d 1a54 ddbc
000001c0: d7d9 513d 9e68 32bc aa7a 4a3d 882b 793d
000001d0: 224e 283c 97c2 49bd 74b4 1dbc 4726 8ebc
000001e0: 28c6 063d a01f ca3d 9f61 3b3c 1b37 803d
000001f0: d71a 48bc 0ba0 d4bc 9643 883d 8314 8a3d
00000200: e777 323d 5672 a83d 78bc 763d 7cd3 58bd
00000210: 5881 313d 2d73 beba dbf4 f13c af12 48bd
00000220: 5884 03bd 84e2 393d 8612 5abc 3af0 923b
00000230: 38bb 3f3d ebb4 83bd 9693 fcbc a72b 7ebd
00000240: 306b 19bd 0b67 9e3c f710 1c3c 396c da3c
00000250: 9804 0dbd fc57 1ebb 2a5e bebc 4f41 eb3b
00000260: 01bb f6bb 276b 253d af66 1dbc 7af8 29bd
00000270: 4206 233d a01a 4dbd 9582 3c3d f9f7 b63c
00000280: c962 05bd 78d1 9fbc 3f57 94bb 9de1 ac3d
00000290: 0bd3 8abd 7d3a 37bd ff45 0dbd f898 693d
000002a0: 2a06 543d a977 c73d 60a1 903d c5e1 683d
000002b0: d809 0fbd 5be8 4bbd dc1e c43d b71e abbc
000002c0: fa35 0dbd d278 173d cc2f 0fbc b6d8 a13d
000002d0: f121 4bbd 56ea 68bd 0c29 143d 70a1 2b3c
000002e0: 92eb 63bc 9787 653b 3dad 0cbd 138f 20bd
000002f0: 71a6 4c3d b277 8bbc e147 d2bc aadd 833d
00000300: 5a77 32bd 0c03 32bd 994f 533d a5ec 33bd
00000310: a513 063d a6c5 60bd e76e 033c 7435 69bd
00000320: 0abc 573b 36bd a33d 9adb 963d 4baf a2bd
00000330: e0e4 973d a85f f1bc c137 1bbd f745 f73b
00000340: 5243 5a3d ae19 df3b fea2 90bc 579a c43b
00000350: a8de 943d 8b03 07bc 9ce3 e6bc 02cd 00bd
00000360: 3500 333d b8d3 b43c 9d0a 793d 1865 8a3d
00000370: c2af 4c3c ddd6 dbbc 03f2 2fbd 09d2 193d
00000380: 69f9 883c 3e84 a33b 3014 263d 1cca cebb
00000390: f99a 8f3d c1de 17bd 6918 ba3c 3b12 14bd
000003a0: 7257 4d3a ea21 aabc c80d 2ebc 2e19 4b3d
000003b0: 26e9 063d be9d 9b3c b7e4 bebc d448 833d
000003c0: d61d 8abc d559 be3b ccf8 42bc e285 a73c
000003d0: ae9c 8a3b 058e 593d 9360 da3d 5a6c 3ebd
000003e0: 8740 62bd c774 5ebc a96a a8bc 596f 44bd
000003f0: 2e77 b33d 44ab 013d e1a9 473d 2f89 37bd
0.060834628 0.055587236 -0.011659362 -0.00910584 0.05352788 -0.017662019 -0.05566684 -0.027376879
-0.002531354 0.09475014 0.049704976 0.07555926 -0.029894523 -0.03792721 -0.04090346 0.0026328247
-0.00916371 0.050863262 0.06521181 0.066452 0.026789054 0.046988815 0.0025466587 0.09113332
0.06880603 0.016582124 0.017792001 -0.018039871 -0.016342191 0.03804003 0.0484472 0.09284316
0.062111113 0.04783396 -0.05876933 0.07241376 0.016332494 0.012068025 0.036135435 -0.013837123
-0.013792982 0.03065639 0.09821234 0.026028868 0.023195457 -0.013437091 0.04655928 -0.0173108
0.030182157 0.045214597 -0.052898295 0.08115352 0.00030965448 0.007258844 0.010218078 0.016315963
0.07785616 0.05702157 0.09024118 0.058158875 0.031046564 0.06561702 0.05286547 0.05018586
0.07748059 0.06204063 -0.004055355 -0.013983644 0.057684273 0.04550153 0.06842868 0.029589806
0.06361552 0.077197015 0.018633222 0.03876501 0.076845095 -0.07631377 -0.025232194 0.08046874
0.05470804 0.001348372 0.08553217 0.08415872 -0.042994857 0.033848148 -0.010390677 0.0021448978
-0.02670942 -0.03457479 0.008305543 0.07495394 -0.013264302 -0.04787905 0.066129826 0.07480389
-0.044165503 0.04445293 -0.035058644 0.08265213 0.017652877 0.0004344988 -0.032155026 0.06787625
-0.016766636 0.046198376 0.050675962 0.054870922 -0.037995186 0.019066226 0.07599554 -0.027017642
0.05123314 -0.0108892005 0.049433388 0.06083253 0.010272535 -0.04925784 -0.009625543 -0.017352236
0.03290382 0.09869313 0.011436849 0.062605105 -0.01221343 -0.02595522 0.06653516 0.067421935
0.04357138 0.08224933 0.06023833 -0.052936062 0.043336242 -0.0014530175 0.029535701 -0.048845943
-0.032108635 0.045382038 -0.01331008 0.0044842036 0.046809405 -0.06430992 -0.030832093 -0.06205335
-0.037455738 0.019336244 0.009525529 0.026662933 -0.03442821 -0.002416133 -0.02323826 0.0071794163
-0.007529617 0.04038539 -0.009607001 -0.04149673 0.03980089 -0.05007422 0.04602297 0.02233504
-0.032564912 -0.019509062 -0.004527002 0.0844147 -0.067785345 -0.044733513 -0.03449058 0.057030648
0.05176369 0.0973962 0.0706203 0.056855936 -0.034921497 -0.04978214 0.095761985 -0.02088867
-0.034475304 0.036980458 -0.008739423 0.079026625 -0.049592916 -0.056864105 0.036171958 0.010475501
-0.013911145 0.0035023445 -0.0343449 -0.039198946 0.04996342 -0.017024849 -0.02566904 0.064387634
-0.043570854 -0.043459937 0.051589582 -0.043926854 0.03273358 -0.054875992 0.008022047 -0.056935742
0.0032918476 0.079950735 0.073661044 -0.07943591 0.07416701 -0.029464558 -0.037894968 0.0075461823
0.053286858 0.006808481 -0.017655846 0.005999844 0.07269031 -0.008240591 -0.028184704 -0.03144551
0.04370137 0.022073612 0.060801137 0.06757563 0.012493076 -0.026835853 -0.04295541 0.03755382
0.01672049 0.0049901297 0.040546596 -0.0063107144 0.070119806 -0.03707767 0.022716718 -0.0361502
0.000783316 -0.020768125 -0.010623403 0.04958456 0.03293719 0.018996116 -0.02330242 0.06410375
-0.01685993 0.0058090487 -0.011900138 0.020449582 0.0042301035 0.053113956 0.10662951 -0.04649005
-0.05523732 -0.013577647 -0.020558672 -0.047957752 0.08762966 0.031657472 0.048745994 -0.044808563

sequential_2/conv2d_5/Conv2D f4 [64, 3, 3, 64]
00000000: 7ff9 8fbd 57a4 97bd 398e 6bbd 26cb 03bd
00000010: 6878 49bd f68e 11bd 81dd 5c3d ee94 2c3d
00000020: f6f8 b53d 1f7c a5bb afdd f4bb 29ff 13bd
00000030: ba1a 753d 3426 e93b b067 823d 4636 513d
00000040: cc94 b43d ff62 1fbd fb5d 33bc df1a f2ba
00000050: 65ba aa3c 5702 7c3d 6971 b43d 97ed 0abd
00000060: a3c0 b43c 1c7d 203c 7cf8 a8bc 64f6 89ba
00000070: 0847 783d b78d b2bb 7894 7b3d 6c88 e43c
00000080: 6f79 533d dd9a 3c3d 2ac8 c53c d504 cc3c
00000090: 92be 77bd 728b 873d 41ea 383c 3677 a3bd
000000a0: 4fb7 2cbd ec1e c43c 2971 aa3b 0973 0bbd
000000b0: 0863 01bc 4fd2 14bd 8006 043d 597c 41bd
000000c0: 4348 79bd 13af 943d e833 b0bc db36 bbbc
000000d0: 0bba 5d3d 077f 64bc 4940 f23c 6dfa 3a3b
000000e0: 0976 213d 6a3b 82bc a8d4 2ebc de1c 2abd
000000f0: de8e 8a3d 2b2b 973d b413 37bd 0164 d53c
00000100: 0b75 183d 08ef 38bc 274a 39bc da27 023c
00000110: 7e6f 99bc 6045 3abd 3ab5 39bd b650 5b3d
00000120: 6d26 2b3d 8cc6 3a3d d07e 03bb db14 c23c
00000130: 0adb 67bd b224 83bd 1399 0fbc 5849 9b3d
00000140: 3a56 0abd 5b44 03bd 2e59 4dbd fbb2 a1bc
00000150: 88aa ac3c c5ad f5bb 495b 743d 7be0 4c3d
00000160: c312 74bd b1f6 bb3c c403 8d3d 90a5 38bb
00000170: 6b67 65bd 2cef b03c 8b72 3d3d 3c81 11bd
00000180: 3fa7 bbbc 1996 843d cc51 b2bc 409c d43c
00000190: 1569 a6bc cf7d dbbc 7e35 cf3d 3088 9b3d
000001a0: e2e8 25bd 4d2d a2bd 951e 6d3d 2e9c 45bd
000001b0: d9eb 65bc 84b5 4abc 6825 d93d 3895 c83d
000001c0: 238d 9abc 4f7c 933d 358c 373d 238a 8b3b
000001d0: 1103 09bd 45d4 2c3d 270f af3d 8a59 283c
000001e0: 2a92 2e3c 46aa 603c 62fd 013b 5466 39bd
000001f0: 2b9c b53c a46f a43c c6fc 9e3d 241b 1b3a
00000200: c7f5 37bc e905 c73c 3472 8e38 093f 89bd
00000210: 2f9d 90bb 0efb 75bc 7bf4 3c3d 85fe 923b
00000220: 641b 073d 9e75 05bd 02bf 9a3b 1e62 1dbc
00000230: 3453 1e3c 1bcf 103d c264 2c3c f0da c13c
00000240: 9655 2f3d 2630 0cbd f2e4 0abd f7c8 bdbb
00000250: 6d71 0cbd 9756 f83b 5a29 8fbd ad20 5e3d
00000260: 93a3 fd3c a9fc c9bb 4ef3 133d 0498 ae3c
00000270: fe3a 69bd 7cf9 593d 1390 0d3d 3a45 593c
00000280: 1a80 aa3d 5c5b e73c 8c93 833d 3589 aa3d
00000290: d5b2 283c b7e2 133d 6ec2 433d e6f3 27bd
000002a0: 5f99 91bc 0839 11bd f5dc 03bd b036 d23d
000002b0: 1d26 8f3d 07d0 143d 09a2 933d d488 8c3d
000002c0: a792 f1bc fe82 9a3d b154 b33c 2469 be3c
000002d0: 39c1 d23c 1540 c13b d4c1 cfbb 277f 90bb
000002e0: 37da 76bd ffb2 873d d020 c9bc 359e 96bd
000002f0: 15a9 33bd 14b0 91bc 694f b53b 3c9b 453d
00000300: 164c 243d e519 433d 77b4 ddbd 76d0 793d
00000310: e2be 58bd 3565 7e3d 8f27 bd3c d3bf 65bd
00000320: 649e 62bd 75f6 56bd d49a 8c3d 8b55 3cbd
00000330: 64d7 ad3c bd04 793d 60d4 3fbd fe64 313d
00000340: 7454 58bd b982 93bd df47 e33b 8308 45bd
00000350: a186 8ebc cc6a 333d 68cd 283c ca6a 9d3c
00000360: dfe5 d4bc 444f 0f3d 9a60 26bc dfd4 efbc
00000370: 4e7f 5b3c 7993 5fbd 23ae 76bd 2028 73bd
00000380: 1879 7a3b 5aa4 a63c ad48 d4bc 47a8 aa3d
00000390: 70d7 77bc 39de 183d 8ce1 433d 90e5 5f3d
000003a0: f524 0bbd dc1a 683d 14b9 893d 7d28 0f3d
000003b0: 2eb9 70bb ad1d a6bd 41b5 a13d 57ee 413d
000003c0: 5db6 7f3a a575 383d 5d1c 1e3d a45d 143d
000003d0: 69da 13bc 2662 70bd 567a c23d 81ad 473d
000003e0: 9f2a d33c 1f87 2c3d 1bcc 993d 24b7 6e3d
000003f0: e1e5 21bd 6159 1dbd c682 3a3d 7679 933d
-0.070300095 -0.07404392 -0.05750868 -0.03217616 -0.049187094 -0.03553673 0.05392218 0.042134218
0.08885376 -0.005050197 -0.007472716 -0.03613201 0.05983994 0.00711515 0.06367433 0.05107715
0.08817443 -0.03891277 -0.0109477 -0.0018471143 0.020840833 0.06152567 0.08810694 -0.03391799
0.022064513 0.009795453 -0.0206263 -0.0010525701 0.060614616 -0.0054490226 0.061420888 0.027897082
0.05162948 0.046046127 0.024143297 0.024904648 -0.060484476 0.06618394 0.011286319 -0.07981722
-0.042167004 0.023940526 0.005201478 -0.034045253 -0.007897146 -0.03633338 0.03223276 -0.047237728
-0.06085993 0.07259955 -0.021509126 -0.022853306 0.054132503 -0.013946301 0.02957167 0.0028530613
0.039419208 -0.015897471 -0.010670818 -0.041531436 0.06765531 0.073812805 -0.044696525 0.026048662
0.037220996 -0.011287458 -0.011309183 0.007944072 -0.018729921 -0.045476317 -0.045338847 0.05354377
0.041784693 0.045599505 -0.00200646 0.023691585 -0.056605376 -0.064034835 -0.008764523 0.075823486
-0.03377364 -0.03204761 -0.050133877 -0.019738665 0.02107741 -0.0074975216 0.05965737 0.05001877
-0.059588205 0.02294478 0.06885484 -0.0028174855 -0.05600683 0.021598421 0.046251815 -0.035523638
-0.022906898 0.06473941 -0.02176752 0.025953412 -0.020313779 -0.026793389 0.10117625 0.07594335
-0.040505297 -0.07918797 0.057890493 -0.048244648 -0.014033281 -0.012372378 0.10602838 0.09794086
-0.018866127 0.07201444 0.044811446 0.0042584105 -0.03345019 0.042194624 0.08547812 0.010275254
0.010654965 0.013712471 0.0019834866 -0.045263603 0.022169193 0.020072766 0.077630565 0.0005916825
-0.0112280315 0.02429481 6.7923596e-05 -0.06701476 -0.004413269 -0.015013469 0.046131592 0.0044859075
0.032985106 -0.03258287 0.004722477 -0.0096059125 0.009663392 0.03535376 0.010522069 0.023663968
0.04280623 -0.034225605 -0.033909746 -0.005791779 -0.03428786 0.0075786817 -0.06990309 0.05423038
0.030961787 -0.0061641526 0.036120705 0.021312721 -0.056941025 0.053216442 0.034561228 0.013261134
0.08325215 0.028241806 0.06424627 0.083269514 0.010296543 0.036104884 0.047792844 -0.041004084
-0.017773328 -0.03545478 -0.032193143 0.10264337 0.069896914 0.036331203 0.0720864 0.068620354
-0.029488875 0.07544516 0.02189097 0.023243494 0.025726901 0.0058975318 -0.006340245 -0.004409689
-0.0602667 0.06625938 -0.024551779 -0.07354394 -0.04386242 -0.017784156 0.005533148 0.048243746
0.040111624 0.047632117 -0.108254366 0.06098982 -0.052916415 0.062108237 0.023090152 -0.05609114
-0.055326834 -0.052481133 0.068654686 -0.045980018 0.02122087 0.060795534 -0.046833396 0.043309204
-0.052814916 -0.07202668 0.006936058 -0.04810382 -0.01739818 0.04380302 0.010302879 0.01921596
-0.025988517 0.034987703 -0.010154868 -0.02927631 0.013397051 -0.054584 -0.060224663 -0.059364438
0.003821915 0.02034204 -0.02591356 0.083328776 -0.015127048 0.037321303 0.04782252 0.054662287
-0.03397079 0.05666624 0.06724754 0.034950722 -0.003673147 -0.08111129 0.078958996 0.04734644
0.0009754652 0.04503407 0.038601268 0.036222115 -0.009024241 -0.05868735 0.0949599 0.04874945
0.02577716 0.04212105 0.07509633 0.058280125 -0.03952587 -0.038415316 0.04553487 0.07200901

sequential_2/dense_1/BiasAdd/ReadVariableOp f4 [5]
00000000: 36c3 7abd 5ae9 7a3c 3357 8cba 9102 243d
00000010: 1358 7abb
-0.061221324 0.015314424 -0.001070714 0.04004151 -0.003819947

sequential_2/dense/BiasAdd/ReadVariableOp f4 [64]
00000000: 9ab2 6abc 54fc 5fbc edd9 aabc 8fd4 d0bb
00000010: cc2c e3bc 10de 2d3d 8f6d 49bd 85c2 4c3d
00000020: be25 5e3d 7845 37bd 07fa 013d aaf1 c0bb
00000030: 4e86 583d 2fa7 84bc 6855 7b3c a0d1 dbbc
00000040: f7e6 efbc ca36 223d e0a5 99ba 4339 05bc
00000050: 5367 7cbb 4054 54bc 7a8f e53b f099 c6bb
00000060: cd52 a83c cae8 ebbc e5b3 ee3a 6daa e6bb
00000070: 6084 68bc 3c5f 11bc 60a5 c03c 7e9d c9bb
00000080: 6481 2f3d c240 c6bc ae82 7b3c c0c3 f9bc
00000090: dfde dabc 4561 70bc 4bd7 c3bc 0498 a1bc
000000a0: 4e12 40bd 3861 e9ba 4426 393d 4f32 81ba
000000b0: dd13 01bd eb49 b93a 313c 8b3a f971 d4bb
000000c0: d2e7 3bbc 46a7 adbc 7449 903b 6a8d 86bb
000000d0: 9fe4 2abc 6a77 e2b9 94da dabb 0a87 1e3d
000000e0: 860c 5dbc ac21 253a af4c b3bb e2c8 403d
000000f0: 505f 8ebc e073 f1bb c2cb dfbc c201 0b3d
-0.0143248085 -0.013671 -0.020855868 -0.006372995 -0.027731322 0.042448103 -0.04917675 0.049990196
0.054235213 -0.044743985 0.031732585 -0.0058881836 0.052862458 -0.016193 0.015340187 -0.026833355
-0.029284937 0.039603032 -0.0011722408 -0.008131328 -0.0038513734 -0.01295954 0.007005629 -0.0060608312
0.020547295 -0.028797526 0.0018211572 -0.0070393593 -0.014191717 -0.008872803 0.023516357 -0.0061528077
0.042848006 -0.0242008 0.015350981 -0.030488849 -0.026717601 -0.014671628 -0.02390637 -0.019725807
-0.046892457 -0.0017805463 0.04520251 -0.0009856912 -0.031513084 0.0014136409 0.0010622797 -0.006483313
-0.0114688445 -0.021197926 0.0044032875 -0.0041062133 -0.010430484 -0.0004319505 -0.0066788886 0.038703002
-0.013491755 0.0006299268 -0.005471788 0.047066577 -0.017379433 -0.0073685497 -0.027318839 0.033937223
