app/src/main/ml/potato_model.tflite (tflite, 742084 bytes, 16 tensors)

sequential_2/conv2d/Relu;sequential_2/conv2d/BiasAdd;sequential_2/conv2d/Conv2D;sequential_2/conv2d/BiasAdd/ReadVariableOp f4 [32, 3, 3, 3]
0	0x39d42997	0.00040466778
1	0x39607d0d	0.0002140889
2	0x39d3820e	0.00040341954
3	0xb9051652	-0.00012692183
4	0xba19d752	-0.0005868572
5	0x399f85b0	0.00030426448
6	0x36ed97e1	7.0808314e-06
7	0x39dff3bd	0.00042715474
8	0x39c0a4a3	0.00036743758
9	0x39e7b0a7	0.0004419137
10	0x39068404	0.00012828415
11	0x39bd272a	0.0003607807
12	0x394d0a12	0.00019554075
13	0x393e7680	0.00018163957
14	0xb95e36e2	-0.00021192015
15	0xb945fb8a	-0.0001888109
16	0xba0aaafe	-0.0005289762
17	0xb8a6a8f3	-7.946966e-05
18	0x39aca80b	0.00032931598
19	0xb9e013ac	-0.00042739266
20	0x396bd72e	0.00022491507
21	0xba159820	-0.00057065673
22	0x398caa27	0.00026829654
23	0xb921d1fd	-0.00015432383
24	0xba0fb779	-0.00054823566
25	0x39e52b85	0.00043710708
26	0x390222ca	0.00012410726
27	0xb9e9d90f	-0.00044602944
28	0xb9a4125b	-0.00031294193
29	0x39b2362a	0.0003399116
30	0x38b12864	8.447541e-05
31	0x3830a87a	4.2118576e-05
32	0xb9653100	-0.00021857396
33	0xb98e34d8	-0.00027123722
34	0xb47b6368	-2.341236e-07
35	0x391d00c2	0.00014972969
36	0x39c42097	0.00037408315
37	0xba07ee00	-0.0005185306
38	0x3869418c	5.5612574e-05
39	0xb9a0283a	-0.0003054755
40	0x391f3d25	0.000151862
41	0xb8314bc2	-4.2270643e-05
42	0xba0f6666	-0.00054702756
43	0xb9dff1fb	-0.00042714164
44	0xb9364957	-0.00017384194
45	0x39f8dbad	0.00047465917
46	0xb992af94	-0.00027978106
47	0xb9b17de0	-0.00033853855
48	0xba0941f4	-0.0005235963
49	0x393d5cab	0.00018058966
50	0xb9d107b9	-0.0003986934
51	0xb939cea5	-0.00017719956
52	0xb81a0410	-3.6720245e-05
53	0xb9e0bbcd	-0.00042864532
54	0x39ecb517	0.0004514835
55	0xb9e72a98	-0.00044091488
56	0x39a7a12f	0.00031972813
57	0x38912613	6.921231e-05
58	0xb85ec9de	-5.3116928e-05
59	0xb97eed43	-0.00024311715
60	0xb9fc153c	-0.00048081006
61	0x399073e7	0.00027552174
62	0x38da32c2	0.000104045044
63	0xba0fa0d5	-0.0005478983
64	0x38966efa	7.1732284e-05
65	0x397a1552	0.000238498
66	0xb93e611d	-0.0001815599
67	0xb83e9213	-4.5435572e-05
68	0xb9f63164	-0.00046957575
69	0x3a0771d7	0.0005166805
70	0x3a1da61e	0.0006013828
71	0xb9d2ddf1	-0.0004021968
72	0xb9c98b0b	-0.00038441303
73	0x38299c06	4.0438048e-05
74	0xb9e86461	-0.00044325276
75	0x389ed3f0	7.5735035e-05
76	0x39d6cdca	0.00040970586
77	0xb9ac84d7	-0.0003290537
78	0x39dfd331	0.00042691224
79	0x39f9cbc2	0.00047644792
80	0xb907d8db	-0.00012955388
81	0xb8e2b0c4	-0.00010809445
82	0xb9ffc5c7	-0.00048784746
83	0xb9c0c4e7	-0.00036767797
84	0xb9b6b788	-0.00034850487
85	0x39eab680	0.0004476793
86	0x395a9064	0.0002084389
87	0x39b192f9	0.00033869574
88	0xb996ef75	-0.0002878864
89	0x3a02cc35	0.00049895357
90	0x38e448a6	0.00010885419
91	0xb9aacab1	-0.00032575944
92	0x38a087bd	7.654678e-05
93	0x3886ba00	6.424263e-05
94	0x39ab6c69	0.00032696433
95	0xb9a86e1c	-0.00032125495
96	0x39e4fdd3	0.00043676663
97	0x38594c0a	5.180765e-05
98	0x38dd58c6	0.000105546365
99	0xb988e936	-0.00026113697
100	0xb8c607b9	-9.442814e-05
101	0xba0aa4f1	-0.00052888604
102	0x39741074	0.00023275783
103	0x394c4a90	0.00019482733
104	0xb9c22ba0	-0.00037035067
105	0xba177416	-0.0005777491
106	0x37d99a33	2.594022e-05
107	0xb9895231	-0.00026191914
108	0x39c6ea65	0.0003794014
109	0xb9845764	-0.00025242113
110	0xb9276149	-0.00015962603
111	0xba0a0db5	-0.0005266325
112	0x39e55460	0.00043741148
113	0xb96a1ff3	-0.00022327881
114	0xb9dbb58c	-0.00041906198
115	0xb92ad387	-0.00016291263
116	0xb9a39a70	-0.00031204848
117	0x3a1462a3	0.000566045
118	0x39c90161	0.00038338735
119	0x3a107d19	0.0005511805
120	0xb82e724f	-4.159129e-05
121	0xb9d6b401	-0.00040951374
122	0xb84b732c	-4.8506234e-05
123	0xba06f782	-0.0005148576
124	0xb9d3bdb2	-0.0004038639
125	0x39396f98	0.00017684547
126	0x39c7b48d	0.0003809076
127	0x39b945b8	0.00035337894
128	0x3947e92f	0.00019064987
129	0xba0fb1bd	-0.0005481502
130	0xb987b16a	-0.0002588139
131	0xb991ebc7	-0.00027832223
132	0xb9e0d0b2	-0.000428801
133	0x39872c61	0.0002578227
134	0xb9e9da2b	-0.0004460377
135	0xb98d4f0a	-0.00026952504
136	0x3a092c1d	0.00052327086
137	0xb91674fd	-0.00014348696
138	0x39eeb26e	0.00045527838
139	0x3a0ed17e	0.0005448087
140	0x391e2689	0.0001508241
141	0x3a2d8451	0.0006619143
142	0xb9663690	-0.00021954835
143	0xb92ee808	-0.00016680371
144	0xba0b33d9	-0.0005310155
145	0xb940e7a2	-0.00018396837
146	0x38a74800	7.9765916e-05
147	0xb9740e34	-0.00023274944
148	0xb91596bb	-0.00014265899
149	0xb9853cc0	-0.00025413
150	0xb9fb64a8	-0.00047949445
151	0xb9e60900	-0.00043875724
152	0xb9ce5e04	-0.0003936143
153	0xba0a060d	-0.0005265184
154	0xb980d8e2	-0.00024575653
155	0xb8a2c961	-7.762272e-05
156	0x396cae12	0.0002257156
157	0xb951ebed	-0.00020019682
158	0x37fba671	2.9999037e-05
159	0xb9f36b57	-0.00046428546
160	0xb95d218f	-0.00021088704
161	0xb9e650ee	-0.00043929316
162	0xb923a157	-0.00015604995
163	0xb8bc9989	-8.993137e-05
164	0x393c4643	0.00017955252
165	0x39aaff05	0.0003261493
166	0xb7c65827	-2.3644488e-05
167	0x39c9212c	0.00038362422
168	0x38553fde	5.084264e-05
169	0xb933983a	-0.00017127479
170	0x39015ae5	0.0001233626
171	0xb9fcec19	-0.00048241092
172	0xba0c704f	-0.00053573115
173	0x39d4d010	0.0004059081
174	0xb9988a38	-0.0002909468
175	0x39e81e95	0.00044273274
176	0x395a3ca6	0.00020812693
177	0xba17d55e	-0.0005791987
178	0xba0d3211	-0.00053861836
179	0xb888df0a	-6.5265296e-05
180	0xb8ad0d48	-8.251757e-05
181	0xb8e5a247	-0.000109497974
182	0x39349ec2	0.0001722528
183	0xba0c68ea	-0.00053562096
184	0xb9efed46	-0.00045762415
185	0x3900b280	0.00012273528
186	0xb9b59d50	-0.00034640217
187	0x382fe5a1	4.193711e-05
188	0xb91d1eef	-0.0001498421
189	0xb96dd6d0	-0.00022682105
190	0xba0a5a14	-0.0005277705
191	0x39947a9b	0.00028320108
192	0x39cacec3	0.00038682492
193	0x3a082744	0.00051938393
194	0xb90d66f6	-0.00013485164
195	0x3904b1f8	0.000126548
196	0x39370c5b	0.00017456843
197	0x39f6262d	0.0004694922
198	0x397c53f6	0.0002406387
199	0x39b53622	0.00034563342
200	0x3977f322	0.0002364633
201	0xb9cd43d6	-0.0003915119
202	0xb945ce06	-0.00018864134
203	0x39e896b9	0.00044362785
204	0xb9f30c41	-0.00046357702
205	0xba296c00	-0.00064629316
206	0xba22e07a	-0.0006213259
207	0x39a2c3f0	0.00031045033
208	0xb9a8eb86	-0.00032218936
209	0xb9c245b6	-0.00037054502
210	0x38e36287	0.00010842556
211	0xb9943349	-0.0002826697
212	0x38f76131	0.00011795981
213	0xb88635a5	-6.39961e-05
214	0x39c68e49	0.00037871514
215	0xba15af2e	-0.0005710003
216	0xb9f0e0ac	-0.0004594376
217	0x3a047ba9	0.0005053827
218	0xb9554bf4	-0.00020341558
219	0x39823a10	0.00024838792
220	0x39987280	0.00029077008
221	0x39c7812f	0.00038052487
222	0xb9865db9	-0.000256283
223	0x395bc67a	0.00020959406
224	0xb92304ff	-0.00015546753
225	0xba0bfb6c	-0.0005339894
226	0xb99b0e43	-0.0002957453
227	0xb9dc6fa9	-0.00042044863
228	0xb9e6775b	-0.00043957945
229	0x3a17779b	0.00057780155
230	0x37d9892a	2.5932288e-05
231	0xb9c085b4	-0.0003672071
232	0x39705112	0.00022918385
233	0x3a0102f3	0.0004921399
234	0xb94e20b1	-0.0001965787
235	0xb9be884c	-0.00036341173
236	0xb9b21efa	-0.00033973885
237	0xba02e5ad	-0.0004993331
238	0x3a0ccf58	0.0005371473
239	0x3a0d5e8c	0.0005392812
240	0x37a8c144	2.0117157e-05
241	0x396a72c4	0.00022358733
242	0x3869c8b9	5.5738466e-05
243	0x394230df	0.00018519488
244	0x39975028	0.00028860685
245	0x3933361d	0.00017090929
246	0x39a4a79d	0.000314054
247	0xb88bc4c1	-6.664685e-05
248	0xb92c757d	-0.00016446966
249	0x39aa03ae	0.00032427668
250	0xb9ff63d0	-0.00048711756
251	0xb91a6257	-0.00014723219
252	0x3943b4c6	0.00018663993
253	0xb9b01cd9	-0.0003359083
254	0xb9e4f55c	-0.00043670356
255	0xb996c0d9	-0.00028753912

sequential_2/conv2d/BiasAdd/ReadVariableOp f4 [32]
0	0xbd8e1797	-0.06938093
1	0xbc8caed3	-0.017173206
2	0xba8e3152	-0.0010848439
3	0xbcdd382c	-0.027004324
4	0xbca96ded	-0.0206823
5	0x3d8df21b	0.069309436
6	0x3c05153f	0.008122741
7	0x3bb00a7c	0.0053723436
8	0x3cf4cc3b	0.02988254
9	0xbd035785	-0.032065887
10	0xbc6b351c	-0.014355924
11	0xbc94f465	-0.018182943
12	0x3d6e1a40	0.058130503
13	0xbd4d755d	-0.050160754
14	0xbc3189b2	-0.010836052
15	0xbc58134a	-0.013188193
16	0x3d2df159	0.042466495
17	0x39cc5572	0.00038973574
18	0xbbdb237e	-0.0066875806
19	0xbc0a3f36	-0.008437922
20	0xbcbbf95a	-0.022946049
21	0x3b9c637a	0.0047726007
22	0xbc11786f	-0.008878811
23	0xba9d3240	-0.0011993125
24	0xbc861dce	-0.016371634
25	0xbbcee333	-0.0063137054
26	0x3bab85d2	0.0052344585
27	0xbd270caa	-0.04078356
28	0xbb9cf1b0	-0.0047895536
29	0x3d931c23	0.07183101
30	0x3bb85bbf	0.0056261714
31	0xbc2e47b3	-0.010637212

sequential_2/conv2d_1/BiasAdd/ReadVariableOp f4 [64]
0	0xbcc0ad8c	-0.023520254
1	0x3bc5e5ec	0.0060393717
2	0x3bbc977d	0.0057553635
3	0xbcc7670a	-0.024341125
4	0xbab35bd2	-0.0013683981
5	0xbc97e463	-0.01854152
6	0xbc32584a	-0.010885308
7	0x3d22e2fe	0.039767258
8	0x3c7c940a	0.015416155
9	0xbc3a611d	-0.011375693
10	0xbc3691b9	-0.011143141
11	0xbcc9b778	-0.024623618
12	0xbd004da7	-0.031324055
13	0xbcd47eb1	-0.025939317
14	0xbd2c6088	-0.042084247
15	0xbc8be1bd	-0.017075414
16	0xbd052e84	-0.032515064
17	0xbd01dd36	-0.031705104
18	0xbc8be733	-0.017078018
19	0xbcf42431	-0.029802414
20	0xbb8f6594	-0.0043761227
21	0x3c8e445a	0.017366577
22	0x3cf17612	0.029475246
23	0xbbd51945	-0.0065032565
24	0xbcafa8ea	-0.02144285
25	0xbd0bc048	-0.03411892
26	0xbc838cc1	-0.016058328
27	0xbc84e8fa	-0.016224373
28	0xbc40ffde	-0.0117797535
29	0xbccc2cfd	-0.024923796
30	0xbd1d2a85	-0.038370628
31	0x3cbbf70e	0.022944953
32	0x3d0fa6b9	0.03507111
33	0xbc90a5b8	-0.017657146
34	0xbca24e16	-0.019812625
35	0xbb8bdd49	-0.0042683226
36	0xbcf48ca2	-0.029852215
37	0x3bd81b72	0.0065950686
38	0xbcdc359d	-0.026881034
39	0x3c4bcdf1	0.012439237
40	0x3b9de262	0.0048182467
41	0xbd4c49ef	-0.049875196
42	0xbc9790aa	-0.018501598
43	0xbc9d1c36	-0.019178491
44	0x3c2cfe9f	0.010558753
45	0xbd525cb2	-0.051357932
46	0x3bfd6949	0.0077334982
47	0xbd0cbd43	-0.03436018
48	0xbc904e3c	-0.01761543
49	0xbcb57068	-0.022148326
50	0xbc7ca928	-0.015421189
51	0x3d2ae0be	0.041718237
52	0xbc135539	-0.008992487
53	0xbbcb316e	-0.006200961
54	0x3d4f1cbd	0.050564516
55	0xbcda6957	-0.026661558
56	0x3d372e14	0.044721678
57	0x3d0c7efe	0.034300797
58	0xbae44e42	-0.0017418342
59	0xbd664eb9	-0.05622742
60	0xbcc69dfe	-0.024245258
61	0xbc86f598	-0.01647453
62	0xbc90d1ed	-0.017678225
63	0x3c4622d9	0.012093269

sequential_2/conv2d_2/BiasAdd/ReadVariableOp f4 [64]
0	0xbc8d9aa9	-0.017285662
1	0xbd49c92f	-0.04926413
2	0xbd0bc553	-0.03412373
3	0xbcf9ebd0	-0.030507952
4	0xbb0cfe4c	-0.0021513877
5	0xbcf40287	-0.029786361
6	0xbd3f5964	-0.04671611
7	0xbda2d5be	-0.07950924
8	0x3c862726	0.01637609
9	0x3d0b3487	0.03398564
10	0x3d1b697f	0.037942406
11	0xbd857db4	-0.065181166
12	0xbcfae53b	-0.030626884
13	0x3c8701ff	0.016480444
14	0x3ac196b7	0.0014769648
15	0xbbc3ba72	-0.0059731537
16	0xbc241eae	-0.01001708
17	0x3c4d5714	0.012532968
18	0x3d177f96	0.03698691
19	0x3cc5e020	0.024154723
20	0x3cdd01e1	0.026978435
21	0xbce92227	-0.028458668
22	0xbbce21a9	-0.0062906337
23	0x39870406	0.00025752204
24	0x3d1e08cf	0.03858262
25	0xbc53d3bf	-0.012928902
26	0x3d53be0e	0.051694922
27	0x3d2a3743	0.041556608
28	0xbd4a8ff8	-0.049453706
29	0x3ca9603d	0.020675773
30	0xbc950eca	-0.018195529
31	0x3a904172	0.0011005832
32	0xbd7c019e	-0.06152498
33	0xbd0a552f	-0.033772644
34	0xbd8a64e3	-0.06757524
35	0xbd0d33a9	-0.034473095
36	0xbcc4dd1f	-0.02403122
37	0xbc0d1f65	-0.008613442
38	0xbc06b356	-0.008221468
39	0xbcb747b4	-0.022373058
40	0x3d710241	0.05884004
41	0xbba145f8	-0.004921671
42	0x3d1132ef	0.035448965
43	0x3c157864	0.009122942
44	0x3cc8c72f	0.02450904
45	0x3d828347	0.063726954
46	0x3d5d9852	0.054100342
47	0xbc89b89c	-0.016811661
48	0xbc27afd9	-0.010234796
49	0xbc782c56	-0.015147289
50	0x3c843bd0	0.016141802
51	0xbb22e3c6	-0.0024855002
52	0xbbbc07a4	-0.0057382155
53	0xbc8c5d75	-0.017134408
54	0xbcc0cf2a	-0.023536284
55	0xbcdf5aa0	-0.027264893
56	0x3af71add	0.001885261
57	0xbccc3c78	-0.024931177
58	0xbb027d79	-0.0019911213
59	0xbcb98d7d	-0.022650475
60	0xbceb47f5	-0.028720835
61	0x3d4c9f28	0.04995647
62	0xbd105d2c	-0.035245106
63	0x3c14e3ee	0.009087546

sequential_2/conv2d_3/BiasAdd/ReadVariableOp f4 [64]
0	0x3c8130d4	0.015770353
1	0x3b2040f4	0.0024452778
2	0x3c3ce66d	0.011529547
3	0x3ba536f9	0.0050419536
4	0x3c905dd5	0.017622868
5	0xbd0e3188	-0.034715205
6	0xbc093782	-0.0083750505
7	0x3d0b10b5	0.03395148
8	0x3c6e88eb	0.014559011
9	0xbd1e8d76	-0.038709126
10	0x3d2ad2e0	0.041705012
11	0x3d060875	0.03272291
12	0xbc6e32cd	-0.014538479
13	0xbcb56b31	-0.02214584
14	0xbd0102ea	-0.03149692
15	0xbd00343b	-0.03129981
16	0x3ce60197	0.02807693
17	0xbcb1913e	-0.021675702
18	0x3d2fe6a9	0.042944584
19	0x3d0cfd0d	0.034421016
20	0xbc836c77	-0.016042931
21	0x3d472c0d	0.048625994
22	0xbd1ab4e8	-0.037770182
23	0x3d1ec4f2	0.03876204
24	0xba6ce587	-0.0009036888
25	0x3c6666f5	0.014062633
26	0xbc5a09fb	-0.013308044
27	0x3ab36802	0.0013687613
28	0xbcef46ea	-0.02920862
29	0x3d301f5d	0.04299866
30	0x3d00b5be	0.031423323
31	0x3d18f18c	0.037339732
32	0xbbc87edc	-0.0061186384
33	0x3c9ab100	0.018883228
34	0xbb824d3e	-0.003976493
35	0xba5b77fd	-0.00083720667
36	0x3d09aa00	0.03360939
37	0xbd0bf892	-0.034172602
38	0x3c9961d5	0.018723408
39	0xbc3d02b6	-0.011536291
40	0xbc854fc1	-0.016273381
41	0xbc990708	-0.01868011
42	0x3c9edc37	0.019392116
43	0x3c4d7639	0.0125403935
44	0x3d1a751d	0.037709344
45	0xbc1c27e2	-0.009530993
46	0x3c66ac43	0.014079156
47	0x3a9a7baf	0.0011786128
48	0x3d120218	0.035646528
49	0x3b8b2943	0.004246862
50	0xbb36e7a3	-0.0027909062
51	0xbcc5c282	-0.0241406
52	0xbcf805b6	-0.03027616
53	0xbc85d85e	-0.016338523
54	0x3d83920b	0.0642434
55	0xbd4b17f6	-0.049583398
56	0xbd2b2498	-0.041782945
57	0x3d1ae3c1	0.03781486
58	0x3c81e52c	0.015856348
59	0xbd4c1ebc	-0.049833998
60	0x3b1f6cc7	0.002432631
61	0x3b7ca947	0.0038553046
62	0x3c7c1d71	0.015387879
63	0xbd39dc62	-0.04537619

sequential_2/conv2d_4/BiasAdd/ReadVariableOp f4 [64]
0	0xba102f72	-0.0005500234
1	0xbba9aea0	-0.0051782876
2	0x3b2a5787	0.0025992112
3	0xbc38bdee	-0.0112757515
4	0x3c8bdc56	0.017072838
5	0x3c18ad97	0.009318731
6	0xbc9046ed	-0.017611945
7	0xbc861f74	-0.01637242
8	0xbd08b326	-0.033373974
9	0x3c5d5bfa	0.013510698
10	0xbccc49a1	-0.024937453
11	0xbb10026a	-0.0021974095
12	0xbca3095c	-0.019901924
13	0xbc6bdb2a	-0.0143955145
14	0x3caea7fc	0.021320336
15	0x3c7ccb10	0.015429273
16	0x3bde48fa	0.006783602
17	0xbd03f0d9	-0.032212112
18	0xbd36895e	-0.044564597
19	0xbda636fa	-0.08115955
20	0x3ba36ae7	0.004987109
21	0xbbf78b1d	-0.0075544254
22	0xba3db6be	-0.00072370085
23	0x3c93990f	0.01801732
24	0x3ac9f5b4	0.0015408308
25	0x3bbb2eb5	0.005712355
26	0x3ca6c7ca	0.020358939
27	0xbc0b824f	-0.008514955
28	0xbb04e90c	-0.0020280508
29	0x3cae63cf	0.021287827
30	0x3c1ec20e	0.009689821
31	0x3cbbd7b6	0.022930007
32	0x3ba782bd	0.0051120208
33	0x3cee1e69	0.029067235
34	0xbb4bd795	-0.0031103839
35	0x3c9b1e55	0.018935362
36	0x3ceddee3	0.029036945
37	0x3c89a3c9	0.016801732
38	0x3c39286f	0.011301144
39	0xbd06fc28	-0.03295532
40	0x3bd8f701	0.006621242
41	0xbc722c7b	-0.014781113
42	0x3c833110	0.016014606
43	0x3b9116c0	0.004427761
44	0xbb80277d	-0.0039109574
45	0xbc6045d5	-0.013688524
46	0xbc938233	-0.01800642
47	0xbc85cc4a	-0.016332764
48	0xbbfd16d4	-0.0077236686
49	0x3bc013b4	0.005861724
50	0x3ba32b66	0.0049795387
51	0xbc854ea3	-0.016272848
52	0xbc8ceb12	-0.017201934
53	0xbc772b2b	-0.015085976
54	0x3cb1d17a	0.021706332
55	0xbd6f43f4	-0.058414415
56	0xbd22bce9	-0.03973094
57	0x3c2c8e37	0.010531954
58	0xbd36e8e0	-0.04465568
59	0x3afa30ab	0.001908799
60	0x3cd86a3e	0.026417848
61	0x39e9ab0c	0.00044568663
62	0x3beb7b38	0.0071863197
63	0x3becb3e2	0.007223592

sequential_2/conv2d_5/BiasAdd/ReadVariableOp f4 [64]
0	0x3cd16f71	0.025565835
1	0x3a99365d	0.0011689175
2	0xbbc6a6da	-0.0060623707
3	0x3bfb60ba	0.007671443
4	0x3cb00d91	0.021490844
5	0xbbc0b383	-0.0058807745
6	0x3a407fd7	0.00073432684
7	0xbc80b213	-0.015709912
8	0xbcadb387	-0.02120377
9	0xbd034205	-0.032045383
10	0xbbc53819	-0.0060186503
11	0xbcd43312	-0.025903258
12	0x3bba72ce	0.0056899553
13	0xbcbe0d6a	-0.023199756
14	0xbd02f07d	-0.03196763
15	0x3c9d3ac0	0.019193053
16	0xb75447d6	-1.265291e-05
17	0xbc57c323	-0.013169083
18	0xbc6bb011	-0.014385239
19	0x3c945e61	0.01811141
20	0xbd2403a4	-0.040042534
21	0xbd580c15	-0.052745897
22	0xbb99ff42	-0.0046996186
23	0x3d28d329	0.041217003
24	0x3c80d547	0.015726699
25	0xbc98e3ec	-0.01866337
26	0x3ce342ea	0.027741868
27	0x3d043749	0.032279287
28	0x3cff16cd	0.031138802
29	0x3cfa20a1	0.030533137
30	0x3c0828a4	0.008310471
31	0x3bdc9e49	0.0067327362
32	0x3ce26565	0.02763624
33	0x3ca52787	0.02016045
34	0xbc817bd1	-0.01580611
35	0x3cfec7e5	0.031101177
36	0xbcdc8012	-0.026916537
37	0xbc9d887f	-0.019230125
38	0x3c64a95f	0.013956397
39	0x3c214e08	0.009845264
40	0xbcb06090	-0.02153042
41	0x3c4c6279	0.01247465
42	0xbd08c8cb	-0.033394616
43	0xbcbadb7b	-0.022809735
44	0x3d25abb7	0.040446963
45	0x3ba24504	0.004952075
46	0xbcb1c03e	-0.021698114
47	0x3cb09b87	0.021558536
48	0xbca31647	-0.019908084
49	0x3c322018	0.01087191
50	0xbc3ae186	-0.011406308
51	0x3ca66462	0.020311538
52	0xbc055a7f	-0.008139252
53	0xbd679074	-0.056534246
54	0x3cfacb9b	0.030614665
55	0xbc7168ed	-0.014734489
56	0x3c4a645c	0.012353029
57	0xbc26cfac	-0.010181349
58	0xbb8d1bfe	-0.0043063154
59	0xbbdb6285	-0.006695094
60	0x3d41f94b	0.047356885
61	0x3ccf8179	0.025330292
62	0x3b9b3f6b	0.0047377846
63	0xbcb19201	-0.021676065

sequential_2/conv2d_1/Conv2D f4 [64, 3, 3, 32]
0	0xbc451b64	-0.012030456
1	0xbc0c0384	-0.00854576
2	0x3d563072	0.052292295
3	0x3aa9716a	0.0012927477
4	0x3d274bbe	0.040843718
5	0xbdac24e2	-0.08405472
6	0xbc51855a	-0.012788141
7	0x3da576d1	0.08079303
8	0x3d07bf8f	0.03314167
9	0xbd915f14	-0.07098213
10	0x3d0ed158	0.034867615
11	0x3c3c6c88	0.011500485
12	0xbd518702	-0.051154144
13	0xbd4c0327	-0.049807694
14	0xbd3da986	-0.04630425
15	0xbddfecb1	-0.10933817
16	0xbdbf0c62	-0.09328534
17	0xbd1866f4	-0.03720756
18	0x3d564d96	0.052320085
19	0xbda95764	-0.082686216
20	0xbdb8bd7a	-0.09020515
21	0xbbe241a2	-0.0069047967
22	0xbdb2f3dc	-0.08737919
23	0xbd9d5694	-0.07682529
24	0xbd965cd4	-0.07341924
25	0x3c929f76	0.017898303
26	0x3c938a9f	0.018010436
27	0xbd303d62	-0.04302729
28	0xbd96bd16	-0.07360284
29	0x3ca4fce3	0.020140117
30	0xbd5c5a5a	-0.053797103
31	0xba880b5e	-0.0010379364
32	0xbd84f09e	-0.064912066
33	0xbd2c34fa	-0.04204271
34	0xbcf95a6e	-0.030438628
35	0xbdb9c7e7	-0.090713315
36	0xbc89bb60	-0.01681298
37	0x3daef3f9	0.08542628
38	0x3d66cf63	0.056350123
39	0xbd896426	-0.06708555
40	0x3dbc403b	0.091919385
41	0xbcd5f64e	-0.026118424
42	0x3b353c8e	0.0027654502
43	0xbcff95b5	-0.031199316
44	0xba2a6dfa	-0.0006501373
45	0x3ccee41f	0.025255261
46	0x3cdf7e91	0.027282031
47	0xbc25d964	-0.010122631
48	0x3caac5a7	0.020846201
49	0xbd1b3234	-0.037889674
50	0xbd9a2728	-0.07527
51	0xbcf9972e	-0.030467596
52	0x3d1fc5d2	0.039007016
53	0xbd267efb	-0.04064844
54	0xbc913ed1	-0.017730149
55	0x3d234aed	0.039866377
56	0x3d605dfa	0.054777123
57	0x3bb35115	0.005472312
58	0xbc012feb	-0.00788496
59	0x3ce80945	0.028324733
60	0xbcc2c7c1	-0.02377689
61	0xbda10edc	-0.07864162
62	0x3d48ccbf	0.049023386
63	0xbd7c43e1	-0.061588172
64	0x3bfcb9c8	0.0077125765
65	0xbd1406c1	-0.036139254
66	0x3cba7669	0.02276154
67	0xbd89ad98	-0.067225635
68	0xbcc212ec	-0.023690663
69	0xbd220a68	-0.039560705
70	0x3ce7d578	0.028300032
71	0xbd22a02e	-0.03970354
72	0xbd8861df	-0.066592924
73	0xbd0746be	-0.03302645
74	0x3d2fbffd	0.042907704
75	0x3d6a4e32	0.05720348
76	0x3da49260	0.08035731
77	0x3cad44dc	0.021150999
78	0xbc0dd8ed	-0.008657676
79	0x3d5d5259	0.05403361
80	0x3d2b2fc7	0.04179361
81	0x3d574450	0.052555382
82	0xbdbcb850	-0.09214842
83	0xbce6299d	-0.028096015
84	0x3c746b0f	0.014918103
85	0x3d5acef3	0.05342002
86	0xbdbc4e75	-0.09194652
87	0x3bc539e2	0.006018863
88	0x3cb9ca1b	0.02267938
89	0xbac2b08a	-0.0014853638
90	0xbd66d046	-0.05635097
91	0xbd687775	-0.056754548
92	0x3d9575de	0.07297872
93	0x3c79a073	0.015236008
94	0xbdc7c545	-0.09754423
95	0xbd70c8c2	-0.058785208
96	0xbd6f346f	-0.058399614
97	0x3d3fbc61	0.04681051
98	0xbda6d6d0	-0.08146441
99	0xbd816fde	-0.06320165
100	0x3d3c9a70	0.04604572
101	0xbd5e01d0	-0.054200947
102	0x3d84f132	0.06491317
103	0x3cf238e9	0.029568153
104	0x3d80e786	0.062941596
105	0xbda152ae	-0.07877098
106	0x3d864ae9	0.06557257
107	0xbca2c648	-0.019869938
108	0xbca79933	-0.020458793
109	0xbd776403	-0.060398113
110	0xbd52497a	-0.051339604
111	0xbc3666fb	-0.011132951
112	0x3d5084e6	0.05090799
113	0x3d5a0328	0.053225666
114	0xbd9725ae	-0.07380234
115	0x3d72d0e8	0.05928126
116	0x3d3cbec9	0.046080384
117	0xbc96bee3	-0.018401569
118	0x3cebe05d	0.028793508
119	0x3d85e5bc	0.06537959
120	0x3c7ed4b0	0.015553638
121	0xbd9828d0	-0.07429659
122	0x3b1d75b4	0.0024026455
123	0xbd1864fd	-0.037205685
124	0x3d3d6624	0.046239987
125	0xbd0f13c3	-0.034930956
126	0x3d542f1e	0.051802747
127	0xbdb52195	-0.08844296
128	0x3d1dd387	0.038531806
129	0x3d88e7ee	0.06684862
130	0xbcbea83e	-0.023273584
131	0xbcccdf60	-0.025008857
132	0xbd321ffd	-0.043487538
133	0x3d69c733	0.057074737
134	0xbc5031ae	-0.012707157
135	0x3b3ab35e	0.0028488259
136	0xbdb0c5c3	-0.0863147
137	0x3d95a5da	0.07307024
138	0xbc5ad2f7	-0.013355962
139	0xbc4d6ab7	-0.01253765
140	0x3c7d2967	0.015451766
141	0x3ce5bf7e	0.028045412
142	0xbd122e16	-0.035688482
143	0xbd24f558	-0.04027304
144	0xbd9c98c5	-0.07646326
145	0xbd804479	-0.0626306
146	0x3d5e50bd	0.054276217
147	0xbd8c1206	-0.06839375
148	0x3d45e51d	0.048314203
149	0xbdb328cd	-0.087480165
150	0x3c330f0e	0.010928882
151	0x3d87400b	0.06604012
152	0xbc9d0334	-0.019166566
153	0x3bb6bc78	0.0055766664
154	0x3d9b008d	0.075684644
155	0x3d56c627	0.052435067
156	0x3c10cb8d	0.008837593
157	0xbd3ad66b	-0.04561464
158	0xbd8f4b4a	-0.06996782
159	0xbd19015e	-0.03735482
160	0xbd6275e2	-0.055288203
161	0xbd40e9c6	-0.047097944
162	0x3d2692aa	0.040667213
163	0xbd3c43c1	-0.045963053
164	0xbcb6b109	-0.022301214
165	0xbd54ec0b	-0.05198292
166	0x3cd87691	0.026423724
167	0xbdbdcab0	-0.09267175
168	0xbb4e075d	-0.0031437494
169	0xbd32ebc9	-0.043681893
170	0xbcd022a6	-0.025407147
171	0x3d1a1113	0.03761394
172	0xbd5f0bb5	-0.054454524
173	0xbd892d60	-0.06698108
174	0x3c32f370	0.010922298
175	0xbcd087c6	-0.025455367
176	0x3d4c019e	0.04980623
177	0xbd655be6	-0.055995844
178	0x3d377cae	0.04479664
179	0xbdaf4517	-0.085581
180	0xbdb14a4f	-0.08656751
181	0xbd9b632f	-0.07587277
182	0xbb5fecb3	-0.0034168183
183	0x3d80730f	0.06271946
184	0x3cd60b52	0.026128445
185	0x3d958920	0.07301545
186	0x3ce018c4	0.02735556
187	0xbc3a237b	-0.011360998
188	0x3cabcae2	0.020970766
189	0x3d17b668	0.03703919
190	0x3b079c35	0.0020692472
191	0xbcc40a07	-0.023930563
192	0xbc613b6f	-0.01374708
193	0x3c858cfb	0.016302576
194	0xbd005000	-0.031326294
195	0xbd9f4e6c	-0.0777863
196	0xbcf5f32b	-0.030023178
197	0x3d34327b	0.043993454
198	0xbc075c6c	-0.008261781
199	0x3c3e0e4f	0.011600091
200	0x3d9e8a31	0.07741202
201	0xbc8390c2	-0.016060237
202	0xbcf6497a	-0.030064333
203	0x3d8d92d0	0.06912768
204	0xbc4b6ad5	-0.012415607
205	0xbc9f17ed	-0.019420588
206	0xbd0210e6	-0.031754397
207	0x3c158bfd	0.009127614
208	0xbdaedf22	-0.08538653
209	0x3ccf9122	0.02533776
210	0xbd6ea5fd	-0.058263768
211	0x3cdd0b88	0.026983038
212	0xbc9c192b	-0.01905497
213	0x3d7497ff	0.059715267
214	0x3c778e34	0.015109587
215	0xbd0b2d71	-0.033978883
216	0x3d1f9c69	0.038967524
217	0xbd84e351	-0.0648867
218	0x3cbbb8ff	0.022915361
219	0xbd62d04c	-0.05537443
220	0xbdbc6206	-0.09198384
221	0x3c5f77f4	0.013639439
222	0x3d2ab25c	0.041674003
223	0xba8cfbe6	-0.0010756224
224	0xbd1bac0e	-0.03800588
225	0x3c9ac4b8	0.018892631
226	0x3d1610cf	0.036637124
227	0xbd87a041	-0.06622363
228	0x3b0ed7b8	0.002179606
229	0x3c43d6b7	0.0119530475
230	0xbb3d0d77	-0.0028847137
231	0x3c99f3b7	0.01879297
232	0xbd7e4946	-0.062081598
233	0x3b00eb8f	0.0019671654
234	0xbdb4cb49	-0.08827836
235	0xbd465104	-0.048417106
236	0x3d3586df	0.044318076
237	0xbd2518cb	-0.040306848
238	0xbdb53a2f	-0.08848988
239	0xbd89a5b2	-0.06721057
240	0x3cca7df9	0.024718272
241	0x3bd3cc82	0.006463588
242	0x3d5e499e	0.054269426
243	0xbbd637c2	-0.0065374086
244	0x3bf82351	0.0075725694
245	0x3d6a4eab	0.05720393
246	0xbc0057fd	-0.007833478
247	0xbc81033f	-0.015748618
248	0xbda7775c	-0.08177063
249	0x3c040458	0.008057676
250	0xbd9acec7	-0.07558971
251	0x3c3c6174	0.011497844
252	0xbc2830a9	-0.010265508
253	0xbd9d87e4	-0.07691935
254	0x3d6bb174	0.05754228
255	0x3d0694f7	0.032856908

sequential_2/conv2d_2/Conv2D f4 [64, 3, 3, 64]
0	0x3ba7207b	0.0051003075
1	0xbca339fd	-0.019925112
2	0xbc0084e8	-0.007844187
3	0xbd8508a3	-0.06495788
4	0x3d01b1c8	0.031663686
5	0xbdc6bd0e	-0.09704028
6	0xbd0dae36	-0.03458997
7	0xbd8e6afc	-0.069539994
8	0xbbe70510	-0.007050164
9	0xbd69d2e0	-0.05708587
10	0xbd220d51	-0.03956348
11	0x3d5cbb0b	0.053889316
12	0x3d9749c1	0.07387114
13	0x3d4b7926	0.049676083
14	0x3cfc0280	0.03076291
15	0xbcee2b99	-0.029073523
16	0xbc9daea9	-0.019248324
17	0x3c39ee15	0.011348267
18	0xbcc6d0f8	-0.024269566
19	0x3d392a7b	0.04520653
20	0x3c81821a	0.015809108
21	0x3c958497	0.0182517
22	0xbd4fa9af	-0.050698932
23	0xbcbb54b0	-0.02286753
24	0xbd7f5d56	-0.06234487
25	0xbd83374d	-0.06407032
26	0x3d2185a8	0.039434105
27	0x3d67add3	0.056562256
28	0x3c70c1c0	0.014694631
29	0x3cdbebb0	0.026845783
30	0x3d91820d	0.07104883
31	0xbd073d1a	-0.033017255
32	0xbd4e13d2	-0.05031187
33	0x3cf56950	0.029957443
34	0xbd896b63	-0.067099355
35	0xbcefdfc7	-0.02928151
36	0xbbf5794a	-0.0074912654
37	0xbd81bf09	-0.06335265
38	0xbc635918	-0.013876222
39	0xbd13ca69	-0.036081705
40	0xbd2f5b01	-0.042811397
41	0x3d2e7937	0.04259607
42	0x3d297cb6	0.0413787
43	0xbc9f6406	-0.019456875
44	0xbc6d340f	-0.014477744
45	0xbab01ead	-0.0013436876
46	0xbd662c60	-0.056194663
47	0xbd8c7e15	-0.06859986
48	0x3c2c52c8	0.010517783
49	0x3d0beed8	0.034163326
50	0xbd54a051	-0.051910702
51	0xbd51a40f	-0.05118185
52	0x3ce1d3e9	0.027566867
53	0x3ce0aa7d	0.027425045
54	0xbc85e764	-0.016345687
55	0xbd4e375a	-0.050345756
56	0x3d532aed	0.05155461
57	0x3c8c3b56	0.017118137
58	0x3ca69ffc	0.020339958
59	0xbcab0f26	-0.020881247
60	0xbccd6f6e	-0.025077548
61	0xbd3098f8	-0.043114632
62	0xbc9775d7	-0.018488808
63	0xbca5f39d	-0.020257765
64	0x3d886d45	0.066614665
65	0x3b7349b2	0.0037122783
66	0x3d230a00	0.03980446
67	0x398b17bd	0.00026529832
68	0xbd73a4ff	-0.059483524
69	0x3d5fb80e	0.054618888
70	0x3d6d6f1d	0.057967294
71	0xbd650faa	-0.05592314
72	0x3d1ffce0	0.03905952
73	0xbb4ed81d	-0.003156192
74	0x3d247d57	0.040158596
75	0x3b9e3312	0.0048278654
76	0xbcf3f9ec	-0.029782258
77	0xbd58c51e	-0.05292236
78	0x3c78dcd2	0.015189366
79	0xbc9be05f	-0.019027887
80	0x3d24ca5e	0.040232055
81	0xbd60320b	-0.054735225
82	0xbd48c96d	-0.04902022
83	0xbbe41279	-0.00696021
84	0xbdcb4d0a	-0.099268034
85	0xbbe213f9	-0.0068993536
86	0x3cdc285e	0.026874717
87	0xbca2a707	-0.019855035
88	0xbd5ad6bc	-0.053427443
89	0x3cd4a248	0.025956288
90	0xbd5a5fbb	-0.053313952
91	0x3cca3ca0	0.024687111
92	0x3d121502	0.035664566
93	0xbd9bd0de	-0.07608198
94	0x3cc19c21	0.023634018
95	0x3cee1d8b	0.029066822
96	0x3d527210	0.05137831
97	0x3cc88aa6	0.024480175
98	0x3d7229df	0.059121963
99	0x3c077ce7	0.008269525
100	0xbd5cc337	-0.05389711
101	0x3cb0f73f	0.021602271
102	0xbca8eaa2	-0.020619694
103	0x3ced8877	0.028995736
104	0xbd004d38	-0.03132364
105	0x3bf850cc	0.007577991
106	0x3d194dbd	0.037427653
107	0x3c8c6277	0.017136795
108	0xbc8e0896	-0.017338078
109	0x3cc4bf3f	0.024016974
110	0x3d12d391	0.035846297
111	0x3cb433c4	0.02199734
112	0x3d35fe13	0.044431757
113	0xbd2c7702	-0.042105682
114	0x3c85bd15	0.016325513
115	0xbc24f34f	-0.010067775
116	0x3d0e9068	0.034805685
117	0x3cff02e7	0.031129314
118	0xbd5957b8	-0.05306217
119	0x3caeef6e	0.021354403
120	0xbcbaf70f	-0.022822885
121	0x3d0d29c0	0.034463644
122	0xbcce27aa	-0.025165398
123	0x3d13d0da	0.03608785
124	0x3d4bdf1a	0.049773313
125	0x3d57a67b	0.052649003
126	0xbb06250c	-0.002046886
127	0xbd2b9b79	-0.041896317
128	0xbbe24594	-0.006905267
129	0xbc823f61	-0.015899362
130	0x3cbc5b88	0.022992864
131	0xbcd0d6b3	-0.025493002
132	0xbd798623	-0.06091894
133	0x3cc18fb0	0.023628086
134	0x3d761ea6	0.060087822
135	0x3d295a16	0.04134568
136	0x3bf1503f	0.0073643024
137	0xbd1f9a73	-0.038965654
138	0x3d03300a	0.032028235
139	0x3d191d11	0.037381236
140	0x3d5f30ef	0.054490026
141	0xbc8c280d	-0.017108941
142	0x3d207487	0.03917363
143	0xbd40770a	-0.046988524
144	0xbd09357d	-0.033498276
145	0x3ca488c8	0.020084754
146	0xbcc22fea	-0.023704488
147	0xbc4a69a5	-0.012354289
148	0xbd2d7659	-0.042349193
149	0x3d7653c5	0.060138483
150	0xbd443f86	-0.047912143
151	0xbd91842d	-0.07105289
152	0xbba5d789	-0.005061094
153	0xbd424236	-0.047426425
154	0xb9eb13f0	-0.00044837547
155	0xbd70021d	-0.058595765
156	0xbcdd9c0d	-0.02705195
157	0xbd9ab7a5	-0.07554559
158	0x3d8f6d2a	0.07003243
159	0xbd2e39a3	-0.042535435
160	0xbd6a9558	-0.05727133
161	0x3c9073c9	0.017633336
162	0x3d933032	0.07186927
163	0xbd3a1632	-0.045431323
164	0xbcb0b756	-0.021571796
165	0xbb911ffd	-0.004428862
166	0xbc781d2b	-0.015143673
167	0xbd7425dc	-0.059606418
168	0xbd8dd4a4	-0.069253236
169	0xbd6ddb9b	-0.05807076
170	0x3c591336	0.013249209
171	0x3d2968ef	0.041359838
172	0x3d857b27	0.0651763
173	0xbcc58a62	-0.024113838
174	0x39fca75b	0.00048189875
175	0xbd98f498	-0.074685276
176	0xbd956627	-0.07294875
177	0xbcc60af4	-0.024175145
178	0x3c244fc8	0.010028787
179	0xbdaf3b69	-0.085562535
180	0xbbfb215b	-0.0076638884
181	0xbd254298	-0.040346712
182	0xbcca08b0	-0.024662346
183	0xbd13d64d	-0.036093045
184	0x3b114dc7	0.0022171603
185	0x3b62d4cf	0.0034611707
186	0xbcd5cfa9	-0.026099997
187	0xbcf2c855	-0.029636541
188	0xbd627a93	-0.055292677
189	0x3c4adea5	0.012382184
190	0xbd27ebd6	-0.040996395
191	0x3d266eb9	0.040632937
192	0x3d452110	0.048127234
193	0xbd3ff304	-0.046862617
194	0x3d04dcb3	0.032437038
195	0xbc871940	-0.016491532
196	0xbd63fab3	-0.055659007
197	0x3c162fbe	0.009166656
198	0x3d594cf6	0.05305191
199	0xbd0b68a2	-0.034035333
200	0x3b8d3e20	0.0043103844
201	0xbd399074	-0.045303777
202	0xbd9ee1cb	-0.0775791
203	0x3c5361f3	0.012901771
204	0xbd8689bf	-0.06569242
205	0xbc12e820	-0.008966476
206	0xbcae858a	-0.02130391
207	0xbd1f9d62	-0.03896845
208	0x3d79822d	0.06091516
209	0xbd1f9707	-0.03896239
210	0x3d596a4f	0.0530799
211	0xbba3f632	-0.005003714
212	0xbc020c14	-0.00793745
213	0x3da25974	0.07927218
214	0xbc31085f	-0.0108052185
215	0xbc1759b8	-0.009237699
216	0x3d6de5a0	0.058080316
217	0x3d8ab838	0.06773418
218	0xbc883fb2	-0.016631935
219	0x3b9fbc97	0.0048747766
220	0x3d84bdf4	0.06481543
221	0x3d3c377e	0.04595136
222	0xbb901751	-0.004397311
223	0x3d3245f4	0.043523744
224	0xbd269065	-0.04066505
225	0xbc998168	-0.018738464
226	0x3bd26ad0	0.0064214244
227	0xbd666b87	-0.05625489
228	0xbd14943e	-0.036274187
229	0x3d051cfb	0.03249834
230	0x3c530597	0.012879751
231	0xbd8a0675	-0.06739513
232	0xbcd8724a	-0.026421685
233	0x3d0c0b71	0.0341906
234	0x3ab0e481	0.0013495834
235	0x3d32fb92	0.043696947
236	0xbd01d571	-0.031697694
237	0x3d78be5f	0.060728427
238	0x3ca85937	0.020550353
239	0x3b6d34eb	0.0036194872
240	0xbd408c54	-0.047008827
241	0x3d0ca1b3	0.034333896
242	0xbd8cb013	-0.06869521
243	0xbcc87cf2	-0.024473641
244	0xbda23725	-0.07920674
245	0xbd0bd64c	-0.034139916
246	0xbd8f3273	-0.06992044
247	0xbd2ba679	-0.041906808
248	0x3d1ae165	0.03781261
249	0x3c706c61	0.014674277
250	0x3cd4adfa	0.025961865
251	0x3ceac7be	0.028659698
252	0xbb7a841c	-0.0038225716
253	0xbd969ccb	-0.07354125
254	0x3d3fe2de	0.046847217
255	0xbd0c360a	-0.034231223

sequential_2/conv2d_3/Conv2D f4 [64, 3, 3, 64]
0	0xbd9c1ade	-0.07622312
1	0xbc922cff	-0.017843721
2	0xbd000eb1	-0.03126401
3	0xbcf5082c	-0.029911123
4	0xbd4bc8be	-0.04975199
5	0x3c07176b	0.008245329
6	0xbd547997	-0.05187377
7	0xbda5613d	-0.08075187
8	0x3cf5e3f6	0.030015927
9	0x3cc0296a	0.023457248
10	0xbc5471de	-0.012966601
11	0xbd1f0828	-0.038826138
12	0x3c8fc6fe	0.017550942
13	0x3cfc51e3	0.030800765
14	0x3d3c2583	0.04593421
15	0x3c9ad231	0.018899055
16	0x3d04949b	0.032368284
17	0xbd35e8f6	-0.044411622
18	0xbc86ba6c	-0.016446315
19	0xbc89c7a8	-0.016818836
20	0x3ccbd14d	0.024880076
21	0xbc6fa8b0	-0.014627621
22	0xbd850f92	-0.064971104
23	0xbd1ec878	-0.0387654
24	0x3d1e0500	0.038578987
25	0xbda632ff	-0.081151955
26	0x3c818cb9	0.015814172
27	0x3be8d584	0.007105531
28	0x3a4b5e81	0.00077579176
29	0x3d413443	0.04716898
30	0x3c0bfc43	0.008544031
31	0x3bc35be7	0.0059618833
32	0xbd76775a	-0.060172416
33	0xbe3b4643	-0.18288521
34	0x3d587dbc	0.052854285
35	0x3d511e61	0.051054362
36	0xbca6df50	-0.020370156
37	0x3d8d77c2	0.069076076
38	0xbd863833	-0.06553688
39	0xbcb07ce7	-0.021543933
40	0x3d90a94c	0.07063541
41	0x3cf47cc1	0.029844644
42	0x3ca40afc	0.020024769
43	0xbd8a856d	-0.0676373
44	0x3d362221	0.04446614
45	0xbd75075c	-0.05982147
46	0xbcb91c39	-0.022596465
47	0xbdc61c40	-0.09673357
48	0xbd1d5547	-0.038411405
49	0x3ce2ba4c	0.027676724
50	0x3cfeea33	0.031117534
51	0x3d50240f	0.05081564
52	0x3cc2f17c	0.02379679
53	0xbc56b40c	-0.01310445
54	0xbd0056c5	-0.03133275
55	0xbd01215c	-0.031525955
56	0xbb2d47f1	-0.0026440585
57	0xbd9f5488	-0.07779795
58	0x3d30acf2	0.043133684
59	0x3be71982	0.0070526013
60	0xbc7b7262	-0.015347095
61	0x3da9da32	0.082935706
62	0xbbdae382	-0.006679953
63	0x3d1c95a5	0.03822865
64	0x3d404936	0.04694482
65	0x3ddb40fd	0.10705755
66	0x3d4de8be	0.05027079
67	0xbe0e69ba	-0.13907519
68	0x3d00e5ee	0.031469278
69	0xbc4b901a	-0.012424493
70	0x3d158b98	0.03651008
71	0x3ac218d3	0.0014808424
72	0x3b0d183a	0.0021529333
73	0x3d20c959	0.03925452
74	0x3d29cb12	0.04145343
75	0xbd7c43bf	-0.061588045
76	0x3af13906	0.0018403835
77	0xbc414379	-0.011795872
78	0xbd109388	-0.035296947
79	0x3d8796e5	0.06620578
80	0x3d4458fe	0.047936432
81	0xbc013323	-0.007885727
82	0x3d5137d6	0.05107864
83	0x3da79fb6	0.08184759
84	0xbd0cce4d	-0.03437643
85	0xbbd84c40	-0.0066008866
86	0xbdb18112	-0.08667196
87	0xbc1f26e5	-0.009713863
88	0x3c4a1d24	0.012336049
89	0xbcfdc1d8	-0.030976221
90	0x3d30ff5c	0.04321228
91	0xbb83a623	-0.004017608
92	0xbcf36cd1	-0.029714974
93	0x3cce217e	0.025162455
94	0xbd1c781d	-0.038200486
95	0xbc7c67cf	-0.015405609
96	0x3dc2b080	0.09506321
97	0x3ddfd5fd	0.10929487
98	0x3d95a9e3	0.07307794
99	0xbd8c2fa5	-0.06845025
100	0x3bb096db	0.005389077
101	0xbc8729c3	-0.016499406
102	0xbc7efcc6	-0.015563196
103	0x3d541038	0.05177328
104	0xbd2b11e6	-0.041765116
105	0x3d32dbdc	0.043666705
106	0x3d81532d	0.06314693
107	0x3d0316ac	0.032004043
108	0x3d156c1d	0.036480058
109	0xbd8b5450	-0.06803191
110	0x3d43a65a	0.047766067
111	0x3bce83aa	0.0063023167
112	0xbc65b143	-0.014019313
113	0xbd5499cb	-0.05190448
114	0x3d68a7c0	0.056800604
115	0x3bb86d73	0.0056282817
116	0x3d283bc9	0.04107264
117	0xbd1ef06e	-0.03880351
118	0xbd983803	-0.074325584
119	0xbad35161	-0.0016122275
120	0x3d3c497e	0.045968525
121	0xbcbd3648	-0.023097172
122	0x3ce355b9	0.027750837
123	0xbd8d51ef	-0.06900393
124	0x3d322865	0.043495554
125	0x3dafb799	0.0857994
126	0x3da8a4cd	0.08234558
127	0x3d286354	0.04111035
128	0x3d7c496a	0.06159345
129	0x3e104e8f	0.14092468
130	0xbc6015a1	-0.013677032
131	0xbe079ad9	-0.13242663
132	0xbc0786cc	-0.008271884
133	0xbd4e0b9a	-0.050304033
134	0xbc079495	-0.008275171
135	0x3c9c7006	0.019096386
136	0xbcaaec86	-0.020864736
137	0x3d34ed5c	0.044171676
138	0xbd942d25	-0.07235173
139	0x3dc9f1ff	0.0986061
140	0x3d7165b7	0.058934893
141	0x3d363408	0.044483215
142	0xbcba0e62	-0.022711936
143	0x3d09f023	0.033676278
144	0xbd3dac5b	-0.04630695
145	0xbbdb225c	-0.0066874456
146	0x3d4532e5	0.04814424
147	0x3d7dd25b	0.06196819
148	0xbd00104c	-0.031265542
149	0xbd025e81	-0.031828407
150	0xbdbbfa56	-0.09178607
151	0xbda31e0d	-0.07964716
152	0x3da9efca	0.08297689
153	0x3c9c7ece	0.019103434
154	0x3c8af2c1	0.016961457
155	0x3d6108b8	0.054939955
156	0x3d81319f	0.063082926
157	0xbb89f7e0	-0.004210457
158	0x3cccf433	0.025018787
159	0xbbf0bf83	-0.0073470487
160	0x3dbebf10	0.09313786
161	0x3d022654	0.031774834
162	0x3e2344ad	0.15944166
163	0xbda115e8	-0.078655064
164	0xbbfdd05a	-0.0077457847
165	0xbc8d1026	-0.017219614
166	0xbd63b71f	-0.05559456
167	0x3c0fa562	0.008767458
168	0x3dade62b	0.08491167
169	0xbd614944	-0.055001512
170	0x3d53646b	0.051609438
171	0x3d09993e	0.03359341
172	0x3c65a94f	0.014017417
173	0xbd596392	-0.053073473
174	0x3bf9450f	0.0076071094
175	0x3cae18c8	0.021252051
176	0xbdae2ae1	-0.08504272
177	0xbda2967b	-0.07938858
178	0x3c3280f8	0.010895006
179	0xbb4c7a18	-0.0031200703
180	0xbd71def6	-0.059050523
181	0xbda0d418	-0.07852954
182	0x3c528d65	0.012851094
183	0xbd620008	-0.05517581
184	0x3d3a5d72	0.045499273
185	0x3e0ee4b0	0.13954425
186	0xbdb0d548	-0.0863443
187	0xbbd94657	-0.0066306996
188	0x3d6f15d0	0.05837041
189	0x3d57c07e	0.05267381
190	0xbd36e15d	-0.044648517
191	0xbd931755	-0.071821846
192	0x3b81651a	0.00394882
193	0x3c7360b2	0.014854597
194	0x3d5fbe64	0.05462493
195	0xbdc8777d	-0.097884156
196	0x3bef7431	0.0073075523
197	0xbd1af232	-0.03782863
198	0x3c004ff5	0.007831563
199	0xbd87305f	-0.06601023
200	0x3cdaf0f5	0.026726225
201	0xbcf83735	-0.030299762
202	0x3d498b74	0.04920526
203	0x3d261a5e	0.04055249
204	0xbb70463a	-0.0036662952
205	0xbcc72635	-0.02431021
206	0xbd15c96a	-0.036569037
207	0x3c9048aa	0.017612774
208	0x3d4d7796	0.050162874
209	0xbc2ffb92	-0.010741131
210	0x3c1229ee	0.00892113
211	0x3d2bcc56	0.041942917
212	0x3d720597	0.059087362
213	0x3c22493d	0.009905157
214	0x3ce561d8	0.028000757
215	0x3d147a71	0.03624958
216	0x3d8f378b	0.06993016
217	0xbd12eaa7	-0.035868313
218	0xbc3b3cc7	-0.011428065
219	0x3bd94659	0.0066307005
220	0xbd691435	-0.056904037
221	0xbb86abe1	-0.004109845
222	0xbd166010	-0.036712706
223	0x3bc8b469	0.006125022
224	0xbdc281f2	-0.09497441
225	0xbda85139	-0.08218617
226	0x3d2b122a	0.04176537
227	0x3c4a130e	0.012333645
228	0x3cfdf2f7	0.030999644
229	0x3cb31e06	0.021864902
230	0xbca87f4e	-0.020568516
231	0xbd942422	-0.07233454
232	0xbcbcf7a2	-0.0230673
233	0xbd08b03c	-0.033371195
234	0x3d423a43	0.047418844
235	0xbc821396	-0.01587848
236	0xbdb0419b	-0.08606263
237	0xbc455ee4	-0.0120465495
238	0x3d89e7bf	0.06733655
239	0x3c3c8b57	0.011507831
240	0xbc87e0ee	-0.016586747
241	0xbd9ab384	-0.07553771
242	0x3ca95378	0.020669684
243	0xbccea7ef	-0.025226561
244	0xbc8a8b1e	-0.01691204
245	0xbd55316d	-0.05204909
246	0x3d8bdf56	0.06829707
247	0xbcb6d447	-0.022318019
248	0x3c9897b1	0.01862702
249	0x3d8e0088	0.06933695
250	0xbd35a831	-0.044349853
251	0xbcaa171c	-0.020762973
252	0xbd265135	-0.04060479
253	0x3dc36edf	0.09542631
254	0xbcc7be97	-0.024382873
255	0x3cfcbb9c	0.030851178

sequential_2/conv2d_4/Conv2D f4 [64, 3, 3, 64]
0	0xbc7dd5c0	-0.0154928565
1	0xbd468bac	-0.048473045
2	0x3ac98859	0.0015375718
3	0x3ddc1b38	0.10747379
4	0x3ccd8db1	0.025091978
5	0xbd325c1e	-0.04354488
6	0xbcf7f008	-0.030265823
7	0xbd06402a	-0.032776035
8	0xbd3df342	-0.046374567
9	0xbd76d29b	-0.060259443
10	0xbd47a4ac	-0.048741028
11	0xbdbccf6b	-0.09219249
12	0x3d920aac	0.07130942
13	0x3cac06af	0.02099928
14	0xbd9b9209	-0.07596213
15	0xbb93e52e	-0.0045134043
16	0x3e121404	0.14265448
17	0xbd73a1f5	-0.059480626
18	0xbd546948	-0.051858217
19	0x3cbc4a37	0.022984607
20	0x3d42fd93	0.04760511
21	0xbdb349d0	-0.08754313
22	0xbd91aad3	-0.0711266
23	0x3abafb73	0.0014265612
24	0x3d1c31f8	0.03813359
25	0x3d817996	0.06322019
26	0xbd68194f	-0.05666476
27	0x3d891575	0.06693546
28	0xbc222f7e	-0.009899018
29	0x3d15cd87	0.03657296
30	0xbcb257f8	-0.021770462
31	0xbda22024	-0.079162866
32	0xbd665f76	-0.056243382
33	0xbbf26b91	-0.007398077
34	0xbdad2dd8	-0.084560096
35	0x3db68ee3	0.08913972
36	0x3b71860f	0.0036853587
37	0xbe1064e0	-0.14100981
38	0xbc6cd288	-0.014454491
39	0x3d2405ed	0.040044714
40	0x3d2a25e2	0.041540034
41	0xbd59226b	-0.05301134
42	0x3c81e813	0.015857732
43	0x3d44962f	0.04799479
44	0xbb96a05d	-0.0045967535
45	0x3d18173d	0.037131537
46	0x3c460ead	0.01208846
47	0x3d1fa5a4	0.038976327
48	0xbd98f54b	-0.07468661
49	0xbcab67e0	-0.020923555
50	0xbcb1cb64	-0.02170343
51	0xbcc2db78	-0.023786291
52	0x3d12914b	0.035783093
53	0x3d2a6618	0.04160127
54	0x3dda830d	0.10669527
55	0x3cfc2797	0.030780597
56	0xbc89b1d2	-0.016808424
57	0xbc8352ce	-0.016030695
58	0x3daf07a2	0.08546378
59	0xbcbe0fd0	-0.0232009
60	0x3d280605	0.041021366
61	0xbcba9b6c	-0.022779189
62	0x3d1c37e1	0.038139228
63	0xbc681f2d	-0.014167589
64	0xbd184523	-0.03717531
65	0xbdc1b4f5	-0.09458343
66	0x3d81e019	0.06341571
67	0x3d3d6f2e	0.046248607
68	0xbbbf629b	-0.005840612
69	0xbd097751	-0.033561055
70	0x3c9e90a7	0.019356085
71	0xbd7ce9e2	-0.061746486
72	0xbdcc5c01	-0.09978486
73	0x3d3a2a31	0.045450393
74	0xbd749804	-0.059715286
75	0xbdecf35e	-0.11569856
76	0xbc9f342f	-0.019434063
77	0xbdb5b77f	-0.0887289
78	0xbd558f98	-0.052138895
79	0x3d571312	0.05250842
80	0x3d91f06d	0.07125936
81	0xbd73307f	-0.05937242
82	0xbd8e996a	-0.06962855
83	0x3c8bef72	0.01708195
84	0xbd6baa64	-0.057535544
85	0xbcceeded	-0.025259936
86	0x3c187b3b	0.009306724
87	0xbcba9de2	-0.022780363
88	0xbcbb82ec	-0.022889577
89	0x3d51c6e3	0.051215064
90	0xbcab94f1	-0.020945044
91	0x3d3b8a0a	0.04578594
92	0xbdd81f5a	-0.10552855
93	0x3d1b359a	0.037892915
94	0xbd3dfff6	-0.04638668
95	0xbdb75120	-0.0895102
96	0x3c860cda	0.01636355
97	0x3d8ce755	0.068800606
98	0xbdcf5788	-0.10124117
99	0x3d6c03a7	0.05762067
100	0xbe0137ff	-0.12619017
101	0xbd8dbe4b	-0.06921061
102	0xbc07f36e	-0.008297784
103	0xbd5b3121	-0.05351365
104	0xbc266941	-0.01015693
105	0xbdcbdf78	-0.09954733
106	0xbd641b7e	-0.05569028
107	0x3c55db78	0.013052814
108	0xbdc7d5b6	-0.09757559
109	0xbd33411c	-0.043763265
110	0x3d899db2	0.06719531
111	0xbd3c3a5d	-0.045954097
112	0x3ba5182f	0.0050382833
113	0xbd33ca02	-0.04389382
114	0x39d9026b	0.00041391267
115	0x3bcca362	0.0062450627
116	0x3d36b6b9	0.04460785
117	0xbd653d54	-0.05596669
118	0x3d78b6fc	0.060721382
119	0xbd019cd0	-0.03164369
120	0x3c268930	0.010164544
121	0xbc82ccf1	-0.015966864
122	0xbbec9f82	-0.0072211633
123	0x3cd9b96b	0.026577672
124	0xbd3fd2e5	-0.046831984
125	0x3d47f461	0.048817042
126	0xbb67e396	-0.0035383455
127	0xbcf4e0dc	-0.029892378
128	0xbd8477f0	-0.06468189
129	0xbe14c2d4	-0.14527446
130	0xbce71429	-0.028207855
131	0x3d025372	0.03181786
132	0x3dfb8d4c	0.122828096
133	0x3ce9b2f5	0.028527716
134	0x3cd5e744	0.026111253
135	0xbc4568a8	-0.012048878
136	0xbe6abe89	-0.22924246
137	0xbbb8ab86	-0.0056356816
138	0xbd26a394	-0.040683344
139	0xbdff092d	-0.12452922
140	0x3d4fd78b	0.050742667
141	0x3d2525ce	0.040319256
142	0xbd95bc4b	-0.07311305
143	0xbd3063e7	-0.043064024
144	0x3d095236	0.033525668
145	0xbc07c17f	-0.008285879
146	0x3c101ea7	0.008796371
147	0xbdcc1685	-0.09965233
148	0x3d35f357	0.04442152
149	0xbd74b4b8	-0.05974266
150	0xbd031c64	-0.032009497
151	0xbdd5626a	-0.104191616
152	0xbd71a03a	-0.058990695
153	0x3d2259c9	0.039636407
154	0xbca691d6	-0.020333212
155	0x3ddfd229	0.10928757
156	0xbd0a1246	-0.033708833
157	0x3b856433	0.0040707826
158	0x3c9d62c4	0.019212134
159	0xbdb7e888	-0.08979899
160	0xbd8b85f9	-0.06812663
161	0x3cf1cd8e	0.029516961
162	0xbe064ad8	-0.13114488
163	0x3d0ae5a1	0.033910397
164	0xbd071d2a	-0.032986797
165	0xbd88de04	-0.06682971
166	0xbdad24e9	-0.08454306
167	0x3cdd85a1	0.027041258
168	0x3d838aec	0.064229816
169	0xbd8f1eec	-0.0698832
170	0xbcf292fc	-0.029611103
171	0x3cc7fc0b	0.024412176
172	0xbe0269c5	-0.1273566
173	0x3d82418e	0.0636016
174	0x3d9a8ca7	0.075463586
175	0x3d832266	0.06403045
176	0xbd820ad7	-0.06349724
177	0x3cbc82c5	0.023011575
178	0xbd8bb05c	-0.06820747
179	0x3cac40af	0.021026937
180	0x3c12ae74	0.008952726
181	0x3d223c65	0.039608378
182	0xbd1d5bc7	-0.038417604
183	0x3c955c26	0.018232416
184	0x3ca44e33	0.02005682
185	0xbde19619	-0.11014957
186	0x3d663b25	0.05620875
187	0xbd85e3e1	-0.06537605
188	0xbd5c9433	-0.05385227
189	0x3dd081f6	0.10181038
190	0x3d571ae9	0.052515898
191	0xbd8256b0	-0.063641906
192	0xbcdaf80b	-0.026729604
193	0xbd4d7877	-0.050163712
194	0x3d8dfa83	0.06932547
195	0x3db9ff74	0.09081927
196	0x3bb1eff3	0.0054302155
197	0xbcb66125	-0.022263119
198	0xbc8e6468	-0.017381862
199	0x3d09370d	0.033499766
200	0xbe170b91	-0.14750506
201	0xbd93f348	-0.072241366
202	0x3c26f968	0.010191299
203	0xbdf4029d	-0.11914561
204	0xbd7b523c	-0.06135772
205	0x3da35a22	0.07976176
206	0xbd8df096	-0.06930654
207	0xbd3073a7	-0.043079045
208	0x3d9001ca	0.07031591
209	0x3d4728b1	0.04862279
210	0x3d8209fc	0.063495606
211	0xbd3b4e7e	-0.045729153
212	0x3d6c92c5	0.057757158
213	0x3c0ed886	0.008718615
214	0xbb804436	-0.0039143814
215	0xbd84d21e	-0.06485389
216	0x3d675df3	0.05648608
217	0x3d842069	0.06451494
218	0x3cb5d456	0.022195976
219	0x3d9f2061	0.07769848
220	0xbd4de60f	-0.05026823
221	0xbd485296	-0.048906885
222	0xbd4a33a0	-0.04936564
223	0xbd3a00b5	-0.04541083
224	0x3ccc203f	0.02491772
225	0x3afc5d3d	0.0019253861
226	0x3b99a25f	0.0046885456
227	0x3bfe9a6f	0.0077698748
228	0xbaae3d60	-0.0013293438
229	0xbe0d281c	-0.13784832
230	0x3d01fd7b	0.03173588
231	0x3c98b374	0.018640257
232	0xbd1a1338	-0.037615985
233	0x3d072f39	0.03300402
234	0xbcc35c8f	-0.023847846
235	0xbbcd7a09	-0.0062706512
236	0xbc174bb3	-0.009234357
237	0xbc925817	-0.01786427
238	0x39c43af6	0.00037427963
239	0xbbf357a7	-0.0074262205
240	0xbbe5beb3	-0.0070112585
241	0xbd979617	-0.07401674
242	0xbd32626c	-0.043550894
243	0xbd9d70d1	-0.07687534
244	0xbd167355	-0.036731083
245	0x3ba90358	0.0051578693
246	0x3d773cc2	0.060360678
247	0x3d4dd33c	0.050250277
248	0x3d84561c	0.064617366
249	0x3d930d67	0.07180291
250	0x3ddcc5cc	0.10779914
251	0x3c377872	0.01119815
252	0x3d793359	0.060839985
253	0xbdd05d53	-0.1017405
254	0x3d4309b5	0.04761668
255	0xbd801d9c	-0.062556475
