app/src/main/ml/rice_model.tflite (tflite, 742344 bytes, 16 tensors)

sequential_2/conv2d/Relu;sequential_2/conv2d/BiasAdd;sequential_2/conv2d/Conv2D;sequential_2/conv2d/BiasAdd/ReadVariableOp f4 [32, 3, 3, 3]
0	0x399e0b01	0.00030144307
1	0xb9be3e70	-0.00036286144
2	0xb91204ff	-0.00013925506
3	0x38023938	3.1047704e-05
4	0xba21f91f	-0.00061787845
5	0xb93ef04d	-0.00018209331
6	0x39ea89e9	0.0004473471
7	0x39736f72	0.00023215803
8	0x39d15fd7	0.00039934993
9	0x39af2e76	0.00033413217
10	0x389c6128	7.4567564e-05
11	0x39e1ee8a	0.0004309307
12	0x37f0fadd	2.8727047e-05
13	0xb63129e9	-2.639945e-06
14	0xba00150f	-0.00048859505
15	0xb9ad6574	-0.0003307272
16	0xb94cabc1	-0.0001951894
17	0xb7ee9ece	-2.844576e-05
18	0x3a0fa7c8	0.00054800184
19	0xba0d0a81	-0.00053802883
20	0x38d34381	0.000100738376
21	0xb9ac48f9	-0.00032860765
22	0xb9d8621b	-0.00041271825
23	0xb9c6f7fd	-0.0003795027
24	0xb99229f5	-0.0002787855
25	0xb9663606	-0.00021954635
26	0xb798c709	-1.8212495e-05
27	0xb924b025	-0.00015705878
28	0xb963281b	-0.00021663347
29	0xb7f5613f	-2.925156e-05
30	0xb8f5dc3b	-0.000117235315
31	0xb8932d04	-7.017891e-05
32	0xb9c191c0	-0.0003692042
33	0x3a1900f0	0.00058366265
34	0x39a4fe3a	0.0003146993
35	0x352006d9	5.961461e-07
36	0xb6f2eed4	-7.2399653e-06
37	0x3913bd71	0.00014089585
38	0x39d23d82	0.00040100148
39	0x399b241b	0.00029590804
40	0xba03d088	-0.0005028327
41	0xb8d89a26	-0.00010328395
42	0x38158552	3.5648533e-05
43	0xb9cb2083	-0.000387434
44	0xb94cf116	-0.00019544768
45	0x39952043	0.00028443531
46	0xb703b1e3	-7.849626e-06
47	0x392f8039	0.00016737067
48	0xb8cfe458	-9.9130615e-05
49	0x39e9b193	0.00044573526
50	0x3a099a16	0.0005249096
51	0x3921c851	0.0001542878
52	0xb9d025bc	-0.00039700966
53	0x39940518	0.00028232555
54	0x39aba8d4	0.00032741448
55	0x39e974bd	0.000445282
56	0xb9cee7e0	-0.00039464142
57	0xb5ebbcee	-1.756385e-06
58	0xb9962263	-0.0002863585
59	0x397349eb	0.00023201822
60	0x3a0223da	0.0004964449
61	0xb9549384	-0.0002027285
62	0x38a3a52f	7.8032135e-05
63	0xba0eaab9	-0.000544231
64	0xb962a613	-0.00021614907
65	0x382c0c4d	4.101945e-05
66	0xb7aba5fc	-2.0462081e-05
67	0xb846137c	-4.7225025e-05
68	0xb93612fd	-0.00017363946
69	0x39c30105	0.00037194058
70	0x397e60c6	0.00024259379
71	0xba047737	-0.0005053165
72	0xb95b14b1	-0.00020893176
73	0x39f5dc39	0.0004689412
74	0x39d6760c	0.00040905213
75	0xb955f9d8	-0.00020406337
76	0xb8c76515	-9.5078874e-05
77	0xb75acd65	-1.3041635e-05
78	0xba05b943	-0.00051011535
79	0xb98880a8	-0.00026035798
80	0x39bfa135	0.00036550467
81	0x39de2018	0.0004236705
82	0x39eddb8b	0.00045367735
83	0x3995671e	0.00028496323
84	0x39ee5588	0.00045458623
85	0x3a1aa518	0.00058992347
86	0x393b96a8	0.00017889834
87	0x38e24287	0.000107889115
88	0xb920802e	-0.0001530654
89	0x39162f0c	0.00014322641
90	0xb9aa1f35	-0.00032448178
91	0xb9bb3aa6	-0.00035711116
92	0x3945b6b6	0.00018855449
93	0xba0025bd	-0.0004888436
94	0xb97273a7	-0.00023122002
95	0xb9afd798	-0.0003353923
96	0x3903c014	0.00012564688
97	0xb8c96d85	-9.6048265e-05
98	0x38e34e94	0.0001083884
99	0xb9acce97	-0.00032960318
100	0xb91bda40	-0.00014863256
101	0xb933ef7b	-0.00017159984
102	0x395af253	0.00020880373
103	0xb973815f	-0.0002322248
104	0xb9d78505	-0.00041107103
105	0x389d827a	7.5106465e-05
106	0x393d0c44	0.00018029014
107	0xb9d1c771	-0.00040012182
108	0xb8a58d34	-7.894114e-05
109	0xb985c666	-0.00025515555
110	0x384f3a22	4.9406786e-05
111	0x39bc1354	0.00035872555
112	0xb99c83ab	-0.0002985274
113	0x37bc079f	2.2414895e-05
114	0x39e7b43f	0.00044194047
115	0x39e5f0e3	0.00043857758
116	0x384299ac	4.6396322e-05
117	0xb8950880	-7.106457e-05
118	0x392f6afc	0.00016729155
119	0xba1ca0ef	-0.00059749087
120	0xb9d8e052	-0.00041365862
121	0xb97d95d7	-0.0002418378
122	0xb9b29fa5	-0.0003406975
123	0x39e75dd9	0.00044129675
124	0x39cb2f5f	0.00038754471
125	0x39a63bf8	0.00031706668
126	0xb9764529	-0.00023486152
127	0x39254839	0.00015762531
128	0xb9f92ea2	-0.00047527725
129	0xb8af2546	-8.351593e-05
130	0x39b9fdb4	0.00035474973
131	0x3811f727	3.4800873e-05
132	0xb96400a0	-0.00021744007
133	0xb8573295	-5.1307103e-05
134	0x398ebfb4	0.0002722718
135	0xb989a32c	-0.0002625225
136	0xb9b19219	-0.00033868922
137	0xba389170	-0.0007040715
138	0xb98e996d	-0.00027198662
139	0x398cccbb	0.00026855417
140	0xb9162d35	-0.00014321956
141	0xb8620d63	-5.3895066e-05
142	0xb7e6803f	-2.7477856e-05
143	0xba0d862e	-0.00053987175
144	0xb75accb5	-1.3041475e-05
145	0x39526878	0.00020066078
146	0xba2ee1c4	-0.0006671215
147	0xb9c0b672	-0.00036757026
148	0x391c2da8	0.00014894328
149	0x38d7fdff	0.00010299309
150	0x39f72a7d	0.00047143167
151	0x39079e11	0.00012933488
152	0xb8d23897	-0.00010024121
153	0x39d95e59	0.0004145976
154	0x39ce6a16	0.00039370422
155	0xba316ba5	-0.00067680544
156	0xb8f0c980	-0.00011481624
157	0x39a4d132	0.0003143638
158	0xba197b6d	-0.00058548787
159	0x391c9775	0.00014933741
160	0x39e60437	0.0004387216
161	0xb8b34cea	-8.5497115e-05
162	0x38b62b8b	8.686547e-05
163	0xb936a016	-0.00017416509
164	0xb98e4fde	-0.00027143856
165	0xba121f2a	-0.0005574102
166	0xba0223c4	-0.0004964436
167	0x3881352f	6.1611056e-05
168	0xb89905f1	-7.296715e-05
169	0x3920c6c8	0.00015332841
170	0xb9ce82c3	-0.00039388807
171	0x38961d3f	7.158005e-05
172	0x39b25dee	0.0003402079
173	0x37def5d3	2.6578933e-05
174	0xb8248bf4	-3.923099e-05
175	0xb83daa19	-4.5219527e-05
176	0xba0a0c5f	-0.00052661257
177	0x39afd942	0.0003354047
178	0xb7356df6	-1.0814043e-05
179	0x37214f18	9.614763e-06
180	0x397c1680	0.00024040975
181	0xb951eabe	-0.00020019241
182	0xb9efe38b	-0.00045755165
183	0xb9b57ca4	-0.00034615875
184	0x391bdc65	0.00014864055
185	0xb9fc6c3e	-0.00048145832
186	0xb99fd566	-0.00030485837
187	0x390c488f	0.0001337847
188	0xb893ea12	-7.053105e-05
189	0xba0f9af1	-0.0005478105
190	0x37d128e8	2.493379e-05
191	0x3957ba32	0.00020573361
192	0x39546598	0.00020255742
193	0x35eade7d	1.7499111e-06
194	0xb90caa84	-0.00013414962
195	0x39ca0d89	0.00038538527
196	0x38bd5f00	9.0299174e-05
197	0x3968c49c	0.00022198487
198	0xb90fb163	-0.00013703624
199	0x39a4dd3e	0.00031445356
200	0xb8bc6b70	-8.9845504e-05
201	0x3839c080	4.4286717e-05
202	0xb99b606d	-0.00029635747
203	0xb93bcd4d	-0.0001791019
204	0xb9214dc7	-0.00015383131
205	0x391c0cd9	0.00014882105
206	0xb93b5fc1	-0.00017869381
207	0x39dd2db6	0.00042186462
208	0xb8343550	-4.2964995e-05
209	0x39413a48	0.00018427626
210	0xba03a027	-0.0005021118
211	0x39f9449e	0.00047544105
212	0xb9254d5c	-0.00015764445
213	0x399879f3	0.00029082558
214	0x3a05cc65	0.00051040045
215	0xb9268ba8	-0.0001588302
216	0x386957b1	5.5633198e-05
217	0x39b04d9a	0.00033627154
218	0xb9ad232a	-0.0003302333
219	0x3986dafa	0.00025721622
220	0x3971086c	0.00022986688
221	0xb9c2f9d7	-0.0003718871
222	0xb9bf8ddb	-0.0003653605
223	0x3969fa8e	0.0002231395
224	0xb9a67ce2	-0.00031755032
225	0xb9357bdf	-0.0001730765
226	0xb91aa4f5	-0.00014748036
227	0xb9197079	-0.00014633116
228	0x38cb038b	9.680454e-05
229	0xb9db696d	-0.00041849483
230	0x3a000be5	0.0004884585
231	0xba0c278a	-0.0005346468
232	0x393581e3	0.00017309892
233	0x39d8cbc9	0.00041350562
234	0xba187f3a	-0.0005817298
235	0xba157811	-0.000570179
236	0x39b090dc	0.00033677265
237	0xb90852b2	-0.00013000777
238	0xb8a26152	-7.742889e-05
239	0x3906450c	0.00012804958
240	0xb99934a2	-0.0002922165
241	0xb93bb881	-0.00017902443
242	0x372f5979	1.0451645e-05
243	0xb7a9e694	-2.0253741e-05
244	0x39292947	0.00016132473
245	0xb9e7c69f	-0.00044207738
246	0x38729294	5.7833808e-05
247	0xb9f14dfd	-0.00046025208
248	0xb99f69cd	-0.0003040567
249	0xb95e6b17	-0.00021211464
250	0x3984de12	0.00025342457
251	0xb8cf6a4f	-9.890331e-05
252	0x398eab90	0.00027212175
253	0xb89fb62d	-7.615644e-05
254	0x3992016e	0.00027848355
255	0x39b6e73d	0.0003488603

sequential_2/conv2d/BiasAdd/ReadVariableOp f4 [32]
0	0x3d71a434	0.058994487
1	0xbd1b1392	-0.03786046
2	0x3c9fa1af	0.019486276
3	0xbca10019	-0.019653367
4	0xbd3c2ced	-0.045941282
5	0x3c005946	0.007833784
6	0xbc9d6d96	-0.019217294
7	0xbd1011f5	-0.035173375
8	0x3c893f6e	0.016753878
9	0xbc008f3b	-0.007846649
10	0xbd26dba2	-0.040736802
11	0x3ad9b880	0.0016610771
12	0xbcb651f9	-0.022255884
13	0xbd4fdc93	-0.050747465
14	0xbd97fd04	-0.07421306
15	0x3d0a512c	0.033768818
16	0xbd955f73	-0.07293596
17	0xbd17763b	-0.036977988
18	0x3d336da4	0.043805733
19	0xbd34e015	-0.044159014
20	0xbbf37bc0	-0.0074305236
21	0xbba67193	-0.005079457
22	0xbcf753fd	-0.030191416
23	0xbd182211	-0.037141863
24	0xbc0e46d7	-0.008683882
25	0x3c2e9799	0.010656261
26	0x3b3af168	0.0028525237
27	0xbd07ef54	-0.033187225
28	0x3d01508f	0.031570967
29	0xbd25d807	-0.040489223
30	0x3c8928f5	0.016743163
31	0x3d1af723	0.037833344

sequential_2/conv2d_1/BiasAdd/ReadVariableOp f4 [64]
0	0xbc13c345	-0.009018724
1	0x3c3d7604	0.011563782
2	0x3d2fec3c	0.0429499
3	0xbd1735d1	-0.036916558
4	0x3bc2f982	0.005950154
5	0x3d0b09ad	0.033944774
6	0x3d12e355	0.035861332
7	0x3cd77fa4	0.026305981
8	0xbcac03e5	-0.02099795
9	0x3d5b5922	0.0535518
10	0xbcdd47d9	-0.027011799
11	0xbc3bdc68	-0.011466123
12	0xb96f524c	-0.00022823474
13	0xbc0c8bf5	-0.00857829
14	0xbbd6b5e9	-0.006552447
15	0x3cc11430	0.023569196
16	0x3c76149b	0.015019561
17	0xbcee86db	-0.029117038
18	0xbba5ba8a	-0.0050576376
19	0x3c9ccf3c	0.019141786
20	0x3c9417ac	0.018077694
21	0x3b306682	0.0026916568
22	0x3d11fd91	0.03564221
23	0xbc8b323e	-0.01699173
24	0x3d25062f	0.0402891
25	0xbc01d4ec	-0.0079243
26	0x3c308610	0.0107741505
27	0x3cec9526	0.028879713
28	0xbc7711ca	-0.015079925
29	0xbc1aabda	-0.009440387
30	0xbd35eea2	-0.04441703
31	0x3c63dac6	0.01390714
32	0x3ce04bd3	0.027379906
33	0xbd33edc6	-0.04392793
34	0xbc10c8fc	-0.008836981
35	0x3c8ac73e	0.01694071
36	0xbb76b9d1	-0.0037647376
37	0x3d088251	0.033327404
38	0xbc3ca2ef	-0.011513456
39	0x3d1a9c74	0.03774686
40	0xbc040efe	-0.008060215
41	0x3c31ece1	0.010859699
42	0x3cb5f29f	0.022210417
43	0xbb259300	-0.002526462
44	0x3d0dc4f7	0.03461167
45	0x3c5f1b3b	0.013617332
46	0xbd225273	-0.03962941
47	0xbc475cce	-0.012168122
48	0xbcf7b42f	-0.030237285
49	0xbbd3907a	-0.006456432
50	0xbb9d2f7f	-0.0047969217
51	0xbc134fad	-0.008991164
52	0xbcc012bb	-0.023446431
53	0x3b1bed9d	0.0023792752
54	0xbc38674e	-0.0112550985
55	0xbc2c9ed9	-0.010535919
56	0xbb99ce1d	-0.00469376
57	0x3c38e5cf	0.011285259
58	0xbcfbd56e	-0.03074142
59	0xbc97e859	-0.01854341
60	0x3ce64d67	0.02811308
61	0xbb20feb1	-0.002456587
62	0x3a23c11a	0.0006246731
63	0x3c8f09c2	0.017460708

sequential_2/conv2d_2/BiasAdd/ReadVariableOp f4 [64]
0	0x3ca70479	0.020387875
1	0xbc9428b3	-0.018085813
2	0xbcd12751	-0.025531443
3	0xbbc9a1cf	-0.0061533223
4	0xbc3dc1f1	-0.011581884
5	0x3d1c5a88	0.038172275
6	0x3cf3157f	0.029673336
7	0xbbc37815	-0.0059652426
8	0xbbc48e17	-0.0059983837
9	0x3aca2e74	0.0015425221
10	0xbb5c0c7b	-0.0033576775
11	0x3c8c216d	0.017105782
12	0x3cc80f1c	0.024421267
13	0xbc4a1fad	-0.012336654
14	0xbbe4256c	-0.006962469
15	0x3cb6df93	0.022323405
16	0xbb80e4ef	-0.003933541
17	0xbbdba44c	-0.0067029353
18	0xbc75ac41	-0.014994682
19	0xbb71bf74	-0.0036887797
20	0x3a41d648	0.0007394296
21	0x3b022e6d	0.0019864098
22	0x3d0e310d	0.034714747
23	0xbcb4353b	-0.021998039
24	0xbbd98449	-0.006638084
25	0xbc8d1c95	-0.017225543
26	0xbc62cf92	-0.013843434
27	0x3c94eeb1	0.018180223
28	0x3cbc89df	0.02301496
29	0x3c7874bc	0.01516455
30	0x395a9481	0.00020845422
31	0xbcc864fa	-0.024462212
32	0xbc74f670	-0.014951333
33	0x3d02b645	0.031912107
34	0x3cb5f613	0.022212064
35	0xbc9f5a6f	-0.019452302
36	0xbbdd5f24	-0.0067557264
37	0x3af3e98f	0.0018609035
38	0x3c4f1f86	0.012641793
39	0x3c898b27	0.016789986
40	0xbcaa9b1a	-0.020825911
41	0x3ce6db5b	0.028180769
42	0xbbaa4182	-0.0051957974
43	0xbc57c5fd	-0.013169763
44	0x3c062c2e	0.008189244
45	0x3d078298	0.03308353
46	0x3bb2c88d	0.0054560364
47	0xbc5b3088	-0.01337827
48	0x3ce6bd41	0.028166415
49	0x3c5dadf8	0.013530247
50	0xbc821ed4	-0.01588384
51	0xbca9fb9b	-0.020749858
52	0xbb86bbac	-0.0041117277
53	0x3c8df714	0.01732973
54	0xbc0a8581	-0.008454681
55	0x3c535308	0.012898214
56	0xbca2e5aa	-0.019884903
57	0xbbd39a58	-0.006457608
58	0xbbd280bb	-0.0064240373
59	0x3bc6a81b	0.00606252
60	0x3d1fdbcc	0.039027974
61	0x3c9b6fd8	0.01897423
62	0x3b7f52c1	0.0038959237
63	0xbccd24f3	-0.025042033

sequential_2/conv2d_3/BiasAdd/ReadVariableOp f4 [64]
0	0xbc0c7512	-0.008572834
1	0xbc600711	-0.01367356
2	0xbb2b423a	-0.0026132003
3	0xbb9ef501	-0.004850984
4	0x3d172be4	0.03690709
5	0x3cb3898e	0.021916177
6	0x3cbaa647	0.022784365
7	0x3b5648ed	0.0032697276
8	0x3cdf7a13	0.02727989
9	0x3c845f57	0.016158743
10	0x3be79e70	0.007068448
11	0xbc393959	-0.011305177
12	0x3d041417	0.03224572
13	0xbbc56a7b	-0.0060246564
14	0x3bc3afd6	0.005971889
15	0x3c909d87	0.01765324
16	0xbc211014	-0.0098304935
17	0x3bad9a5c	0.005297942
18	0x3c34c10d	0.011032355
19	0x3ca7f02b	0.020500263
20	0x3c6c525c	0.014423933
21	0xbbc4d0b3	-0.006006324
22	0x3aa4dd21	0.0012578109
23	0xbcb6f397	-0.02233295
24	0x3d0e74a0	0.03477919
25	0xbbc61ec0	-0.006046146
26	0xbc24d00a	-0.010059366
27	0x3c6c7bfc	0.014433857
28	0xbac49220	-0.0014997162
29	0x3caeacf0	0.021322697
30	0xbbcf9751	-0.006335177
31	0x3ba443c5	0.0050129616
32	0x3a93594f	0.0011241826
33	0xbaf24a8d	-0.0018485353
34	0x3c4e846e	0.012604816
35	0xbb29b842	-0.002589718
36	0x3b95ea7b	0.0045750714
37	0x3cc9efbb	0.024650445
38	0x3b237685	0.002494247
39	0x3b822c56	0.0039725704
40	0xbc668dec	-0.014071923
41	0x3bf16bf0	0.0073676035
42	0x3bc9042c	0.0061345305
43	0x3d027085	0.03184559
44	0xbc14e8f0	-0.00908874
45	0xbb9be813	-0.00475789
46	0xbc59137b	-0.013249273
47	0xbc08d099	-0.008350515
48	0x3cc98370	0.024598807
49	0xbb639d37	-0.0034731159
50	0xbaf73b1b	-0.0018862219
51	0x3cc6a90c	0.02425053
52	0x3c77a6d2	0.015115457
53	0x3cd926e9	0.026507812
54	0xbc24149c	-0.010014679
55	0x3b6419b8	0.0034805369
56	0x3d04f6ea	0.032462038
57	0xbabdae92	-0.0014471582
58	0xbc4b132c	-0.012394708
59	0xbc377155	-0.011196454
60	0x3c9a1464	0.018808551
61	0xbbd7fdb5	-0.0065915235
62	0x3ca6c298	0.020356461
63	0xbb5ccdaa	-0.0033691921

sequential_2/conv2d_4/BiasAdd/ReadVariableOp f4 [64]
0	0xbc0ba87c	-0.0085240565
1	0xbc097ff0	-0.008392319
2	0xbbc4112d	-0.005983493
3	0x3c278aa0	0.010225922
4	0x3d2cdc8f	0.04220253
5	0x3d949f17	0.072569065
6	0x3a66a846	0.00087988784
7	0xbbd71af0	-0.0065644905
8	0x3b21fc93	0.0024717196
9	0x3c937e21	0.018004479
10	0xbbe8d38a	-0.0071052955
11	0xbbc4777f	-0.0059956904
12	0x3cbe7fea	0.023254354
13	0x3aa7fd9c	0.001281667
14	0x3cca6f76	0.024711352
15	0xbb6b1d2f	-0.003587555
16	0xbbe31d4b	-0.006930982
17	0x3cd1da71	0.025616856
18	0xbc580853	-0.013185578
19	0x3b8d2ef7	0.004308577
20	0x3d474aa7	0.04865518
21	0x3d06032d	0.032717872
22	0x3cc80ac4	0.024419196
23	0xbbb4ba65	-0.005515384
24	0x3c46c0ab	0.012130897
25	0xbbc4c5dd	-0.0060050325
26	0xbc2d20d2	-0.010566907
27	0xbcf63bfb	-0.030057898
28	0xbbc5a144	-0.0060311873
29	0xbb8135e9	-0.003943194
30	0xbc018813	-0.007905978
31	0x3c5721a7	0.013130582
32	0xbbb23c0f	-0.0054392884
33	0xbc2e4b12	-0.010638015
34	0x3cf5ace7	0.029989673
35	0xbbc7a6b1	-0.006092869
36	0xb503bd74	-4.9076993e-07
37	0x3bc164c7	0.005901906
38	0x3a81e85f	0.0009911171
39	0x3ba2aa64	0.00496416
40	0xbbd39926	-0.0064574657
41	0x3b0b49c2	0.002125368
42	0x3bc809f6	0.006104703
43	0x3c4f153b	0.012639339
44	0x3babac2f	0.0052390317
45	0x3b37836d	0.002800192
46	0xbc239259	-0.0099836225
47	0x3c27638b	0.010216604
48	0x3c825037	0.01590739
49	0xbc703e52	-0.014663296
50	0x3c46d9f4	0.012136925
51	0xbbcf9446	-0.0063348142
52	0xbbe370ec	-0.0069409516
53	0xbc12ab12	-0.008951919
54	0xbbc6280b	-0.006047254
55	0x3bd5bab6	0.006522502
56	0x3b0d2e6a	0.0021542558
57	0x3ca52fd2	0.020164404
58	0x3b276be5	0.0025546488
59	0xbaf1215e	-0.0018396785
60	0x3caa5053	0.020790255
61	0x3c8bc0f5	0.017059783
62	0xbb47f248	-0.00305094
63	0x3a26a24c	0.00063565816

sequential_2/conv2d_5/BiasAdd/ReadVariableOp f4 [64]
0	0x3b9e0406	0.004822257
1	0x3c4bf186	0.01244772
2	0x3b99791c	0.004683627
3	0x3da898b5	0.082322516
4	0xbbd02ece	-0.006353236
5	0xbc9fb7c7	-0.019496812
6	0xbd2c67de	-0.042091243
7	0xbbb9ed89	-0.0056740684
8	0xbc8821e5	-0.016617725
9	0xbbc180ea	-0.0059052603
10	0xbc530930	-0.012880608
11	0x3d318ad3	0.043345284
12	0xbc96cd5d	-0.018408472
13	0xbd1ee3fb	-0.038791638
14	0xbc6411b9	-0.013920241
15	0xbc1b4989	-0.009477981
16	0xbd0c564e	-0.034261994
17	0xbc315982	-0.010824563
18	0x3d35abfe	0.044353478
19	0x3b913223	0.0044310256
20	0x3cd177d2	0.02556983
21	0x3d426da4	0.047467843
22	0xbc3404e1	-0.010987491
23	0xbcec9bc7	-0.028882874
24	0x3a6314a3	0.0008662438
25	0x3c35dbd8	0.011099778
26	0xbc27d111	-0.010242716
27	0xbc06f87b	-0.008237953
28	0x3d95f272	0.073216334
29	0xbc413500	-0.011792421
30	0x3d8134e4	0.06308916
31	0xbcafd49e	-0.021463688
32	0xbccaaaad	-0.024739588
33	0xbc9d7e39	-0.019225227
34	0xbbc6075c	-0.006043358
35	0xbc3826ec	-0.011239748
36	0xbc51a31f	-0.012795239
37	0xbbd53257	-0.006506245
38	0xbabb61e0	-0.0014296137
39	0xbb4a5c5c	-0.0030877804
40	0xbc0153d0	-0.007893518
41	0xba6fb0aa	-0.00091434515
42	0xbc03eedc	-0.008052554
43	0xbc15da49	-0.0091462815
44	0xbc0ed565	-0.008717869
45	0xbcb573f3	-0.022150015
46	0xbbef84d1	-0.007309534
47	0xbbc4da35	-0.0060074576
48	0xbcc39349	-0.023873942
49	0xbb8296a7	-0.0039852443
50	0xbbd71f28	-0.0065649934
51	0x3c6610d5	0.014042099
52	0xbbc4719e	-0.0059949895
53	0x3c4a8983	0.012361887
54	0x3d8d4dd4	0.0689961
55	0x3b6aa651	0.0035804699
56	0x3da82c9f	0.08211636
57	0xbc52ff95	-0.012878318
58	0xbb73eb80	-0.0037219226
59	0xbc87ef54	-0.016593613
60	0x3d011c37	0.03152105
61	0xbc44c137	-0.012008957
62	0x3c74ccab	0.014941375
63	0xbc329357	-0.010899386

sequential_2/conv2d_1/Conv2D f4 [64, 3, 3, 32]
0	0x3c84d185	0.016213188
1	0xbd1fa218	-0.038972944
2	0xbd5085c0	-0.050908804
3	0xbd41ff13	-0.0473624
4	0x3d510e5a	0.051039077
5	0xbda2af0b	-0.07943543
6	0xbd82048b	-0.06348523
7	0x3d9296ea	0.07157691
8	0xbd4d8dcb	-0.050184052
9	0x3d1dc53a	0.038518168
10	0x3cc5e8ec	0.024158917
11	0xbd7000e0	-0.058594584
12	0x3cd60fef	0.026130645
13	0xbdb21412	-0.08695234
14	0x3c1a8dae	0.009433193
15	0xbd8c324a	-0.068455294
16	0x3bf96298	0.0076106302
17	0x3c941f8a	0.018081445
18	0x3ce5352d	0.027979458
19	0x3c163f96	0.0091704335
20	0x3d533f2a	0.05157391
21	0xbbd45a30	-0.0064804778
22	0xbda9a699	-0.08283729
23	0xbdb67399	-0.08908767
24	0xbd8fa0fa	-0.07013126
25	0xbbfa1499	-0.00763185
26	0xbdc4cabc	-0.09608981
27	0xbc324ba8	-0.010882296
28	0xbd61bfa3	-0.0551144
29	0x3c0919af	0.00836794
30	0xbcd54fab	-0.026038965
31	0x3d956216	0.07294099
32	0xbd72ba4d	-0.0592597
33	0xbdaaccad	-0.0833982
34	0xbd7fee83	-0.062483322
35	0xbd08a38e	-0.033359103
36	0x3d718a3d	0.058969725
37	0xbdaa567f	-0.08317279
38	0x3d8b7bfa	0.06810756
39	0xbd3d94df	-0.046284553
40	0xbc9f8f63	-0.019477552
41	0xbd846c59	-0.06465978
42	0xbd83c155	-0.064333595
43	0xbbac4e79	-0.005258378
44	0xbd256a0b	-0.040384334
45	0x3cacda2f	0.021100132
46	0x3d0f11fa	0.034929253
47	0x3d093a24	0.033502713
48	0x3d211394	0.03932531
49	0x3d27217a	0.04080341
50	0x3a7536d5	0.0009354179
51	0xbb974eb5	-0.004617537
52	0x3d99d505	0.075113334
53	0xbd579f00	-0.05264187
54	0x3d429942	0.04750944
55	0xbda2fd38	-0.07958454
56	0x3d5fdb07	0.05465224
57	0xbd1ab05d	-0.03776585
58	0x3d901af9	0.070363946
59	0xbb0828de	-0.0020776312
60	0xbc851fa8	-0.016250446
61	0x3c93ec51	0.01805702
62	0x3c95df93	0.018295085
63	0xbd274cee	-0.04084485
64	0xbd34661a	-0.044042684
65	0xbc5cd34a	-0.01347811
66	0xbd960d63	-0.07326772
67	0xbd927000	-0.071502686
68	0xbdab563f	-0.083660595
69	0x3cd516ee	0.02601191
70	0xbb541800	-0.0032362938
71	0xbae4941d	-0.0017439161
72	0x3c2f03b8	0.010682039
73	0xbc97282c	-0.018451773
74	0xbd5a1b36	-0.053248607
75	0xbd039226	-0.0321218
76	0x3d6aea15	0.057352144
77	0xbdadfb5b	-0.08495208
78	0x3ce1ecf2	0.027578805
79	0xb9e26572	-0.00043181662
80	0xbdaade50	-0.08343184
81	0x3d11bf36	0.035582744
82	0xbc8af2a0	-0.016961396
83	0xbda29f8e	-0.07940589
84	0x3b51a145	0.0031986993
85	0x3d711c62	0.05886496
86	0xbdb30c09	-0.0874253
87	0xbd809ce6	-0.06279926
88	0x3d69fc31	0.057125274
89	0x3ca8198e	0.020519998
90	0x3d8480d8	0.064698875
91	0xbc9d8798	-0.019229695
92	0xbc8b25af	-0.016985742
93	0xbda6fba2	-0.08153464
94	0xbc4a4d3b	-0.012347515
95	0xbd175e53	-0.03695519
96	0xbd66f47f	-0.056385513
97	0xbcda2d51	-0.026632937
98	0xbc78d3a5	-0.015187179
99	0x3d22be97	0.039732542
100	0xbda63f6e	-0.08117567
101	0xbd92eefc	-0.07174489
102	0xbd8b0e1b	-0.067898
103	0x3d0453ec	0.032306597
104	0xbbac49a2	-0.005257801
105	0x3d572ef2	0.052535005
106	0xbc4f7e53	-0.012664395
107	0xbda1b2ce	-0.078954324
108	0x3d76c972	0.060250707
109	0x3d55a034	0.052154735
110	0xbd02d680	-0.031942844
111	0xbd2ab65f	-0.04167783
112	0xbda6bd0c	-0.081415266
113	0x3d786b3b	0.060649138
114	0xbda2ed00	-0.079553604
115	0x3d4bbd4f	0.049741086
116	0x3d41fe91	0.047361914
117	0x3da363cb	0.079780184
118	0x3cc901ad	0.024536932
119	0x3d4140d9	0.047180984
120	0xbd7c4f05	-0.061598796
121	0x3d062471	0.032749597
122	0xbd39a45f	-0.045322772
123	0xbdc4dc0e	-0.096122846
124	0xbc7cdbe4	-0.015433285
125	0xbda9565a	-0.082684234
126	0x3d821741	0.063520916
127	0xbda14a93	-0.07875552
128	0x3d761fa7	0.06008878
129	0xbc208b6c	-0.009798866
130	0xbc82adbf	-0.01595199
131	0x3d2e1a46	0.042505525
132	0xbb9dea1a	-0.004819167
133	0x3d4cbc1e	0.04998409
134	0x3d457242	0.048204668
135	0xbcfb10de	-0.030647691
136	0x3d732377	0.059359994
137	0xbd10c7f6	-0.035346948
138	0x3b7def50	0.0038747378
139	0x3d161027	0.036636498
140	0xbc11840d	-0.008881581
141	0xbcd1c468	-0.02560635
142	0xbd250f43	-0.040297758
143	0x3cdfa66e	0.02730104
144	0x3bbbeabf	0.005734771
145	0xbbf9e111	-0.007625707
146	0xbd4e8a08	-0.050424606
147	0xbdaa8a61	-0.08327175
148	0x3b805aff	0.0039170976
149	0x3cc5ff8c	0.024169706
150	0x3d637cbb	0.055538874
151	0x3d43e452	0.047825165
152	0x3da552f0	0.0807246
153	0xbda9835b	-0.08277007
154	0xbda889dd	-0.0822942
155	0xbd2764a3	-0.04086746
156	0x3d9f42d8	0.07776421
157	0xbd3326fb	-0.043738347
158	0xbcb624c4	-0.022234328
159	0xbda19882	-0.07890417
160	0xbd14fcc0	-0.036373854
161	0xbd0b0fc1	-0.03395057
162	0x3d5056be	0.050863974
163	0xbad414e1	-0.0016180539
164	0xbd0de7b7	-0.03464481
165	0x3d27b1c2	0.040941007
166	0x3d9bca6b	0.076069675
167	0xbdba6873	-0.09101953
168	0x3d63f26f	0.055651125
169	0xbd2129e0	-0.039346576
170	0x3d5d5979	0.054040406
171	0xbd8dba5e	-0.06920312
172	0x3c529bd0	0.012854531
173	0x3d81ecaf	0.06343972
174	0xbd9ea139	-0.077455945
175	0x3c695a52	0.014242725
176	0xbd29f47e	-0.04149293
177	0xbdaa70e5	-0.08322314
178	0xbc1f11d7	-0.009708843
179	0x3d806dec	0.06270966
180	0xbc653b9c	-0.013991263
181	0xbba82130	-0.0051309094
182	0xbd23c4ca	-0.039982595
183	0xbc9c5ff5	-0.019088725
184	0x3d802830	0.06257665
185	0x3d0c11cc	0.03419666
186	0xbda5a948	-0.080889285
187	0xbda93f07	-0.08263975
188	0x3d04c619	0.032415483
189	0x3d696f34	0.056990817
190	0xbd771fa5	-0.060332913
191	0xbd9156df	-0.070966475
192	0x3d9cc81e	0.07655357
193	0x3da47e98	0.08031958
194	0x3d2211c0	0.03956771
195	0x3d60fd4e	0.05492907
196	0xbd1f2a70	-0.03885883
197	0x3cac899f	0.021061717
198	0xbd920150	-0.071291566
199	0xbd87d351	-0.06632102
200	0x3d4e9590	0.050435603
201	0x3da37c65	0.07982711
202	0xbd9204e2	-0.071298376
203	0xbd74f54b	-0.059804242
204	0xbda2e9e7	-0.079547696
205	0xbd98b0dd	-0.07455609
206	0x3d73e3d7	0.059543457
207	0x3c15cb74	0.009142745
208	0x3c714ccc	0.014727782
209	0xbd9de3f4	-0.07709494
210	0x3cb4ad16	0.02205519
211	0xbd7967f3	-0.06089015
212	0xbca463a3	-0.020067042
213	0xbc58c768	-0.013231136
214	0xbd1f7005	-0.03892519
215	0x3d2b4755	0.041816074
216	0xbd433a18	-0.047662824
217	0xbd045d7f	-0.032315727
218	0xbc9d2012	-0.019180331
219	0xbdb2408f	-0.0870372
220	0x3cb5ef90	0.022208959
221	0x3d1ae870	0.037819326
222	0xbb7a7c6e	-0.0038221139
223	0x3c3fbee5	0.011703228
224	0x3cd2503a	0.02567302
225	0x3d41947a	0.04726074
226	0x3d6f36d8	0.058401912
227	0x3d4b6847	0.049659993
228	0x3c408707	0.011750943
229	0x3d2e7f5e	0.042601936
230	0x3d592a5a	0.053018905
231	0x3d7cd3b3	0.06172533
232	0xbd2de70b	-0.042456668
233	0xbd8a52e3	-0.06754091
234	0x3bbbcdba	0.0057313116
235	0xbd93835f	-0.072027914
236	0xbc3894e3	-0.011265966
237	0xbd95deb4	-0.07317868
238	0xbd9aa891	-0.07551683
239	0xbd445ffa	-0.047943093
240	0xbd83ff7c	-0.06445214
241	0xbd2bfc24	-0.041988507
242	0x3d451af6	0.048121415
243	0xbdb93d6d	-0.09044919
244	0x3d84dbae	0.06487213
245	0x3d4ca956	0.04996618
246	0x3c860942	0.016361836
247	0x3d9983e4	0.07495859
248	0x3c3efb8f	0.011656656
249	0xbd74ca61	-0.059763316
250	0xbda94fd3	-0.082671784
251	0x3cd10916	0.025517028
252	0x3d06d81e	0.03292095
253	0xbc1ec9df	-0.0096916845
254	0x3d74ac6b	0.059734743
255	0x3ca6e17b	0.02037119

sequential_2/conv2d_2/Conv2D f4 [64, 3, 3, 64]
0	0x3c47e5af	0.012200757
1	0x3d852990	0.06502068
2	0xbaf411a6	-0.0018620982
3	0xbd12850c	-0.035771415
4	0xbcc54f99	-0.024085807
5	0xbd538a44	-0.051645532
6	0x3d121fbd	0.0356748
7	0x3cbd4ff3	0.023109412
8	0xbc97203e	-0.018447991
9	0x3d9a5f04	0.07537654
10	0x3d035d6a	0.03207151
11	0xbd90dd91	-0.070735104
12	0xbd83c873	-0.06434717
13	0x3d0892ba	0.033343054
14	0xbd5070b0	-0.050888717
15	0x3d813c65	0.063103475
16	0x3c7087f6	0.014680853
17	0x3c3e1a33	0.011602926
18	0xbcc86cbd	-0.024465913
19	0x3d8875c4	0.06663087
20	0xbd4d8ad1	-0.050181214
21	0xbd8561f0	-0.06512821
22	0x3950b273	0.00019902903
23	0xbd6653a8	-0.056232125
24	0xbd64ac8c	-0.055828616
25	0x3bc92ced	0.006139389
26	0x3cea789b	0.028621962
27	0x3d894116	0.06701867
28	0xbcbb562a	-0.022868235
29	0xbcb5f859	-0.022213148
30	0xbcdcdaf2	-0.02695987
31	0xbd986b64	-0.07442358
32	0xbd4f8fd5	-0.05067428
33	0xbd2e292e	-0.04251974
34	0xbc83c220	-0.016083777
35	0xbd273ce9	-0.040829573
36	0xbc5287be	-0.012849746
37	0x3c5de803	0.013544085
38	0x3d8af2bf	0.067845814
39	0x3db355b3	0.0875658
40	0xbd03e9fb	-0.032205563
41	0xbd8cd222	-0.06876017
42	0x3d9a8bc1	0.07546187
43	0x3d648418	0.055790037
44	0xbccab33a	-0.024743665
45	0xbd8fde02	-0.070247665
46	0xbd2c278a	-0.042029895
47	0xbdd5fa46	-0.104481265
48	0xbd5ac5c7	-0.05341127
49	0xbd7030a4	-0.058640137
50	0xbd52c242	-0.05145479
51	0xbcbf7fe0	-0.023376405
52	0xb9d56e52	-0.0004070872
53	0x3cf6e239	0.030137168
54	0xbcbcc87d	-0.023044819
55	0xbd250cd6	-0.040295444
56	0xbcf76fd1	-0.030204685
57	0x3cfbf4dd	0.030756408
58	0x3d6bcd93	0.057569098
59	0x3d213b81	0.039363388
60	0xbd20f71a	-0.039298154
61	0xbd52d5b0	-0.05147332
62	0x3b1024c3	0.0021994568
63	0x3d454a98	0.04816684
64	0x3c0fdb76	0.008780351
65	0xbd17fcb2	-0.037106223
66	0x3da94845	0.082657374
67	0x3a758d62	0.0009367076
68	0xbc0a9bc2	-0.008459987
69	0x3c1a8e1e	0.009433297
70	0xbcc0461f	-0.023470936
71	0x3ca20e16	0.019782107
72	0x3c4022a7	0.011727012
73	0x3d83459e	0.06409763
74	0xbd23e946	-0.04001739
75	0xbc93309c	-0.017967515
76	0xbdb86e8b	-0.090054594
77	0xbca489e6	-0.020085286
78	0x3d047353	0.032336544
79	0x3d2b2777	0.041785683
80	0x3d26639b	0.040622335
81	0xbd0e8f7e	-0.034804814
82	0xbd42f20e	-0.047594123
83	0x3c924e4d	0.017859602
84	0xbb1e427a	-0.002414851
85	0xbd525d58	-0.05135855
86	0xbc86cec4	-0.016456015
87	0xbd24db73	-0.040248346
88	0x3d389b4b	0.045069974
89	0xbb39c448	-0.0028345753
90	0x3d4d9899	0.050194357
91	0x3d3f5e38	0.046720713
92	0x3d5e989f	0.05434477
93	0x3d075403	0.033039104
94	0xbc8ec3d0	-0.017427355
95	0x3d6ec1d3	0.058290314
96	0x3d1b5a3d	0.037927855
97	0xbcb8d11d	-0.02256065
98	0xbc811e05	-0.015761385
99	0xbbfd1c9b	-0.0077243573
100	0x3bc822c7	0.0061076614
101	0xbcfeb458	-0.031091854
102	0x3be4ad62	0.0069786767
103	0x3d8525c8	0.06501347
104	0x3cbb36b1	0.022853227
105	0x3b18c6ae	0.0023311782
106	0xbc89f649	-0.01684107
107	0xbd3b4be7	-0.045726683
108	0xbba1f42a	-0.0049424367
109	0xbd69a7d7	-0.05704483
110	0xbd0b70eb	-0.034043234
111	0x3c1337cf	0.008985474
112	0x3d319963	0.04335917
113	0x3d2f50eb	0.04280178
114	0x3d6d1781	0.057883743
115	0xbd1b60d6	-0.037934147
116	0xbcb6ee42	-0.022330407
117	0x3d786213	0.060640406
118	0xbda3decc	-0.080014795
119	0xbc8b7f26	-0.017028403
120	0x3d063ec2	0.032774694
121	0x3cc3beaa	0.023894627
122	0xbd8824de	-0.06647657
123	0xbd65876c	-0.05603735
124	0x3c254c0f	0.010088935
125	0xbd96a878	-0.073563516
126	0xbd69c048	-0.05706814
127	0xbd8ff4e4	-0.07029131
128	0x3d7a204a	0.06106595
129	0x3d438391	0.047732893
130	0x3baa006b	0.005188038
131	0xbd8c41b9	-0.06848473
132	0xbc9050d0	-0.01761666
133	0x3bf5296d	0.007481745
134	0x3d7c4a95	0.061594564
135	0x3d27a001	0.040924076
136	0xbc30576c	-0.0107630305
137	0xbbfe3d0f	-0.0077587436
138	0xbcd5e995	-0.026112357
139	0x3cff6053	0.03117386
140	0x3b4711e8	0.0030375663
141	0x3d12ca2a	0.03583733
142	0xbd71b464	-0.059009925
143	0x3cd46bcf	0.025930313
144	0x3d88c74e	0.06678639
145	0xbd0c3240	-0.03422761
146	0xbd19d9fb	-0.037561398
147	0x3d0b4ac3	0.034006845
148	0xbd3a66c0	-0.045508146
149	0xbc95d9df	-0.018292366
150	0x3d70f928	0.058831364
151	0x3d8c2d22	0.06844546
152	0x3c66a9fd	0.014078614
153	0xbd73b439	-0.059498046
154	0xbcc27a9a	-0.023740102
155	0x3c901ab7	0.017590864
156	0xbd90593b	-0.07048269
157	0xbd5850b2	-0.052811332
158	0xbd095425	-0.033527512
159	0x3d6106eb	0.054938238
160	0x3d57f332	0.052722163
161	0x3d3c0851	0.04590637
162	0x3c2911e0	0.010319203
163	0xbd1611f1	-0.036638204
164	0xbd4d9dbc	-0.050199255
165	0x3d5abdd3	0.053403687
166	0xbd626efb	-0.05528162
167	0x3d613a23	0.054987084
168	0x3c9705db	0.01843541
169	0x3d73a43c	0.059482798
170	0x3d358196	0.044313036
171	0xbd4d2b55	-0.050090153
172	0x3d7329f0	0.059366167
173	0x3d22bdea	0.039731897
174	0x3ce78f79	0.028266655
175	0x3d8bc3d6	0.06824462
176	0x3d54dd31	0.051968757
177	0xbc21935a	-0.0098617915
178	0xbcfc30ad	-0.03078493
179	0x3d66a5b0	0.056310356
180	0xbd253a13	-0.040338587
181	0xbbc02144	-0.0058633406
182	0xbd931ef8	-0.07183641
183	0xbd631556	-0.05544027
184	0xbc517e74	-0.012786496
185	0x3c8c19e1	0.017102184
186	0x3c1da48d	0.0096217515
187	0xbbecf311	-0.007231124
188	0xbd324598	-0.0435234
189	0xbde98d7e	-0.114039406
190	0xbd9fa8d9	-0.07795877
191	0xbd787dbd	-0.06066679
192	0xbc8ef5fe	-0.017451283
193	0xbd4d0eb0	-0.050062835
194	0x3d4aa883	0.04947711
195	0x3cd0c2a1	0.025483431
196	0xbc8f6c0f	-0.017507581
197	0xbc8492fe	-0.016183373
198	0xbcc5822b	-0.02410992
199	0xbc0b767c	-0.008512136
200	0xbda12f3e	-0.07870339
201	0xbbbee82a	-0.005826016
202	0x3d5addb4	0.05343409
203	0xbd2b4c86	-0.041821025
204	0xbd45417b	-0.04815815
205	0x3d11a6f3	0.035559606
206	0xbd2443ab	-0.040103596
207	0x3cdd1d4d	0.02699151
208	0xbcd65eca	-0.026168246
209	0x3aa16f7a	0.0012316548
210	0x3d7418bc	0.0595939
211	0xbd3fcb89	-0.046824966
212	0xbc4551ef	-0.01204346
213	0xbc3b034f	-0.011414363
214	0x3d5f6e8d	0.05454879
215	0x3d750628	0.059820324
216	0xbd604836	-0.054756366
217	0x3d117c82	0.03551913
218	0x3d59854e	0.053105645
219	0xbd821d62	-0.063532606
220	0x3d8ff285	0.07028679
221	0xbdf22f7d	-0.11825464
222	0xbd0b29d7	-0.03397545
223	0xbd4c9f5d	-0.04995667
224	0x3ce102fe	0.027467247
225	0xbadfceaf	-0.0017075146
226	0xbda28e95	-0.079373516
227	0x3baaa06c	0.005207112
228	0x3d42920c	0.047502562
229	0x3da8b4b7	0.082375936
230	0xbca316e3	-0.019908374
231	0x3d253e0f	0.040342387
232	0xbd635066	-0.055496596
233	0xbd7d4985	-0.06183769
234	0x3d4652f4	0.048418954
235	0xbb2be914	-0.0026231455
236	0x3d874f54	0.066069275
237	0xbca33a7f	-0.019925354
238	0xbd8e9e8f	-0.069638364
239	0x3c1a8a68	0.009432413
240	0xbd3b6b8c	-0.04575686
241	0xbc440264	-0.011963461
242	0xbd106353	-0.035250973
243	0x3d3f0410	0.046634734
244	0x3d2e38a9	0.042534504
245	0xbb2a8f82	-0.0026025479
246	0xbd8a8a9d	-0.0676472
247	0x3d874c3c	0.066063374
248	0x3d84ed28	0.064905465
249	0x3c68af83	0.0142020015
250	0x3d198f02	0.0374899
251	0xbc9df008	-0.019279495
252	0x3d531033	0.05152912
253	0xbcb0c427	-0.021577908
254	0x3d7574e2	0.05992592
255	0x3d8561bf	0.06512784

sequential_2/conv2d_3/Conv2D f4 [64, 3, 3, 64]
0	0xbd750c0f	-0.059825953
1	0xbcb172cb	-0.021661183
2	0x3d1cb6e6	0.038260363
3	0xbd1b197f	-0.03786611
4	0xbd42e06d	-0.04757731
5	0x3cbae30f	0.022813348
6	0xbd849690	-0.0647403
7	0xbd4b112a	-0.049576916
8	0xbd4e2dc2	-0.050336607
9	0xbc1435de	-0.009046046
10	0xbd6bf1de	-0.05760371
11	0xbccd5383	-0.025064236
12	0x3d6c509f	0.057694074
13	0xbcd0dae4	-0.025495
14	0x3d4d5e98	0.05013904
15	0xbdaa6bf3	-0.08321371
16	0x3c46667e	0.012109397
17	0xbb31143e	-0.0027020122
18	0xbd73a0c3	-0.059479486
19	0x3ad64b71	0.0016349388
20	0x3d64257a	0.055699803
21	0x3c68f0c9	0.014217564
22	0xbba910a1	-0.005159453
23	0x3d6654db	0.05623327
24	0x3cd82b0c	0.026387714
25	0x3c379a11	0.011206166
26	0x3d9b8f72	0.075957194
27	0x3c84c303	0.01620627
28	0x3bcf3093	0.006322929
29	0xbd9a755c	-0.07541916
30	0xbc6c8632	-0.0144362915
31	0xbd84279d	-0.06452868
32	0x3d30e108	0.043183357
33	0xbd1b03ea	-0.03784553
34	0xbc490e46	-0.012271469
35	0xbd7bc379	-0.061465714
36	0xbd5a3e37	-0.05328199
37	0x3d64d02e	0.055862598
38	0xbcb53462	-0.022119705
39	0xbad901f7	-0.0016556372
40	0x3d2beea3	0.04197563
41	0x3c0ffc63	0.008788201
42	0xbd45c19a	-0.048280336
43	0x3ce53959	0.027981447
44	0xbd548144	-0.05188109
45	0xbd50ffa7	-0.05102506
46	0x3d3bb346	0.045825265
47	0x3d68b980	0.05681753
48	0x3b5b4ace	0.0033461335
49	0x3bc0f890	0.005889006
50	0xbc9d6cb6	-0.019216876
51	0xbcb45a2a	-0.02201565
52	0x3d66da70	0.056360662
53	0xbd25f5cc	-0.040517613
54	0x3b47dd60	0.003049694
55	0xbad7e178	-0.0016470393
56	0x3cbbf34e	0.022943165
57	0xbba90dfd	-0.0051591382
58	0xbd72c6ef	-0.05927175
59	0xbd4af733	-0.049552154
60	0x3d7701ed	0.06030457
61	0xbd1d7712	-0.038443632
62	0x3bdb6b86	0.0066961674
63	0x3d8825ae	0.06647812
64	0xbd0bc958	-0.034127563
65	0x3b644dc1	0.0034836384
66	0xbd8375fb	-0.06418987
67	0x3c0ba099	0.008522176
68	0xbbfbdbf1	-0.007686131
69	0x3d450c2c	0.04810731
70	0x3b70947a	0.0036709593
71	0xbd7a55b8	-0.061116904
72	0xbd11e4bb	-0.035618525
73	0x3ccd8b12	0.025090728
74	0x3d7d1043	0.061783087
75	0xbd916ac0	-0.07100439
76	0x3cb56893	0.022144591
77	0x3d4f2de7	0.050580885
78	0x3cd0065d	0.02539366
79	0xbd40e93a	-0.047097422
80	0x3d55de06	0.05221369
81	0xbb9117e7	-0.004427898
82	0x3d0aa30a	0.033846892
83	0x3d196f02	0.03745938
84	0x3c3e4427	0.0116129285
85	0x3d3566b9	0.044287417
86	0xbd583c85	-0.05279209
87	0x3cfcf348	0.030877724
88	0x3c088356	0.008332094
89	0xbca3e938	-0.020008668
90	0x3c50e2be	0.012749372
91	0xbbfa6d4d	-0.007642424
92	0xbd9c6b84	-0.076376945
93	0x3b6f7b95	0.0036542166
94	0x3d0f3344	0.034961
95	0xbd180309	-0.03711227
96	0x3d89cf14	0.0672895
97	0xbc1fbee7	-0.0097501045
98	0xbd2ecc93	-0.042675566
99	0xbc7ea8ff	-0.0155432215
100	0xbb310b0f	-0.0027014648
101	0x3cd86ed6	0.026420038
102	0xbd791616	-0.06081208
103	0x3cd17413	0.025568044
104	0xbd40fb2c	-0.047114536
105	0x3d0739b6	0.03301402
106	0xbda4c8d0	-0.080461144
107	0x3d8aa361	0.06769443
108	0xbc9cc726	-0.01913793
109	0x3cd3624b	0.025803706
110	0x3cce0c32	0.0251523
111	0xbcc1aaf2	-0.023641083
112	0xbd754a69	-0.059885416
113	0xbca85535	-0.020548442
114	0xbc7a9153	-0.015293437
115	0xbd704f7e	-0.05866956
116	0xbcda1716	-0.026622336
117	0xbd9ef2f4	-0.077611834
118	0xbc46f0de	-0.012142388
119	0xbd83166d	-0.06400762
120	0xbcbd8155	-0.02313296
121	0x3da1ce4e	0.079006776
122	0xbd383c38	-0.044979304
123	0xbd2c5a62	-0.042078383
124	0x3c1b98f8	0.00949692
125	0x3b5d85f6	0.003380177
126	0x3d296343	0.04135443
127	0x3d45d816	0.04830178
128	0x3c9f5e1b	0.019454053
129	0x3d47772d	0.04869764
130	0x3d53d4bc	0.05171655
131	0xbc76e9a9	-0.015070357
132	0xbd183088	-0.037155658
133	0xbd1c33bd	-0.03813528
134	0xbd905edf	-0.07049345
135	0x3d61fab0	0.055170715
136	0xbcd7e333	-0.026353454
137	0x3b8e4d7c	0.004342733
138	0x3c89c074	0.016815402
139	0x3cff71d3	0.031182205
140	0xbd461df4	-0.04836841
141	0xbca0d142	-0.019631032
142	0xbbbf0be2	-0.005830274
143	0x3c343399	0.01099863
144	0x3b87c72a	0.0041436153
145	0x3aff1326	0.0019460663
146	0x3c17dc2c	0.009268802
147	0x3cd394e0	0.025827825
148	0x3d41f1a2	0.04734958
149	0x3ceb451b	0.028719475
150	0xbc68d3f6	-0.014210692
151	0x3c89ff73	0.01684544
152	0x3ccae1a6	0.0247658
153	0xbd6fb6d4	-0.058523968
154	0x3d7ccf4c	0.06172113
155	0x3d093e4e	0.033506684
156	0xbd4aacd7	-0.04948124
157	0xbd6ccd2a	-0.057812847
158	0xbd4b3318	-0.049609274
159	0xbd50e103	-0.050995838
160	0xbd3d7b51	-0.04626018
161	0x3c9a2c29	0.018819885
162	0xbb59f8dc	-0.0033259904
163	0xbd4c9649	-0.04994801
164	0xbd86bcfc	-0.06579015
165	0xbd9acd8f	-0.075587384
166	0x3d680a54	0.056650475
167	0xbd6502c5	-0.055910844
168	0xbd43139a	-0.047626115
169	0x3d263279	0.04057548
170	0x3d14fbff	0.036373135
171	0xbd5a13a1	-0.053241376
172	0xbd99d863	-0.075119756
173	0xbd82a957	-0.06379955
174	0x3d77e498	0.06052074
175	0x3c7b595c	0.015341129
176	0xbd34f42c	-0.044178173
177	0xbc6c7d66	-0.014434194
178	0x3bc2a030	0.005939506
179	0x3d907b96	0.07054822
180	0xbd600424	-0.05469145
181	0xbd349e8e	-0.044096522
182	0xbcd89460	-0.026437938
183	0x3c9b74c0	0.01897657
184	0xbd667966	-0.05626812
185	0x3d719f35	0.058989722
186	0x3b2bc8a0	0.002621211
187	0xbd487026	-0.048935078
188	0xbc1c10bc	-0.009525474
189	0x3cfcfcc7	0.030882252
190	0xbca84463	-0.020540422
191	0xbc906086	-0.017624151
192	0xbc7551c1	-0.014973105
193	0x3cd1372e	0.025539007
194	0xbad2dcf4	-0.0016087578
195	0xbb6608e8	-0.0035100523
196	0xbd3d6d18	-0.046246618
197	0x3caac102	0.020843986
198	0x3c6b4652	0.014360027
199	0xbd558082	-0.052124508
200	0x3ccf0a13	0.025273358
201	0x3d6187ab	0.055061024
202	0xbda30f29	-0.07961876
203	0x3b6ea997	0.0036417001
204	0x3b13b9b0	0.0022541098
205	0xbd27c493	-0.040958952
206	0x3cd216ea	0.025645692
207	0xbd52427a	-0.05133293
208	0x3cce866a	0.025210578
209	0x3d0899cb	0.033349793
210	0xbc0523b0	-0.008126184
211	0x3a1a77d9	0.00058924925
212	0x3cfebb4e	0.031095173
213	0x3d58c1b6	0.052919112
214	0xbd0576da	-0.03258405
215	0xbd768e39	-0.060194228
216	0xbceb59bc	-0.028729312
217	0x3d2240ac	0.039612457
218	0x3d1f027e	0.038820736
219	0xbd75cf32	-0.06001205
220	0xbc38089b	-0.01123252
221	0xbd215ae4	-0.03939332
222	0xbc7965c8	-0.01522202
223	0x3cce8e28	0.02521427
224	0xbd607223	-0.05479635
225	0x3d130e03	0.035902034
226	0xbd40369d	-0.046927083
227	0xbd440ac4	-0.04786183
228	0xbcd740e4	-0.02627606
229	0x3bd5f2c5	0.0065291845
230	0x3d62b110	0.05534464
231	0x3d1188ec	0.03553097
232	0xb7328335	-1.0640176e-05
233	0xbd35292e	-0.044228725
234	0x3d64df8e	0.05587726
235	0x3d7ccb84	0.061717525
236	0xbd57b365	-0.05266132
237	0xbcbe90d7	-0.023262424
238	0xbd8ebb2e	-0.069692954
239	0xbc2c2466	-0.010506725
240	0xbd14426a	-0.03619615
241	0x3cb569f3	0.022145247
242	0x3d130468	0.035892874
243	0xbc397e3c	-0.0113216005
244	0x3c192aa2	0.009348543
245	0x3cc05bc2	0.023481254
246	0xbd11bea3	-0.035582196
247	0x3d74d313	0.05977161
248	0xbceb942f	-0.028757183
249	0xbb83c272	-0.0040209824
250	0x3d388eb9	0.045057986
251	0x3d7ad40f	0.06123739
252	0xbd29a30a	-0.04141525
253	0xbd8a5dc7	-0.06756168
254	0x3d94191a	0.0723135
255	0xbc38ab74	-0.011271346

sequential_2/conv2d_4/Conv2D f4 [64, 3, 3, 64]
0	0xbd6af982	-0.057366855
1	0xbc804fa3	-0.015662974
2	0xbc68615e	-0.01418337
3	0x3d49dff4	0.049285844
4	0x3c438110	0.011932626
5	0x3d3ae891	0.04563195
6	0xbcca48db	-0.024692943
7	0xbcf7445a	-0.03018396
8	0xbcb91a83	-0.02259565
9	0x3b66685c	0.0035157418
10	0x3c4bff43	0.012450996
11	0xbd6a519b	-0.05720673
12	0xbba3c495	-0.0049977996
13	0x3cb339de	0.02187818
14	0x3d019c40	0.031643152
15	0x3d15e395	0.036593992
16	0x3c7c6773	0.015405524
17	0x3cb0dd61	0.021589937
18	0xbbceef1d	-0.0063151256
19	0x3be71794	0.0070523713
20	0x3d2e38f9	0.042534802
21	0xbba18dbd	-0.0049302266
22	0xbb9472ac	-0.0045302715
23	0xbc814957	-0.015782041
24	0xbca84eb1	-0.020545335
25	0xbd80ed12	-0.062952176
26	0xbd537a6d	-0.051630426
27	0xbcfbc1bb	-0.030732026
28	0xbd7948a3	-0.060860287
29	0x3d1bacca	0.03800658
30	0x3d89d0f6	0.06729309
31	0xbd0b3a04	-0.033990875
32	0x3d188fec	0.03724663
33	0xbd5607fc	-0.05225371
34	0xbc63cd91	-0.013903991
35	0x3c92b3f3	0.017908072
36	0x3babb9f7	0.0052406746
37	0x3bcc51e7	0.0062353495
38	0x3d7c44f9	0.061589215
39	0x3cda3489	0.026636379
40	0x3cb2501e	0.021766718
41	0xbcafc703	-0.0214572
42	0x3d6030c1	0.054733995
43	0xbce96274	-0.028489329
44	0xbce12a6e	-0.027486052
45	0x3d3decd0	0.04636842
46	0x3ca2c06d	0.019867146
47	0xbd0c4951	-0.034249607
48	0xbc865088	-0.016395822
49	0xbd2120b2	-0.03933782
50	0xbd70953e	-0.05873608
51	0xbca30500	-0.019899845
52	0xbd92b0ce	-0.07162629
53	0x3aeff1b7	0.001830629
54	0xbd789c16	-0.06069573
55	0xbd59750b	-0.053090136
56	0xbcdb4b47	-0.026769293
57	0x3d721667	0.059103396
58	0x3d8961cf	0.06708109
59	0x3d2e4355	0.04254468
60	0x3b2e63d5	0.0026609797
61	0xbd162a6e	-0.036661558
62	0x3cb56e2f	0.022147266
63	0xbab0db7e	-0.0013493148
64	0xbd65fff8	-0.056152314
65	0x3ab0c3fc	0.0013486142
66	0xbd574479	-0.052555535
67	0xbb6e73b9	-0.0036384894
68	0xbd0cc722	-0.034369595
69	0x3d8841dc	0.06653187
70	0x3d465117	0.048417177
71	0xbd36843b	-0.0445597
72	0xbc360add	-0.011110988
73	0x3d491b6d	0.04909842
74	0x3c400dfa	0.011722082
75	0x3cd33aaf	0.025784818
76	0xbbbdeb4d	-0.0057958723
77	0xbcfb9fed	-0.030715907
78	0x3cadf690	0.021235734
79	0xbd6cd984	-0.057824627
80	0x3bcb017b	0.006195245
81	0xbd344aa1	-0.044016484
82	0x3bb477e4	0.005507456
83	0xbc873f7f	-0.01650977
84	0x3d33ccaf	0.043896373
85	0x3d13ea01	0.036111835
86	0x3bc681c4	0.0060579497
87	0xbbf79bc3	-0.00755641
88	0xbca08472	-0.019594405
89	0x3d92c6c6	0.07166819
90	0x3cd9c238	0.026581869
91	0x3b2f7cfc	0.0026777377
92	0xbc5b38d5	-0.013380249
93	0xbd7be459	-0.061497066
94	0xbd403f88	-0.046935588
95	0xbda69d46	-0.08135466
96	0x3c3af126	0.011410033
97	0x3d277c6d	0.040890146
98	0x3bb1ebd1	0.005429723
99	0x3b83428e	0.0040057367
100	0xbd6cad8d	-0.0577827
101	0x3bbd6f3a	0.0057810815
102	0xbc2818a3	-0.01025978
103	0xbc9a35de	-0.018824514
104	0x3c5f2988	0.013620742
105	0x3cb5cb8a	0.022191782
106	0x3c9e10b9	0.019295083
107	0x3c2c234b	0.010506461
108	0x3d10e3bc	0.035373434
109	0xbd52aba6	-0.051433228
110	0x3d973287	0.07382684
111	0xbce840b3	-0.028351163
112	0xbd6a373a	-0.057181574
113	0xbd82c117	-0.06384485
114	0x3bbc7c28	0.0057521053
115	0x3d0420a1	0.03225768
116	0xbd32cf53	-0.04365475
117	0xbd3c8ae0	-0.04603088
118	0x3ad08414	0.0015908503
119	0x3d03dba4	0.032191887
120	0x3d64c8f5	0.05585571
121	0xbd6e90b5	-0.058243472
122	0xbd1aa6c2	-0.03775669
123	0x3d481165	0.048844714
124	0x3d261cfc	0.040554985
125	0xbd6f93c8	-0.058490545
126	0xbcc6061a	-0.024172831
127	0xbd21baa2	-0.039484628
128	0xbbe65b3e	-0.00702992
129	0x3c767f66	0.015045023
130	0xbcf800b5	-0.030273775
131	0xbd860fab	-0.06545957
132	0xbd42f046	-0.047592424
133	0x3c74a549	0.014931985
134	0x3a51065e	0.0007973666
135	0x3d69a1eb	0.057039183
136	0xbd47c136	-0.048768245
137	0xbd46f67d	-0.048574913
138	0xbcc277bd	-0.023738736
139	0xbd8c21e9	-0.06842405
140	0x3ca8db22	0.020612303
141	0x3d33af47	0.04386833
142	0x3cd52476	0.026018362
143	0x3a53b055	0.0008075287
144	0x3d7f846d	0.06238215
145	0xbd9cb9c9	-0.07652623
146	0xbd785e3c	-0.060636744
147	0x3d322eaa	0.043501534
148	0x3d4e7606	0.050405525
149	0x3d4fffd4	0.050781086
150	0xbc720697	-0.014772079
151	0x3cedc98c	0.02902677
152	0x3d072f91	0.033004347
153	0x3d56bd8d	0.052426863
154	0xbcc9acf6	-0.024618607
155	0xbd07702e	-0.033065967
156	0xbcdd6f84	-0.027030714
157	0xbb853e7c	-0.0040662866
158	0xbce49661	-0.027903738
159	0xbd25f328	-0.040515095
160	0x3c73ddda	0.0148844365
161	0xbd72d79e	-0.05928766
162	0x3d0417db	0.032249313
163	0x3ccdb12a	0.025108892
164	0x3d8b194f	0.067919366
165	0xbbb44522	-0.0055014053
166	0xbd464152	-0.048402138
167	0x3d3c6324	0.045992985
168	0xbcc41e32	-0.02394018
169	0xbafbb8cd	-0.0019204855
170	0x3d5d68f9	0.054055188
171	0x3d581944	0.05275847
172	0x3d4ca60b	0.04996304
173	0xbd59b92f	-0.05315512
174	0x3bc7aba4	0.006093459
175	0x3c7ba32b	0.0153587265
176	0x3c99a38d	0.018754745
177	0xbd7eb557	-0.062184658
178	0x3d708535	0.058720786
179	0xbd991546	-0.07474761
180	0x3d337488	0.043812305
181	0x3c6bc7b0	0.014390871
182	0x3cceab12	0.025228057
183	0xbd98ee35	-0.074673094
184	0xbd427e4c	-0.047483727
185	0x3c8c2cc4	0.01711119
186	0xbc6954c2	-0.014241399
187	0x3ce4d0aa	0.02793153
188	0x3d81403d	0.063110806
189	0xbc896223	-0.016770428
190	0x3d85e315	0.06537453
191	0xbd08f803	-0.033439647
192	0xbd5cd497	-0.05391368
193	0x3d67e633	0.05661602
194	0x3c31acfd	0.010844466
195	0x3d86d17c	0.06582925
196	0xbd793a51	-0.06084663
197	0xbcbf148e	-0.02332523
198	0xbd24394a	-0.040093698
199	0x3c37b0c9	0.011211582
200	0xbc91d116	-0.017799895
201	0xbd98e7a7	-0.07466059
202	0x3c13121b	0.008976485
203	0x3c804140	0.015656114
204	0x3c84691f	0.016163407
205	0x3d3e1e6f	0.046415742
206	0xbd94813f	-0.07251214
207	0x3d1b62d5	0.03793605
208	0x3d81472e	0.063124046
209	0x3d639feb	0.05557243
210	0xbd70baff	-0.058772083
211	0xbd4aafed	-0.049484182
212	0xbcecb7ae	-0.028896179
213	0xbca9f760	-0.02074784
214	0x3d4cc584	0.049993053
215	0xbcdf9002	-0.027290348
216	0x3d42fc54	0.04760392
217	0xbd283709	-0.04106811
218	0xbd70d72b	-0.05879895
219	0xbc80c56a	-0.015719134
220	0x3d4cab85	0.04996826
221	0xbcf74419	-0.030183839
222	0x3d9bbde4	0.07604578
223	0x3cf74ba4	0.030187435
224	0x3cbbdd40	0.022932649
225	0xbb3a0c26	-0.0028388589
226	0x3d5d0f69	0.053969774
227	0x3cc4eee6	0.024039697
228	0x3d2cdd25	0.042203087
229	0xbd85fd83	-0.06542494
230	0x3c8305d7	0.015993996
231	0x3d71d2e0	0.059038997
232	0xbd17262d	-0.03690164
233	0x3cb37f9d	0.021911437
234	0xbd29058f	-0.041265067
235	0xbd5bce1b	-0.053663354
236	0x394d8e2d	0.00019603288
237	0xbd1338ee	-0.035942964
238	0xbc426ecc	-0.011867236
239	0x3b089c80	0.0020845234
240	0x3d903cbf	0.070428364
241	0xbd42e191	-0.0475784
242	0x3d415341	0.047198538
243	0x3d22d83e	0.039757006
244	0xbd50d27d	-0.050981987
245	0xbcbe7709	-0.02325012
246	0x3c9f73f4	0.01946447
247	0x3c02a903	0.007974866
248	0xbd344726	-0.044013165
249	0x3cf79dfe	0.030226704
250	0x3d28a350	0.041171372
251	0x3d906aa0	0.07051587
252	0xbd5b2bed	-0.053508688
253	0x3c910def	0.01770684
254	0xbd3def6e	-0.046370916
255	0xbd9ad507	-0.07560163
