app/src/main/ml/wheat_model.tflite (tflite, 742084 bytes, 16 tensors)

sequential_2/conv2d/Relu;sequential_2/conv2d/BiasAdd;sequential_2/conv2d/Conv2D;sequential_2/conv2d/BiasAdd/ReadVariableOp f4 [32, 3, 3, 3]
000000 0b 2e 39 b9 5b 8c 60 39 a7 82 a7 b9 58 d4 fe b9
       -0.00017660127 0.00021414591 -0.00031950066 -0.00048604864
000010 8b 5c c7 b9 a9 8e 66 b8 09 b7 e1 b9 29 58 09 ba
       -0.00038025188 -5.4969136e-05 -0.00043051716 -0.0005239272
000020 5c ca 45 39 dc ff f4 39 27 6f 2e b8 1e 6f df 38
       0.00018862769 0.00046729937 -4.158835e-05 0.00010654166
000030 14 2f 29 38 04 85 d5 39 a0 1d 05 ba 26 aa a9 b8
       4.0336585e-05 0.0004072563 -0.0005077962 -8.0902406e-05
000040 9d 8a 01 ba 8d 2c de b8 e9 fa fc 39 5d 22 cc 39
       -0.00049416145 -0.00010594083 0.00048252128 0.00038935515
000050 96 c2 f5 b9 d3 3f 0c b9 c8 9f 9a b7 6c 4d 12 39
       -0.0004687502 -0.00013375217 -1.8432635e-05 0.00013952487
000060 b4 4f ad 39 f6 16 b7 39 0d 8a ab b9 02 3f 0f b9
       0.00033056515 0.00034921587 -0.00032718517 -0.00013661015
000070 24 be 94 b9 68 64 80 39 a2 a9 91 b9 88 5d 2e 38
       -0.00028370426 0.0002448887 -0.00027782941 4.157194e-05
000080 f0 dc a8 b9 a6 0a 05 b9 50 28 6f 39 38 52 80 39
       -0.00032208068 -0.00012687835 0.00022807834 0.0002447532
000090 17 41 b2 39 73 fd 0a 3a 1b c4 1b b9 6a 90 f9 b9
       0.000339993 0.0005302049 -0.00014855007 -0.00047600578
0000a0 56 ca 9b 39 10 c7 b0 b7 fe 72 c8 b9 e9 4a a3 39
       0.00029714656 -2.107353e-05 -0.00038232649 0.00031145595
0000b0 5a e5 b5 b9 01 ba 89 38 49 08 9c b8 04 27 d9 b9
       -0.0003469389 6.567315e-05 -7.440203e-05 -0.00041418534
0000c0 cb ef 8a b9 dd e5 1e 39 39 a8 f5 37 da 5b fc 38
       -0.0002650007 0.00015153685 2.928461e-05 0.00012033405
0000d0 7f 00 25 3a 82 58 1b 39 f7 9f 74 b9 1d 21 e0 39
       0.00062943244 0.00014814924 -0.00023329245 0.0004274928
0000e0 5b 69 9d b9 fb 94 83 39 c7 89 27 ba 58 e6 db b9
       -0.0003002387 0.00025097266 -0.0006391075 -0.00041942555
0000f0 b7 db ef b8 8c 83 0f b9 50 f6 e2 b8 a0 52 94 39
       -0.00011437333 -0.00013686548 -0.00010822399 0.0002829032
000100 54 ff 9a 37 26 c6 05 38 ca e5 ed b9 21 93 17 39
       1.8477127e-05 3.189421e-05 -0.0004537537 0.00014455292
000110 3a 53 52 39 36 90 00 ba 75 5d cc b8 1d 09 0f ba
       0.00020058165 -0.00049043016 -9.744886e-05 -0.0005456375
000120 5e a5 ca 39 13 0c b9 39 ba 12 35 39 bd 12 f8 b8
       0.0003865165 0.00035294946 0.00017268481 -0.00011829052
000130 60 60 aa 39 0b ae 94 39 d6 1c d2 39 b9 fc c1 39
       0.00032496732 0.00028358432 0.00040075806 0.00037000122
000140 24 93 94 39 52 a6 dd 39 18 ad 62 b9 81 61 83 39
       0.00028338388 0.00042276323 -0.00021617522 0.00025058913
000150 e1 d8 61 b9 81 1a d0 39 ce 97 20 39 62 16 b5 39
       -0.00021538466 0.00039692599 0.0001531534 0.00034539687
000160 b8 5d 91 39 f4 16 d7 b9 9b 5c 9e b3 69 d5 ea 39
       0.0002772638 -0.00041025097 -7.374293e-08 0.0004479096
000170 d2 35 eb 39 c4 46 92 39 a3 65 00 3a cb 32 f2 b9
       0.00044862792 0.00027900015 0.00048979576 -0.0004619568
000180 5b 23 da b8 4c eb 32 b9 e7 1b 8e b9 9e 34 e6 b9
       -0.000104016355 -0.00017063058 -0.0002710514 -0.0004390822
000190 97 77 ea b9 d2 f1 ab 38 26 3c 02 ba fa 56 99 39
       -0.0004472106 8.198958e-05 -0.0004968069 0.00029247237
0001a0 eb a9 f4 b8 b2 c7 0f ba 1b 90 be 38 30 4e 3f b9
       -0.00011666476 -0.0005484774 9.086748e-05 -0.00018244307
0001b0 4e 49 03 ba 2f 0b 9c b8 e4 a2 a5 39 2b 5e 10 b9
       -0.00050081767 -7.440743e-05 0.00031592615 -0.0001376799
0001c0 17 64 69 b9 b2 f4 04 3a 4b c7 6c 39 90 6a 9f b9
       -0.00022257898 0.0005071863 0.00022580956 -0.00030406239
0001d0 f7 cb ee 39 a4 76 bd b9 e1 87 b7 b9 04 44 b1 39
       0.00045546863 -0.00036137283 -0.00035005718 0.00033810746
0001e0 01 42 39 b9 c2 35 d3 39 0a cc 91 b9 78 6c 47 38
       -0.00017667563 0.0004028511 -0.00027808576 4.7546317e-05
0001f0 4e ac 17 ba 39 1a 9a 39 d1 ec 8a 39 5b 55 fe 39
       -0.0005785868 0.00029392706 0.00026497853 0.0004851025
000200 49 b3 43 38 21 15 c5 39 c4 eb 80 39 9a d2 4e b8
       4.6658595e-05 0.0003759051 0.00024589722 -4.9310365e-05
000210 df e2 b2 b9 f9 0d e2 b8 ac 2e 05 ba 09 a7 66 39
       -0.00034119838 -0.000107791224 -0.0005080502 0.00021996735
000220 2e 9c bb 37 e4 c3 cc 39 d0 28 f2 b9 fa 33 0b b9
       2.2364864e-05 0.00039055862 -0.00046188245 -0.00013275436
000230 28 79 c1 39 5d f7 d4 b9 5e 0a 0f 37 eb 29 2b 39
       0.00036902097 -0.0004062009 8.525878e-06 0.00016323446
000240 a4 5b 1e b7 fd 71 69 39 0c 40 32 b9 8d bc f3 39
       -9.438871e-06 0.00022263076 -0.00016999262 0.00046489053
000250 31 3e 78 38 ed af f1 39 ea 23 df b9 d8 97 b0 38
       5.9185728e-05 0.00046098177 -0.00042560633 8.420617e-05
000260 c0 67 00 ba 04 16 ed b9 eb e7 82 39 db 49 a6 39
       -0.00048982725 -0.00045220566 0.00024968325 0.00031717014
000270 67 c0 1a b9 4e b6 d8 b9 df 69 11 39 56 2d f3 b9
       -0.0001475826 -0.00041334558 0.00013867718 -0.0004638235
000280 ca eb c2 39 55 6d 09 3a cd c1 9b 38 d3 d5 fa b9
       0.0003717824 0.0005242427 7.427074e-05 -0.00047843027
000290 3d 81 fc b8 21 27 07 ba c7 16 d3 39 4d d9 74 39
       -0.00012040369 -0.0005155672 0.00040262027 0.00023350604
0002a0 6a 50 bb 39 17 ee 85 39 c9 df a5 39 27 ff b0 39
       0.00035727333 0.00025545128 0.00031637985 0.0003375944
0002b0 ec 5d 06 ba 2e 1f f7 b9 a8 d3 1f ba 26 22 e8 39
       -0.000512569 -0.00047134742 -0.0006096908 0.0004427593
0002c0 6e 70 b8 39 71 06 72 39 f1 38 c4 39 17 79 dd 39
       0.00035178981 0.00023081318 0.00037426458 0.00042242624
0002d0 4f 68 86 39 61 0e 71 39 a7 c3 94 39 34 5c 47 39
       0.00025636188 0.00022988908 0.00028374532 0.00019012467
0002e0 00 07 bf 39 6c da 28 39 56 fd 15 ba ec 18 d6 39
       0.00036435574 0.00016103097 -0.0005721649 0.0004083583
0002f0 77 b9 cc 37 a1 4a 06 b7 5a 51 dd b9 07 37 cb 38
       2.4405059e-05 -8.004398e-06 -0.00042213016 9.690044e-05
000300 0e f9 db b9 4a 02 e7 b7 f2 c1 a2 39 8d 71 8a b9
       -0.00041956495 -2.7538412e-05 0.00031043548 -0.00026406013
000310 b6 95 8b b9 6a f4 c5 37 4f ee 72 37 4e 1b a3 38
       -0.0002662369 2.3598044e-05 1.447981e-05 7.7775316e-05
000320 47 1b 81 38 ff e7 96 b9 34 2f 1e 39 65 e1 fc b9
       6.15628e-05 -0.0002878308 0.00015085639 -0.00048233118
000330 c6 bb f7 39 33 48 94 b9 77 a8 a6 b9 93 26 f3 38
       0.00047251413 -0.00028282552 -0.00031787503 0.00011594328
000340 8b c6 c3 b9 4a 7a 0e ba 5d 2a 85 39 f1 e1 f1 39
       -0.00037341224 -0.00054350926 0.000253993 0.00046135442
000350 cb b4 2d b9 24 60 e6 39 70 9e 9b 39 b5 42 af 39
       -0.00016565916 0.0004394065 0.0002968195 0.00033428302
000360 c6 0f db 38 fd 56 e0 b9 f2 f9 2a 39 40 f2 8d 39
       0.00010445672 -0.0004278942 0.00016305575 0.00027074106
000370 6a f3 8b b9 b6 c4 a2 b9 89 f2 82 b9 3d fb b8 b9
       -0.00026693504 -0.0003104561 -0.00024976235 -0.00035282402
000380 3f a2 2a 3a 5c e9 49 39 f3 ca 00 3a 3a 93 8e b9
       0.0006509162 0.00019255787 0.0004913054 -0.00027194043
000390 51 d6 2f b8 1b 53 d9 b9 10 d1 e6 b9 08 25 8c 39
       -4.192285e-05 -0.00041451384 -0.00044024782 0.0002673047
0003a0 35 52 0c b8 ca 3b be b9 04 d3 e0 39 a2 52 13 ba
       -3.3455162e-05 -0.0003628417 0.00042881828 -0.0005619918
0003b0 fb 97 51 38 71 3b 22 3a 24 33 b8 39 3f 9f f5 b9
       4.9971026e-05 0.0006188667 0.00035133318 -0.0004684869
0003c0 fd a6 38 39 5f ce 3b 39 74 1e 50 b9 3a 13 84 b9
       0.00017609815 0.00017910589 -0.0001984777 -0.00025191327
0003d0 8c 34 cf b9 02 e8 19 ba 24 8e f0 38 e2 fe f9 b8
       -0.00039521267 -0.00058710587 0.000114705676 -0.00011920721
0003e0 86 c5 13 ba 60 2b d9 b9 65 87 b5 b8 e7 46 16 b9
       -0.0005637038 -0.00041421782 -8.655972e-05 -0.00014331528
0003f0 37 de cf 39 2b 18 aa b9 df 2e 2f 39 8e 21 a9 39
       0.0003964768 -0.00032442933 0.00016706761 0.00032259192

sequential_2/conv2d/BiasAdd/ReadVariableOp f4 [32]
000000 90 69 e0 3c 3a 6e fc 3b 96 a3 68 bc 95 0a 1a 3b
       0.027394086 0.0077035697 -0.014199158 0.0023504843
000010 d7 12 08 3c ae e9 fa 3b 53 34 9f bc 88 42 24 bc
       0.008305273 0.0076572513 -0.01943413 -0.010025628
000020 b3 fb b0 bc 1e ef 85 bc 94 f8 e7 3c 62 15 86 3b
       -0.021604395 -0.016349372 0.028316773 0.0040919045
000030 05 52 17 3c b0 3d 04 bc 03 02 92 bc 65 ac 93 bc
       0.009235864 -0.008071348 -0.017823225 -0.01802654
000040 7f af af bb f8 ec 8d bc 74 db 83 bc cb 81 86 3b
       -0.005361497 -0.01732491 -0.016095854 0.004104828
000050 2a 92 1d 3c 0c f4 e8 bc bd 68 b0 3b 87 de 25 bc
       0.009617368 -0.028436683 0.0053835795 -0.010123855
000060 61 5f af 3b 4d 1b 58 3b c4 1f ad 3b 96 a1 94 3a
       0.005351946 0.0032975257 0.005283328 0.001133966
000070 34 e8 83 ba b2 06 e9 bc 5d ec 25 3d 9b cc 06 3c
       -0.0010063709 -0.028445575 0.040508617 0.008227493

sequential_2/conv2d_1/BiasAdd/ReadVariableOp f4 [64]
000000 c5 e6 fa bc 21 50 fb 3b 25 94 07 bc ab 8c 30 3d
       -0.030627618 0.007669464 -0.0082750665 0.0431029
000010 d3 95 8b bc de 37 fb ba 9a 42 2f ba 4e 95 08 bc
       -0.017039215 -0.001916643 -0.00066856446 -0.008336378
000020 a9 bb 2c bc 07 83 9e bc 80 7b 91 bc 83 ce ab 3c
       -0.010542789 -0.019349588 -0.017759085 0.020972496
000030 28 b9 05 bb 97 f2 0f bc 45 93 8a 3c 7f c3 b0 3c
       -0.0020404551 -0.008785865 0.016915927 0.021577595
000040 8b 94 8a 3a 59 71 2a bc e7 2e 10 bc 25 67 02 bc
       0.0010572834 -0.010403001 -0.008800245 -0.007959162
000050 c2 d9 44 3c 9a 3e 1e bb c9 68 95 3c e6 33 28 bc
       0.012014808 -0.00241462 0.018238442 -0.01026628
000060 c0 74 08 bc 78 d5 28 bc d7 a7 bf bc 1b 7e cd 3c
       -0.008328617 -0.010304801 -0.023395462 0.025084546
000070 96 a5 0a bd 25 2b 29 bc f0 71 5f bc 9a a5 19 bc
       -0.03384932 -0.010325228 -0.013638005 -0.009377861
000080 b9 84 35 3c d8 fd 96 bb 77 d4 b7 ba 05 a6 3b bc
       0.011079007 -0.0046078973 -0.0014025111 -0.011453156
000090 19 2a ca bc 48 06 14 bc 9e 30 9c bc 3b ec 4d bc
       -0.024678277 -0.009034701 -0.019066151 -0.012568529
0000a0 f6 5e a9 b9 de 09 66 bb 9e 05 b3 3b 3b 46 b7 bc
       -0.00032304943 -0.0035101096 0.005463316 -0.022372356
0000b0 73 59 6e 3b 06 c1 dd 3b 3a c4 68 3c f1 e3 8b 3c
       0.0036369234 0.006767395 0.01420694 0.017076464
0000c0 c8 58 dd bc a0 7e 5f bc 46 f6 ab 3c ad 2b 1f bc
       -0.027019873 -0.01364103 0.020991456 -0.009715003
0000d0 44 cd d0 3a 43 be 93 bc 32 a0 16 bc ac 15 88 3c
       0.0015930315 -0.01803506 -0.009193467 0.016611896
0000e0 85 82 8c bc 39 b9 21 bc 46 35 91 3b bd 9a 2f 3c
       -0.01715208 -0.009870821 0.0044313995 0.010718045
0000f0 3e 7a b2 bb 6c c0 99 ba 9c e2 99 3b 11 16 c1 bb
       -0.0054467013 -0.001173032 0.0046962034 -0.005892523

sequential_2/conv2d_2/BiasAdd/ReadVariableOp f4 [64]
000000 58 c4 01 bc 1a fe 22 3b 51 f5 ac 3a f7 08 8f bc
       -0.007920347 0.0024870695 0.0013195669 -0.01746033
000010 97 bc 04 bd 86 b5 74 bc 5e 6a c4 b9 16 76 09 bd
       -0.032406416 -0.014935857 -0.00037463283 -0.03355988
000020 5d 20 ca bb d8 8a a7 3b d8 6e 90 bc 9b 93 22 3c
       -0.006168409 0.005112987 -0.01763098 0.009922887
000030 b0 ac e1 3a 46 e4 54 3c fb c3 09 bc 1f c6 ae bc
       0.0017217603 0.012993878 -0.008408542 -0.021334706
000040 a6 98 bf bc 74 1c b8 bc 9c 57 97 3b 14 bc d2 bb
       -0.023388218 -0.022474505 0.004618598 -0.006431112
000050 a4 a4 9f bc 80 08 7e 3c be 33 02 bc dc d0 d0 3b
       -0.019487686 0.015504956 -0.007946907 0.006372554
000060 bb da d9 3c f7 ae 91 bc 8a 8a da ba cf 7e d9 bc
       0.026593557 -0.017783625 -0.0016673368 -0.026549725
000070 13 73 71 3c ee da 85 bb f1 87 e2 bc be 4d 8d bc
       0.0147369085 -0.0040849363 -0.027652713 -0.017248984
000080 95 39 a0 bc 13 f3 9c bc 85 9f 75 3b da b1 5a 3c
       -0.019558707 -0.019158876 0.0037479114 0.013348067
000090 cb e0 56 bc 97 82 c1 bb 52 fe 8a bc 08 c1 7c 3c
       -0.013115118 -0.00590546 -0.016966973 0.015426882
0000a0 d0 9b 8e 3b fc 33 e3 3b 37 11 c6 bb 91 2c 4e bc
       0.0043520704 0.0069336873 -0.0060445326 -0.012583868
0000b0 2a 98 a3 bc 35 a4 a6 bc 1d 34 36 3b ba 23 04 bc
       -0.019970018 -0.020341972 0.0027802058 -0.0080651585
0000c0 16 2e 4d 3c ba ac ab 3c 46 c9 89 3b 59 28 24 3c
       0.012523195 0.020956386 0.004204902 0.010019385
0000d0 bb 48 94 bc ac e0 71 bc b8 c7 0a 3c 90 46 6c bb
       -0.018101087 -0.014763039 0.008470468 -0.00360528
0000e0 67 5f 73 bc 95 4e 02 bc 3d 85 3e bc 2b 7a 54 bc
       -0.014854289 -0.007953306 -0.011628446 -0.01296858
0000f0 66 25 19 3c ff c2 73 3c 8d 1c 91 bc 07 a3 9e 3c
       0.009347295 0.014878034 -0.01771381 0.019364847

sequential_2/conv2d_3/BiasAdd/ReadVariableOp f4 [64]
000000 68 56 1a bc 30 fb 24 bc 3e 13 5a bc e1 78 1f bc
       -0.009420015 -0.010069653 -0.013310252 -0.00973341
000010 3e df e0 bb 9b 9e 09 bb 43 fe a8 bb 24 18 a9 3c
       -0.00686255 -0.0020999077 -0.0051572635 0.020641394
000020 e5 14 cb bb 7e 59 97 3c dd 40 c8 bb 9c 08 00 bc
       -0.006197559 0.01847529 -0.006111248 -0.007814553
000030 52 c8 68 bc f0 95 36 b7 af d3 e0 bc f8 a4 3a bc
       -0.014207916 -1.0882955e-05 -0.027444689 -0.011391871
000040 69 f2 f2 3c 3e d6 6a bb 02 7c 24 bc 3a 9c 10 bc
       0.029656606 -0.0035833265 -0.010039331 -0.00882631
000050 51 74 5a bc 69 00 35 bc 6f 41 9d bb f9 10 b3 3c
       -0.013333396 -0.011047461 -0.00479906 0.02185868
000060 21 bf 05 3c e8 f5 f7 bb 4d a4 36 bc 6d d3 a6 bb
       0.008163244 -0.007567156 -0.011147571 -0.005091122
000070 4c c0 ce bb 3c 27 cb 3a 78 f2 4d bc 02 f8 77 bc
       -0.0063095447 0.0015499364 -0.012570016 -0.015134813
000080 20 af 51 bc b2 44 25 bc b6 14 3d bc ab 68 1d bc
       -0.012798101 -0.010087179 -0.011540582 -0.009607474
000090 1d 7b 7a bc 39 85 ca bb 21 29 d0 bc 5a a3 1c bc
       -0.015288142 -0.006180432 -0.025410237 -0.00956043
0000a0 88 28 e5 bb aa 7e 26 bc 7f 4f 16 bc 14 17 2d bb
       -0.006993357 -0.010162035 -0.009174227 -0.002641146
0000b0 08 d0 47 bb af 00 8f bc 83 8c 2d bc c1 28 51 bc
       -0.0030488987 -0.01745638 -0.010592583 -0.012766064
0000c0 17 b8 81 3c 34 71 70 3c 95 ab 45 bc c5 a2 47 bc
       0.015834851 0.014675427 -0.012064834 -0.012184803
0000d0 e9 80 6e bc e3 ff fd bb e0 72 ae bc e2 88 19 bc
       -0.014557102 -0.0077514513 -0.021295011 -0.009371014
0000e0 8a d4 66 bc bc cc 4c bc b9 4d b1 38 96 ec e6 3b
       -0.014088759 -0.012499984 8.454495e-05 0.007047246
0000f0 56 48 2e bc 38 74 49 bc 64 85 12 bc d0 b6 da 3b
       -0.010637363 -0.012295775 -0.008942936 0.006674625

sequential_2/conv2d_4/BiasAdd/ReadVariableOp f4 [64]
000000 fc 12 25 3d aa 32 cc 3a ad b7 00 bc 32 7c e2 bb
       0.040301308 0.0015579064 -0.007856292 -0.006911778
000010 96 53 6a bc 80 ff 42 bc 10 00 37 3c e6 19 6f bc
       -0.014302155 -0.011901736 0.0111694485 -0.014593577
000020 fe 98 31 3d 8e 65 30 bd 6b 88 ef bb df 4f 0b 3d
       0.043358795 -0.0430656 -0.0073099635 0.034011718
000030 bb 23 5c bc b0 b6 59 3b 41 ca 8b 3c 66 37 fd bb
       -0.013436253 0.0033220463 0.017064216 -0.0077275513
000040 30 c7 cb 3c b5 dd b8 bb bf 24 9f bc f1 13 d4 bb
       0.024875253 -0.005641664 -0.019426702 -0.0064721038
000050 7a 3c 43 bc da 1c b6 3c 68 ed 66 3c 21 9d 31 3d
       -0.011916274 0.022230554 0.014094688 0.04336274
000060 93 63 82 3b df 07 00 bc dd 46 40 bc 31 c7 2b 3c
       0.0039791553 -0.007814377 -0.011735645 0.010484503
000070 25 25 d6 3a c5 3a 1e bc 5b 9c e6 bb 61 1b 96 bb
       0.0016337974 -0.009657566 -0.007037682 -0.0045809005
000080 57 51 e4 bb 81 bc 88 bb 2d e0 63 3c ba b1 3d 3d
       -0.0069677043 -0.004172862 0.013908428 0.04631207
000090 19 37 ae 3c 8a 05 61 bc 79 7f a1 bc 6e b3 c8 bb
       0.021266507 -0.013734231 -0.019714104 -0.0061249053
0000a0 8b ee e0 ba 6e 96 2f bb ae 40 2c 3d 87 57 28 3c
       -0.0017160935 -0.0026792544 0.04205387 0.010274774
0000b0 61 e7 f1 bb 4b 08 61 bc 43 6d 0b 3d 7f 87 27 bc
       -0.007382319 -0.013734887 0.034039747 -0.010225176
0000c0 6e 0c dd bc 54 f3 a9 bc aa 50 44 bc cf 79 43 bc
       -0.026983466 -0.02074591 -0.011982122 -0.011930897
0000d0 1f 7f 1d 3d 42 75 7e bc e4 03 d0 bb 69 d9 e1 ba
       0.03845131 -0.015530886 -0.00634812 -0.0017230931
0000e0 f9 79 85 3c 61 fe 1e 3a 19 2f e4 bb 3e fe 81 bc
       0.016293513 0.0006065127 -0.0069636223 -0.015868302
0000f0 a8 97 f9 bb 1e c5 0e bc 70 bf ee 3a ba 86 89 ba
       -0.007616956 -0.008713989 0.0018215012 -0.0010492422

sequential_2/conv2d_5/BiasAdd/ReadVariableOp f4 [64]
000000 df 6a f6 bb ea de 11 3d 56 3e 43 3d 42 18 c4 bc
       -0.0075200642 0.035612978 0.04766687 -0.023937348
000010 e7 06 ff bb c8 96 51 3d ea 9f d7 bb 1e 51 09 3d
       -0.0077828052 0.051169187 -0.0065803425 0.033524625
000020 84 35 cf 3a 7e 04 ba bb 39 92 98 bb fb 26 28 bb
       0.0015808796 -0.005676805 -0.004656103 -0.0025658
000030 01 98 0e 3d d7 8b 76 bc a6 50 c1 3c 27 07 76 3d
       0.03481293 -0.015047989 0.023598026 0.060065415
000040 66 60 c1 bc b4 a4 f5 3c 94 10 b6 bb d3 cb 40 bc
       -0.023605537 0.029985763 -0.0055561755 -0.0117673455
000050 de b7 64 bc 3b 66 4e 3d d9 7f c6 bb a5 72 21 3c
       -0.013959853 0.050390463 -0.006057721 0.009853994
000060 3c 7d 89 bc 9c 75 da bb fd 34 8e bc 24 b6 9a 3c
       -0.01678335 -0.006666852 -0.017359251 0.01888568
000070 45 f3 45 bc cb c5 4a bc cf 76 fb 3c 2e d4 03 bc
       -0.012081926 -0.012376259 0.0306963 -0.008046193
000080 92 f7 eb bb a5 cf ea bb a0 d2 24 bc dd 47 7f 3d
       -0.0072011435 -0.0071658664 -0.010059983 0.062324394
000090 b6 1a c4 bc 22 f8 17 bc c0 b8 bd bb bf 3f 22 bb
       -0.023938518 -0.009275468 -0.005789846 -0.0024757234
0000a0 7b ad 41 bc 3a 94 89 3a 65 aa f4 3c a0 80 c9 3b
       -0.011821146 0.0010496445 0.029866407 0.0061493665
0000b0 42 f3 15 3d 9f 96 86 bc c2 e9 87 bb 8b c5 08 3d
       0.03660894 -0.016429244 -0.004147739 0.033391517
0000c0 2f dd f8 bb e6 06 3d bc b1 7f 73 bc df 38 85 bc
       -0.0075947265 -0.011537289 -0.014861987 -0.01626247
0000d0 db 7f d8 bb 63 d9 f0 bb 9b 63 28 bb 94 fd 43 bb
       -0.0066070384 -0.0073501333 -0.0025694135 -0.0029905783
0000e0 58 21 94 bb 42 1e dd bb 2c 45 cb bc 1a 08 38 3d
       -0.0045205764 -0.006747992 -0.024813257 0.0449296
0000f0 c2 96 c5 bb c9 88 62 3c c5 e5 04 bc e1 78 69 bc
       -0.0060299346 0.013826557 -0.008111422 -0.014250011

sequential_2/conv2d_1/Conv2D f4 [64, 3, 3, 32]
000000 2d f5 be 3c 3d 82 0c 3d 52 1a 44 3d ae 42 79 3d
       0.023310268 0.034303892 0.047876664 0.060854606
000010 4d 1d 68 bd 9c 05 59 3c ca 18 5c bd 44 7f d6 bc
       -0.05666857 0.013245966 -0.05373458 -0.026183732
000020 11 65 92 3c 29 72 49 bd 81 96 2a bd c2 ea bd bd
       0.017870458 -0.049181137 -0.041647438 -0.09273292
000030 a7 97 4d 3d d9 71 99 3d 47 13 c3 bd cf ce 11 3d
       0.050193455 0.07492418 -0.09525161 0.03559762
000040 da 17 45 3d de 36 d1 bd d5 23 8b 3d 27 ba 6e bc
       0.04811845 -0.10215543 0.06793944 -0.014570749
000050 33 d1 f0 3c 3e 6d 0d 3d c0 a8 81 bd 7d 63 68 bc
       0.029396629 0.03452801 -0.06331015 -0.014183876
000060 1d 99 6c 3d 07 91 37 bc ec 25 d9 bb 2a e4 16 3d
       0.057763208 -0.011204011 -0.006626835 0.036838688
000070 da c3 55 bd 59 cd 1e 3d 0c db e7 bd 70 73 b9 bb
       -0.05218873 0.038770054 -0.11321077 -0.005659513
000080 f4 d9 31 bd 50 81 b0 bd 8b a3 02 3d 45 85 bc bc
       -0.043420747 -0.086184144 0.031894248 -0.023012767
000090 35 4a 31 3d 6f 82 00 bc b2 d6 da 3c 0c 6e 07 3b
       0.04328366 -0.007843598 0.026713703 0.0020664958
0000a0 0e 6c 9e 3b 84 99 84 bc 8b 7d 01 bc d7 f2 73 3d
       0.0048346585 -0.016186483 -0.007903467 0.059557762
0000b0 09 5f 5e bd de e3 60 ba 8c 88 65 bd e6 0d 8d bc
       -0.05428985 -0.0008578877 -0.056038424 -0.017218541
0000c0 8f 7e 87 bc b0 1e e7 bd ce e8 48 3d a4 21 61 bd
       -0.01653984 -0.1128515 0.049050145 -0.054963723
0000d0 53 ad 66 bc e4 96 39 3c bb 64 58 3b a1 60 ae bd
       -0.01407941 0.011327479 0.0033019024 -0.08514524
0000e0 9f 75 90 3d 8e 2c 12 3c f2 b7 ac bd 3e 6c 94 3c
       0.070536844 0.0089217555 -0.08433522 0.01811802
0000f0 60 7e d9 bd 3d 88 16 bd e6 23 bb bc e1 2b 00 3d
       -0.10619807 -0.03675102 -0.022844266 0.031291846
000100 0d 05 27 3d 94 13 3b 3d d8 22 72 bd 53 a3 c8 bb
       0.0407763 0.045672968 -0.05911526 -0.0061229854
000110 8d aa 2a bd 04 57 06 bd 99 8f 4e bd e6 41 1d 3d
       -0.041666556 -0.03279783 -0.050429914 0.038392924
000120 74 cd 68 bc 40 00 9a bd 51 7b a7 3b 92 b7 21 bd
       -0.01420914 -0.07519579 0.005111136 -0.039481707
000130 e0 3d ad 3c b3 34 b7 bd c1 b8 43 3d 76 e2 86 3c
       0.021147668 -0.089455985 0.047783617 0.016465407
000140 1c 40 79 3d a8 33 a6 bd 87 dc 9b bc 2f 06 3c bd
       0.060852155 -0.081153214 -0.019026054 -0.045904335
000150 a8 35 77 3d cf 99 52 3d f7 97 bf bd 3e bb 12 bd
       0.060353905 0.051416215 -0.09355157 -0.0358231
000160 ec 38 a0 bb 77 a1 8c bd ba b7 30 3d 5b 9f 57 bc
       -0.004889598 -0.068667345 0.043143965 -0.013160552
000170 bf 74 8c bc 9f f2 28 bc b0 e0 64 bd 63 3f 64 3d
       -0.017145513 -0.010311752 -0.05587834 0.055724513
000180 b9 a4 2d 3c af 4d 26 3d 24 bb 28 3d 65 e3 59 bd
       0.010598355 0.04060143 0.041194096 -0.053195376
000190 49 8c 7c 3d 40 3b 13 bd 56 a5 27 bb e7 57 fb 3c
       0.061657224 -0.035945177 -0.0025580726 0.030681564
0001a0 5c 2e 89 bc 9c cf a8 bd 6f 3f 6c bd c6 06 0f 3d
       -0.016745739 -0.08242723 -0.057677682 0.03491857
0001b0 1d 3b db ba 6a ea 48 3c 97 93 8f bb cf 59 88 bd
       -0.0016725991 0.01226292 -0.0043816078 -0.06657755
0001c0 be da 84 3d 54 d4 5b 3d eb 75 a9 bd df bf b6 bc
       0.06487034 0.05366929 -0.08274444 -0.022308288
0001d0 40 d7 77 3d 9a 0d 3a 3d bc a8 47 3d ed 52 8b 3d
       0.060508013 0.045423128 0.048744902 0.06802926
0001e0 88 6b a6 bc 83 e1 80 bd cc 0a 93 3c 8a 5d b6 bc
       -0.020314947 -0.06293013 0.017949484 -0.0222614
0001f0 c8 e6 c5 bc c2 a9 a1 3c 4a db 21 3d 3d 5f 46 3d
       -0.024157897 0.019734267 0.03951577 0.04843067
000200 5c f4 ab 3d c7 e4 3b bd a9 30 28 3c 0f 1f 74 bc
       0.08396217 -0.045872476 0.010265508 -0.014899983
000210 45 8a e9 bc bc d6 aa bc 02 b2 01 bc 69 bb ad bd
       -0.028508315 -0.020854346 -0.0079159755 -0.08483011
000220 fb 1a 0f 3d 5d b8 a7 3c b9 b6 a0 3b b1 c0 92 bb
       0.03493784 0.020473653 0.0049045947 -0.004478537
000230 37 64 f1 3c 42 a8 4b bd dc ff 24 bd 78 52 c6 bd
       0.029466731 -0.04972101 -0.04028307 -0.096836984
000240 e4 b7 b6 3c 06 8f 30 3d 88 59 24 3d 0f f2 93 bd
       0.022304483 0.043105148 0.040124446 -0.072239034
000250 8c 1e 92 bc 6c c0 58 3d 31 ea 61 3c 2e e5 1e 3d
       -0.017836832 0.052917883 0.013788746 0.03879278
000260 a3 9a 6c bd 64 64 e3 3c 83 6d 83 3c 34 00 be bc
       -0.05776466 0.02775783 0.01604343 -0.023193456
000270 6f aa 29 bc 46 3d 48 bd 76 90 4b bd 54 53 c4 bc
       -0.010355576 -0.04888656 -0.049698316 -0.023965515
000280 a7 eb 28 bd e3 d8 a8 bd 1c b7 ac 3b 8d ee 2e 3d
       -0.04124036 -0.08244493 0.005270852 0.04270797
000290 2a fb e8 3c f9 04 69 bd 43 92 98 bc b2 30 fe bc
       0.028440077 -0.056889508 -0.01862443 -0.03102908
0002a0 08 8c b8 bd 95 77 6b bd 8c c4 3c 3d c3 a4 ff 3b
       -0.09011084 -0.05748709 0.04608588 0.0078016235
0002b0 1e 4a 31 3d 79 f1 09 3d 74 ce af 3c 71 04 8e bc
       0.043283574 0.033677552 0.02146075 -0.017336102
0002c0 22 22 d9 bc e7 f9 89 3b e4 73 d4 bb 85 a1 99 bd
       -0.026505534 0.004210699 -0.006483542 -0.075015105
0002d0 32 a7 28 3c b1 80 a9 bd 99 4a bd bd f5 92 3e bd
       0.010293769 -0.08276499 -0.09242744 -0.046526868
0002e0 0d 1b 1a 3d b4 b1 6b bd 92 c9 dc 3c 3e d3 87 3d
       0.037623454 -0.057542518 0.026951585 0.06632088
0002f0 8b 98 05 3d 77 11 bf bd ea ed c6 bd ce e2 23 3d
       0.03261618 -0.09329503 -0.09713347 0.04001122
000300 d4 37 6c 3d a0 58 46 bd b9 10 1c 3c 88 68 3a bd
       0.05767043 -0.048424363 0.009525471 -0.045509845
000310 88 c5 b7 ba 9d d6 48 bd 89 93 63 bb ec 34 9c bd
       -0.0014020661 -0.049032796 -0.003472539 -0.076272815
000320 58 09 7b bd f3 28 85 bd 79 ce 84 bc ce 85 87 3d
       -0.061288208 -0.06501951 -0.016211735 0.06617318
000330 d7 ed 9a 3d 8c f5 93 bc 05 32 24 bd 93 fd 14 3d
       0.075648956 -0.018061422 -0.040086765 0.03637464
000340 4f 11 ba 3d a6 08 00 3d a9 c7 89 bd 19 53 38 3d
       0.090853326 0.031258248 -0.06727535 0.045001123
000350 a4 7a 1f bd 14 f6 be bd 0d 0d 84 bd 1a d7 5f bd
       -0.03893532 -0.093242794 -0.06447802 -0.054648496
000360 ee 40 5e 3c 38 1a 44 bd f9 d7 7d 3d 96 ef 07 3d
       0.013565285 -0.047876567 0.061973546 0.03318747
000370 b8 5a 2c 3d 4c 2c 36 bd f4 e5 5a bd 71 66 06 bd
       0.042078704 -0.04447584 -0.053441957 -0.03281254
000380 0b e0 8d bd 20 ab c3 bd 90 fb 7f bd d4 9a e2 bb
       -0.069274984 -0.09554124 -0.062495768 -0.0069154296
000390 bc c8 b3 bc ab bc 82 bc a9 74 36 3d b1 24 a1 3c
       -0.021946304 -0.015959105 0.04454485 0.019670816
0003a0 e6 7c 22 3d a4 ef e7 bb fa b6 57 bd cb 77 e6 bc
       0.039669894 -0.007078128 -0.052664734 -0.028133294
0003b0 2e 31 78 3d 1c fb 04 3c cf 45 b3 bd 37 94 a5 bd
       0.060593776 0.00811651 -0.08753549 -0.0808491
0003c0 f8 97 b0 bc 68 2a cf 3c 17 1a 8f bd 05 ee 77 bb
       -0.02155684 0.025288776 -0.06987398 -0.003783108
0003d0 e1 ff bb 3d f7 a1 b7 bc 34 ac 92 3d ba 86 f5 3c
       0.091796644 -0.022416098 0.071617514 0.02997147
0003e0 a8 9b 3f bd 03 6a 8e 3d 31 8e 5b bd 10 08 19 3c
       -0.046779305 0.06953814 -0.0536024 0.009340301
0003f0 65 36 64 bd c0 56 93 bd 35 b7 24 bc 24 65 80 bd
       -0.055715937 -0.071942806 -0.010053446 -0.06269291

sequential_2/conv2d_2/Conv2D f4 [64, 3, 3, 64]
000000 3f 37 9c 3c e3 77 d9 39 3e d3 25 bd d7 fa 8e bc
       0.019069312 0.00041478788 -0.04048466 -0.017453594
000010 7a bb 25 bd e2 65 50 bc c0 8f b6 3c 61 1d 00 3d
       -0.040461995 -0.012719603 0.022285342 0.031278018
000020 2a 6a 60 bd 32 fa 22 bd c6 8b 08 bd 56 95 81 bc
       -0.054788746 -0.039789386 -0.033336423 -0.01581828
000030 73 cd 7e 3d ee 24 4f bd bc 29 55 bc a2 2b f8 3c
       0.06220765 -0.05057233 -0.0130104385 0.030294243
000040 78 64 05 3c ef cd 41 3d 7d 25 6f bd d4 50 53 3d
       0.008141629 0.047315534 -0.05838536 0.051590756
000050 38 cd 95 bb e1 17 3c bd 98 c9 55 3d 96 a4 c2 3c
       -0.004571583 -0.04592121 0.052194208 0.023760121
000060 a5 bd 6d 3d 33 9f 92 3d 61 35 33 3d 6e 55 53 3d
       0.058042187 0.07159271 0.043752078 0.051595144
000070 f9 4d e9 bc 94 17 69 bd 5a 48 03 bd 6a a7 ea bc
       -0.028479563 -0.05690725 -0.03205142 -0.028644282
000080 11 33 9d bd f9 08 07 bd 7e 2a f1 3c 09 48 89 3b
       -0.07675756 -0.03296754 0.029439207 0.0041894955
000090 65 bd bf 3c 2b 9d 6d 3d 2b 6c 66 3d 93 fd 81 3d
       0.02340574 0.058011215 0.0562555 0.063471936
0000a0 27 38 9c 3c a3 ed 5d 3c 6e 70 a5 3d 01 92 ae 3d
       0.019069744 0.013545427 0.08078085 0.08523942
0000b0 8d d6 ae 3a 17 21 8d bd a9 f7 78 3d 3d 62 8a bd
       0.0013339088 -0.06891077 0.060783062 -0.06757019
0000c0 11 a8 0d 3c bb c5 46 3d a8 d9 53 bd 90 e9 d8 bc
       0.008646027 0.048528414 -0.051721245 -0.026478559
0000d0 71 72 85 bd 89 0b 3b 3d 95 64 b5 3c f5 c0 5d bd
       -0.065159686 0.045665298 0.022142688 -0.054139096
0000e0 8e dc e2 3c bf ca 80 3d b0 52 49 3d 6f 38 40 3d
       0.02769306 0.06288671 0.049151123 0.04692882
0000f0 4a cd 13 bd fc 67 26 bd f8 8c 44 bd 9d 5d 98 3d
       -0.03608445 -0.04062651 -0.047986 0.0743973
000100 f6 ce 6e bd 99 d3 85 bd ac 8b 6a 3c 24 dd 48 3d
       -0.058302842 -0.065345 0.014315527 0.04903902
000110 6d 33 24 3d 7b 11 f4 bc 86 76 71 3d e4 2b 42 bb
       0.040088106 -0.029793492 0.058950923 -0.0029628212
000120 d9 71 f6 3b c8 56 9d bd 35 8d 3c bc 5f 91 68 bd
       0.007520896 -0.07682568 -0.011508276 -0.05677926
000130 3f 27 70 3c 66 3e 6c 3d 8f 8a 8c bd 00 c8 92 3d
       0.0146577945 0.057676695 -0.068623655 0.07167053
000140 98 84 9b 3c 5e b1 78 3d 25 a3 6e 3d 55 91 7d 3d
       0.018984124 0.060716026 0.058261055 0.061906178
000150 44 f2 6a 39 15 9d 82 3d 9d 91 24 bd 03 52 8c 3c
       0.0002240623 0.06377617 -0.04017793 0.01712895
000160 b7 22 7a bc a9 30 0a 3d ba ed 3b 3d a3 61 b0 3b
       -0.015267066 0.033737812 0.04588101 0.005382733
000170 79 3f f0 bc c1 64 ed 3c fb 28 69 bc 60 32 86 bd
       -0.029327141 0.028978707 -0.014230962 -0.06552577
000180 e4 2d 66 bb 0e 4c 0e bd 42 d6 01 bd 83 0a 0c 3c
       -0.0035122568 -0.0347405 -0.031698473 0.008547428
000190 17 38 cd 3d 8c 68 27 bd 60 d9 b2 bc 54 b7 1b 38
       0.10020464 -0.040871188 -0.021832168 3.7125617e-05
0001a0 38 d9 83 bc fe df 1c bd 41 a5 50 bd 74 7f 62 3d
       -0.016094789 -0.038299553 -0.05093885 0.05529733
0001b0 6a c7 70 bd a3 29 c9 3c 36 bd 21 bc 6c d6 26 bd
       -0.058783926 0.024555987 -0.009871772 -0.040731832
0001c0 45 c9 93 3d da 5f fb 3c 3a 93 0b bd f5 84 fd 3c
       0.072161235 0.030685354 -0.034075953 0.030947188
0001d0 17 6b 44 3d 44 39 61 3d 67 a5 32 bd 26 cc 8a bc
       0.04795369 0.054986253 -0.04361477 -0.016943049
0001e0 e2 06 29 3d 13 e9 27 bb ac 3a 10 bd 01 07 04 3c
       0.04126633 -0.00256211 -0.035212204 0.0080583105
0001f0 81 ce 0a 3b 6d 49 a2 3d ef e0 6b 3d 07 2d 48 bc
       0.0021180215 0.07924161 0.05758756 -0.012217767
000200 19 8d a4 3c d8 e1 73 3d 1e 16 47 bb a5 be 81 bd
       0.020086812 0.059541553 -0.0030378173 -0.06335191
000210 7a 66 a7 3d 4c d3 db bb c0 24 a0 3d 07 e9 de bc
       0.08173843 -0.006708538 0.078195095 -0.027210725
000220 a3 b2 08 3d 62 3b fc 3c 3b 5a 17 bb 3d d6 78 bd
       0.033373486 0.030790035 -0.0023094553 -0.06075119
000230 fd 02 0b bd 58 7c dc bb c6 d2 33 3c a5 5c 6e bc
       -0.033938397 -0.00672869 0.010975545 -0.014548455
000240 ae 43 4f 3d bd 88 f7 bc 36 ca 0a bd 07 90 6e bd
       0.050601654 -0.03021657 -0.03388425 -0.058242824
000250 74 8c 28 bc 2d 5e 47 bd b2 dd 6c 3d 61 df a9 3d
       -0.010287393 -0.048673797 0.057828613 0.08294559
000260 d9 f0 80 3d 3c 62 26 3d 14 8e 80 bd 01 b2 cb 3c
       0.06295938 0.040621027 -0.06277099 0.024865152
000270 8c 42 7e 3d 99 bd 3c bd 5c 74 da 3c 02 b7 1e bd
       0.062075183 -0.046079252 0.026666813 -0.03874875
000280 b4 af 13 3d 0d dd 93 bd 06 46 6c bd 2d 0b 77 bd
       0.036056235 -0.072198965 -0.057683967 -0.060313392
000290 f4 4f 48 bd b8 78 63 3d 60 0e 83 3d 85 a4 80 3d
       -0.048904374 0.05553505 0.06399226 0.062813796
0002a0 28 2e cf bc 68 03 c1 bc 71 ac 81 3c bf eb 0c 3d
       -0.025290564 -0.023561195 0.015829297 0.034404512
0002b0 81 93 12 bc 7d d7 37 bd e9 79 d5 3b c3 be 39 3d
       -0.0089463005 -0.04488324 0.006514777 0.04534794
0002c0 46 f9 e2 3c 84 3b 8d bd 9c 53 03 3b 5d b3 49 bb
       0.027706753 -0.06896117 0.0020038849 -0.0030777075
0002d0 60 bd 67 bc 76 af 9c bc 84 b7 98 bd 59 1b 5a 3d
       -0.014144272 -0.019126635 -0.07456878 0.053248737
0002e0 2c 67 04 bc 09 5b 86 3d f5 9c 65 bd ad 49 e8 bc
       -0.008081239 0.06560332 -0.05605789 -0.028355444
0002f0 18 dd 13 bd fb d1 3e 3d 38 e7 8e 3c a1 d3 9b 3d
       -0.036099523 0.04658697 0.017444238 0.076087244
000300 32 19 25 3d 88 a5 8f bd b4 51 12 3d 0c 34 80 3d
       0.04030723 -0.070139945 0.03572245 0.06259927
000310 7d a2 48 3b e2 a4 59 3d 3e 97 d9 3c ba 00 4c bd
       0.0030614429 0.05313576 0.026561376 -0.04980538
000320 01 f6 52 bd e6 43 57 3d 2d c8 9e 3b 22 b6 8a ba
       -0.05150414 0.052554987 0.00484564 -0.0010582844
000330 8b 25 1a 3c f3 b2 3c bd 94 ec 70 bd d5 c5 4d bd
       0.009408365 -0.046069097 -0.05881937 -0.050237495
000340 93 f9 2b bd ef 3f 66 3d 3b 2d 21 bd 3a 12 73 bd
       -0.04198606 0.056213316 -0.039349776 -0.059343554
000350 07 5a 2e 3c 73 9c 91 bd 97 57 54 bc 87 9b 7c 3d
       0.010641581 -0.071099184 -0.012960336 0.06167176
000360 1c d9 a3 3c ee 31 31 3d 0d 07 9a 3d 01 71 81 3d
       0.020000987 0.043260507 0.07520876 0.06320382
000370 e7 c0 58 3d 26 e1 4a bd 3d b8 80 bd 44 63 87 bd
       0.05291834 -0.049531125 -0.06285141 -0.0661073
000380 b8 5b 3e 3d e4 6d d9 3c f9 4d 5e bd ed f9 2b bc
       0.04647419 0.026541658 -0.05427358 -0.010496599
000390 cd a2 95 3d 99 ea 62 bc 9c 3e 9e 3c dd 2d 5b 3d
       0.073064424 -0.013849878 0.019316964 0.053510536
0003a0 4a 71 7c bd f7 1f c9 bc 8e e3 9a 3d 4e 58 6e 3c
       -0.06163148 -0.024551375 0.07562934 0.014547421
0003b0 cd 9f 41 bd 87 7b 46 bd c6 d7 89 3d 8f 80 b9 3c
       -0.04727154 -0.04845765 0.06730609 0.02264431
0003c0 9d b0 47 ba 29 51 8d 3c c9 4d 0f bc 61 7b 25 3c
       -0.0007617565 0.017250614 -0.008746573 0.010100217
0003d0 00 cc 14 3d a0 3c c7 3d 73 7e 7f 3c 81 e6 4e 3d
       0.036327362 0.0972836 0.015594113 0.050512794
0003e0 04 45 17 3b be 23 19 bc 71 a9 2c bc d2 89 70 bb
       0.0023081908 -0.0093469005 -0.010538445 -0.003670324
0003f0 2d 28 33 3c f6 18 15 bc a7 64 75 bd b0 f0 6f 3d
       0.010934872 -0.009100189 -0.059910443 0.058579147

sequential_2/conv2d_3/Conv2D f4 [64, 3, 3, 64]
000000 fb 31 b4 39 f8 41 02 bc 78 49 12 3d cb c1 7a bc
       0.00034369514 -0.0079502985 0.035714597 -0.015304993
000010 4e 2e e9 3b 6d 4a 53 bd ba 6a 94 bd 4c 32 5a bc
       0.0071161157 -0.05158465 -0.07246919 -0.013317656
000020 16 d7 5e bd 85 e4 1e bd 30 45 91 3d 78 91 b7 bd
       -0.05440434 -0.038792152 0.070932746 -0.08963293
000030 ae d0 7a bc be 55 92 bd 04 eb 3d bd 41 13 63 3c
       -0.015308542 -0.0714526 -0.046366706 0.013859571
000040 13 c6 08 3d 67 83 1a bd 28 86 82 bd a3 13 e9 b9
       0.033392023 -0.03772297 -0.063732445 -0.00044455854
000050 e8 9f eb bb e0 92 fd 3b 0d 29 36 3d a9 1f 28 bc
       -0.007190693 0.007738456 0.044472743 -0.010261455
000060 46 ec 82 3d c2 bb ea bc 81 5d 88 3c bb 3f 32 bc
       0.06392722 -0.028653983 0.016646149 -0.010879452
000070 3e 85 2b bc 1e 04 90 bc 5f a1 4b 3c 69 f2 9d 3d
       -0.010468779 -0.017580088 0.012428611 0.07712252
000080 b4 bb 3f bc 6b cd 4f 3c 26 41 84 bc 0d 0e 3f 3d
       -0.011702467 0.012683253 -0.016144346 0.04664426
000090 aa 06 20 3d 1c d5 7e 3d 7e 70 2f 3d ef 22 78 3c
       0.039068855 0.062214956 0.04283189 0.015145048
0000a0 ef 6a a3 bd 45 ac 29 3c c7 08 33 bc aa 8f 70 bd
       -0.0797938 0.010356014 -0.010927386 -0.05873076
0000b0 31 9f 42 bd db 33 93 3d cd 01 2c 3d 31 49 8b 3d
       -0.047515098 0.07187625 0.041993905 0.068010695
0000c0 7e 6e d5 3b f4 d6 d2 3c 5b 6e 4b 3d 81 d9 2f bd
       0.006513416 0.025737263 0.04966579 -0.042932037
0000d0 c9 cf b7 3c 68 da 1a bd 6a 84 2a bd ec 23 4c 3c
       0.022437947 -0.037805945 -0.041630186 0.012459736
0000e0 9c 85 00 3d 0b c8 8b 3d 0d a0 0f bd 1e 27 1e bd
       0.03137742 0.068252645 -0.035064746 -0.038611524
0000f0 73 8c 02 bd b5 32 91 3d e5 b1 cb 3c e6 5b 98 bd
       -0.031872224 0.0708975 0.0248651 -0.07439403
000100 16 55 7d bc d7 ac fe 3c 63 df 89 3d cb c4 6b 3d
       -0.015462181 0.031088276 0.06732061 0.057560723
000110 2c 7e 22 3b cf d1 44 3d bb 55 b2 bd 11 4f 1c bd
       0.0024794443 0.04805165 -0.08707758 -0.03816134
000120 31 b5 fe bc 08 98 17 bc fb 72 1c bd 02 f0 61 bd
       -0.031092258 -0.009252556 -0.03819559 -0.05516053
000130 c9 dd 27 bc c9 a0 7c bd f0 70 e2 3b 20 1e 16 bc
       -0.010245749 -0.061676774 0.006910436 -0.009162456
000140 35 cb 8b 3c a5 73 43 3d 12 21 ab 3a 5e 95 65 3d
       0.01706467 0.04771771 0.001305612 0.05605065
000150 48 d1 37 bc 4d 29 bf 3c 3b 06 0b bd 43 d2 b7 3c
       -0.01121933 0.023335123 -0.03394149 0.022439128
000160 41 b0 f2 3c 35 32 64 bd 9f 91 08 3d 48 6d 6f bc
       0.02962506 -0.055711944 0.033342 -0.014613457
000170 0e f4 8a 3c fa b4 43 3d a0 4d 20 3d 79 7d 87 3c
       0.016962077 0.047780015 0.03913653 0.016539322
000180 37 4c 0c bd 13 e9 fa 3c c4 0a b3 bc c9 00 85 bc
       -0.03425237 0.030628717 -0.02185572 -0.016235726
000190 41 c4 30 3d b2 b5 94 bb 26 8e 6b bd f3 a8 17 bc
       0.043155912 -0.0045382613 -0.05750861 -0.009256589
0001a0 4f ef a5 bb 47 1a d4 3b 06 ac 3f bd d9 b8 d5 bc
       -0.005063928 0.006472859 -0.046794914 -0.026089119
0001b0 a7 f2 58 3d 9f 23 aa 3c ea d7 4d 3d 75 3f 70 3c
       0.052965786 0.020768939 0.05025474 0.014663567
0001c0 48 d9 0f bd b8 fb 05 3d 3d 77 c9 bc 0f 83 95 ba
       -0.035119325 0.03271076 -0.02459299 -0.0011406856
0001d0 93 64 4f bd 18 ab 1f bd e6 21 aa bc 48 2d 1a 3c
       -0.050633024 -0.038981527 -0.020768117 0.00941021
0001e0 5e b6 75 3d fb 30 d7 3c 1f cd 90 3d ac 5b 63 3d
       0.059988372 0.026268473 0.07070374 0.055507347
0001f0 97 a3 49 bd e6 ce e5 3c b0 38 b0 3d 41 b8 48 bd
       -0.049228277 0.028052758 0.08604562 -0.049003843
000200 b9 bc 25 3d 7f 48 2a 3d e6 04 ea 3c 3c 15 00 bc
       0.040463183 0.041573044 0.028566789 -0.007817563
000210 42 f9 71 bc 22 a3 42 bd 23 ff b3 3c 02 0b 4e 3d
       -0.0147689 -0.047518857 0.021972245 0.050303467
000220 8f ad aa 3c 4d a0 3c 3d f6 ab 8b bc 64 b0 8d bd
       0.020834712 0.046051312 -0.01704977 -0.069184095
000230 fc d6 88 3c e2 a8 25 bd dc a1 62 bc 80 da 62 3d
       0.016704075 -0.040444262 -0.013832536 0.05538416
000240 75 63 9a 3d a9 d9 b8 bc 1b 93 bb bd f0 e0 8d 3d
       0.07538501 -0.022564726 -0.091589175 0.06927669
000250 44 81 19 bd 85 dc 9e bd fc 78 6f 3d e7 37 c6 bd
       -0.037476793 -0.077569045 0.05846499 -0.09678631
000260 a3 67 ce 3b de f6 2d bd ca d0 d3 bc 8b 8e bc 3b
       0.0062989756 -0.04247176 -0.025856394 0.005754297
000270 88 4a 95 3d 5e 28 55 3d 5f 51 48 bd d9 86 a3 bd
       0.07289606 0.05204045 -0.048905727 -0.079847045
000280 83 55 5c bd 8f 4a 2d bd 0e fa c1 bb 01 30 77 3c
       -0.053792488 -0.042307433 -0.0059197014 0.015087129
000290 ef 65 a8 3d 96 0b 64 bb c4 f8 33 3d 1f cf ed bc
       0.08222567 -0.0034796945 0.043938413 -0.029029427
0002a0 1e a3 4d 3d 19 28 80 bd 86 63 f6 3c 89 0a d9 bc
       0.05020439 -0.06257648 0.030076753 -0.026494281
0002b0 68 91 5f bd 8d 27 4e bc f7 48 ed 3c d5 93 db bb
       -0.05458203 -0.012582672 0.028965456 -0.0067009726
0002c0 ce a7 99 bd 14 7b 92 3a d3 9f 3a 3d bc 84 0a 3d
       -0.07502709 0.0011175596 0.045562577 0.03381799
0002d0 5a 7b 0b bd e9 b9 bd bc 2b ca 26 3d f6 3b 13 bd
       -0.034053184 -0.023159938 0.040720146 -0.035945855
0002e0 ec 0a 3f 3d ba 9a 64 bd e0 16 4c 3d e3 79 75 3d
       0.046641275 -0.05581162 0.049826503 0.059930693
0002f0 01 8a a5 3c e4 0d 91 3d 4f 97 31 3c c5 54 01 3c
       0.020207407 0.070827276 0.010839297 0.007893746
000300 a3 c5 3f 3d 02 6b 65 bd c5 8d 94 3d c4 c1 eb bb
       0.04681934 -0.056010254 0.07253603 -0.0071947295
000310 21 05 06 3d b7 9e a5 3c 93 48 12 3d 9a c5 d8 3c
       0.032719735 0.020217283 0.035713743 0.026461411
000320 2d e5 34 3c 6c 7d 0f 3d 11 22 b5 3d ad ab 09 3d
       0.011040968 0.03503172 0.08844388 0.03361099
000330 a2 17 94 3c c2 91 84 bd ba cc a9 3c b3 25 bd bc
       0.018077675 -0.064731136 0.020727504 -0.023089265
000340 2d a2 c2 3c e3 f3 ad bc 66 78 48 bc 07 79 32 bd
       0.023758972 -0.021234458 -0.0122357365 -0.043572452
000350 f2 fa 76 3d 58 d9 ad 3c 90 55 81 bd bf b9 34 bb
       0.060297914 0.021221802 -0.06315148 -0.0027576534
000360 8b ed 9d 3d 15 a0 e2 bb 0c 96 79 bc fd 63 00 bd
       0.07711323 -0.006916056 -0.015233528 -0.031345356
000370 0c b0 1a bd 21 6b 41 3d 4e 2b 92 bd 84 84 89 bd
       -0.037765548 0.047221307 -0.07137166 -0.067147285
000380 d5 4e 88 bc 00 53 82 3d 2f e0 23 bd 07 8c 90 3c
       -0.016639153 0.06363487 -0.04000872 0.017644895
000390 b1 02 7c 3d 39 84 8c 3b ff 71 7c bd a6 3f e6 3b
       0.061526004 0.004288223 -0.061632153 0.0070266305
0003a0 9f 51 ac bc 8f 4e c8 3b f0 b7 f8 3c 5a ce a4 3d
       -0.021035014 0.0061128805 0.030361146 0.08047171
0003b0 ff 0a 0a 3d 45 b1 46 3d d1 95 77 3d f4 f9 15 bd
       0.033701893 0.0485089 0.06044561 -0.036615327
0003c0 d5 40 9b bd 3b c0 8b 3c 31 61 7f bd 47 8e eb bc
       -0.07580725 0.017059436 -0.06234855 -0.028754367
0003d0 d3 8e 0f 3d 9d 5a 61 3d fd 56 1a bd e0 ce 3a 3d
       0.035048317 0.055018056 -0.037680615 0.045607448
0003e0 40 55 9e 3c 7a be 8e bc 58 42 c8 bc 3d f7 03 bd
       0.01932776 -0.01742481 -0.024445698 -0.032218207
0003f0 e7 4e 85 3d cb ac 37 bd b3 a9 fe bc d6 49 25 bd
       0.0650919 -0.044842523 -0.031086778 -0.04035362

sequential_2/conv2d_4/Conv2D f4 [64, 3, 3, 64]
000000 50 90 26 3d f5 85 fd 3b 4c 24 2e bd 75 98 96 bd
       0.04066497 0.007736916 -0.042515084 -0.073532976
000010 2b 96 93 bb ef 78 c6 3b d8 31 e4 3b 90 01 45 3d
       -0.0045039854 0.006056897 0.0069639497 0.048097193
000020 5f 21 28 3d ab 43 6e 3d db 52 8d bc d0 f3 2e bd
       0.04104745 0.058170002 -0.017251423 -0.042712986
000030 e2 ad 9a 3c f3 ef 91 bc 2f 28 4b 3d c3 8b 16 bc
       0.018881742 -0.017814612 0.04959887 -0.009188595
000040 42 04 97 3d 4e 11 64 bd db a7 fc 3c 53 79 fb 3c
       0.07373859 -0.055680566 0.030841758 0.0306975
000050 30 f5 d0 3c cc b8 54 bd 29 09 3c bd d7 4d 62 3d
       0.02550754 -0.05193405 -0.045907173 0.055250015
000060 fa 1c 91 bd 1f 23 e3 bc dd 95 41 bd 8e 5a a2 bd
       -0.07085605 -0.027726708 -0.04726206 -0.07927428
000070 1f b6 ab 3b c7 48 c6 3d 72 7e cf 3c 31 39 02 bd
       0.0052402164 0.0968185 0.025328849 -0.031792823
000080 7f 36 6c 3d 45 79 7d bd 78 61 e0 3c 02 20 96 bd
       0.05766916 -0.06188323 0.027390227 -0.07330324
000090 ac 07 ef bc 36 a5 36 bd 60 7b b7 bc 3e 8f 93 bd
       -0.029178463 -0.04459115 -0.022397697 -0.07205056
0000a0 4b 6e 26 3d d2 b2 c1 3c 8d d1 5a bd 0d 0f 18 3d
       0.040632527 0.023644838 -0.0534225 0.03712373
0000b0 28 06 5f bc f3 a5 77 bd 87 b9 c9 3c c3 1f 31 bd
       -0.013612308 -0.060460996 0.0246246 -0.04324318
0000c0 b6 2f 2b bd d2 1e 17 bd 86 b6 16 bd 62 75 c4 3c
       -0.041793548 -0.036894627 -0.03679516 0.023981754
0000d0 78 d6 72 3d 1c 84 59 bd 0c 8d a5 bb 67 05 25 bd
       0.059286565 -0.053104505 -0.0050522145 -0.040288355
0000e0 10 18 4b 3d 79 ed b8 bc 29 51 8b bd 3f c5 aa 3d
       0.049583495 -0.022574173 -0.068025894 0.08338403
0000f0 c0 e0 9f 3d 0e b6 37 bb 77 2e 01 3d f2 b7 be bc
       0.078065395 -0.0028032097 0.031538453 -0.023281071
000100 b8 1b 9b 3d 3a 06 23 bd 06 fc 75 bd 56 6a 83 bc
       0.07573646 -0.03980086 -0.0600548 -0.016041916
000110 43 55 c0 3a 60 22 54 bd 1e 0d 1e bd 90 44 37 bd
       0.0014673847 -0.051790595 -0.03858673 -0.04474312
000120 2a f5 41 3d a2 12 ae 3d 83 22 17 3d 99 ae f5 3c
       0.047352947 0.08499648 0.036898147 0.029990481
000130 02 a6 50 bd 3d 51 04 3d d7 c3 15 3d 4b 14 47 3d
       -0.050939567 0.032304037 0.03656372 0.048603337
000140 d5 fb a6 3d d7 af 85 3c 6c 20 85 3d 66 07 a4 3c
       0.08153502 0.016319199 0.065003246 0.02002306
000150 98 ba 92 3d b1 2f 55 3d 3e a8 70 3d e0 01 be 3c
       0.07164496 0.052047435 0.0587542 0.023194253
000160 a8 30 c0 bc de ca 65 bd 50 24 4c bc be 40 c8 3c
       -0.023460701 -0.056101672 -0.012459829 0.024444934
000170 04 c8 7b 3b 1b e5 8e 3d 05 d4 8a bc 80 7c 72 bd
       0.003841878 0.06977292 -0.016946802 -0.059200764
000180 fa 86 06 3d be c7 1c 3d 7c 4c 2a 3d 79 e6 d1 3b
       0.032843567 0.038276426 0.041576847 0.0064056483
000190 e3 95 02 bd 9d 30 86 bd 26 5f ec bc 01 07 8f bd
       -0.031881224 -0.06552241 -0.028853964 -0.06983758
0001a0 0d b2 19 bc da 84 10 3d 4a 54 4d bd 67 39 43 3d
       -0.0093808295 0.035282947 -0.050129212 0.047662165
0001b0 cc bd 89 3d c3 9a 99 bc ab ed 28 3c fa ad e7 3b
       0.06725654 -0.018750554 0.010310571 0.0070703
0001c0 9f 67 40 bd 4d b3 03 bd cc 9b fd 3c 43 6a 37 bd
       -0.04697382 -0.032153416 0.030958079 -0.044779073
0001d0 7d 00 5b bd d5 30 49 bd 5b cc 61 3c 79 90 b9 bb
       -0.053467263 -0.049118835 0.013781632 -0.0056629744
0001e0 bd b2 64 3c 3e 95 d9 bc 11 db b7 3c 80 1a ff 3c
       0.01395863 -0.026560422 0.022443326 0.031140566
0001f0 e3 6e 15 3d f7 04 80 3d 8e 4d f2 bb ff 43 1d bc
       0.036482703 0.06250947 -0.007394499 -0.009598731
000200 57 3b 7e 3d 58 ff 05 bc a0 4c 24 bd 71 b6 59 3d
       0.06206831 -0.0081785545 -0.040112138 0.053152505
000210 d3 2f 7d 3d 23 7f 8f 3d e1 18 6a bc 63 d2 8e 3d
       0.061813187 0.07006671 -0.014288158 0.06973722
000220 b7 6d 2a 3a 51 c8 82 3c 6e 95 51 3d 6c f7 5d bd
       0.0006501334 0.015964659 0.051167898 -0.054191038
000230 ed 97 0f 3c 43 8f 70 bc 8e e8 f3 bb 1f aa ab 3c
       0.008764249 -0.014682594 -0.007443494 0.020955143
000240 85 4f 04 ba d8 d8 a9 3d 8c 7d 4f 3d 7d 15 80 bd
       -0.000504725 0.08293313 0.05065684 -0.062540986
000250 17 bb 72 3d 52 05 3b bd 2b 90 a1 bd 95 5b 25 3c
       0.059260454 -0.04565937 -0.07888826 0.010092636
000260 6b f7 ab bc d9 4f 0b 3d 5c 96 83 3d e9 8a 92 bc
       -0.020992002 0.034011696 0.06425163 -0.017888503
000270 cf 29 ee 3c ef c9 52 3a 39 7e 1f bd 40 8d 65 3d
       0.02907267 0.00080409547 -0.038938735 0.05604291
000280 20 80 a1 3d 13 92 a1 bd 09 6b 98 bd 58 a8 16 3d
       0.07885766 -0.078891896 -0.0744229 0.03678164
000290 22 62 af 3c 68 37 d4 bc 1e 61 e0 bc b0 0d 1f 3d
       0.021409098 -0.025905326 -0.02739006 0.038831413
0002a0 d6 88 d6 bc 73 90 82 3b f3 41 85 bd 00 b0 2b bc
       -0.026188295 0.003984505 -0.065067194 -0.010478973
0002b0 6e 12 88 3d 3d 0b 22 3d 97 1f fa bb f0 24 15 bd
       0.0664414 0.0395615 -0.0076331603 -0.03641218
0002c0 33 e3 5c 3d fa 49 5d bd 54 46 1b 3d 23 eb 7f bd
       0.05392761 -0.054025628 0.037908867 -0.062480103
0002d0 66 64 33 bd a6 03 7a bd 95 ea 70 3b 87 99 73 bd
       -0.04379692 -0.061038636 0.0036760916 -0.059472587
0002e0 68 d7 32 3c 0e 25 a1 3c 92 aa f2 bb ed 01 c6 bb
       0.010915615 0.01967099 -0.0074055875 -0.00604271
0002f0 a5 91 37 3d d1 0c 57 bd 04 80 31 3d 53 09 08 bc
       0.04481663 -0.052502457 0.043334976 -0.008303004
000300 f7 06 bd ba 15 a1 95 3a 90 f5 ab 3b 65 fa d7 bc
       -0.0014421631 0.0011415804 0.005247779 -0.026364515
000310 3e b5 5b 3d 2f d6 87 bb 53 2a 26 3d 65 04 b0 3d
       0.053639643 -0.0041454057 0.040567707 0.08594588
000320 3e 92 04 bd a7 c7 cf 3c c6 51 39 bc a8 5c 9c bc
       -0.03236603 0.025363756 -0.011311 -0.01908715
000330 95 f9 fb bc c6 ef 06 bd 58 9e 4b bd 8f 76 b5 3d
       -0.030758658 -0.03294351 -0.049711555 0.08860504
000340 b5 48 33 3c 97 32 cb bc 86 19 8f 3c f2 55 7c bd
       0.010942628 -0.024804397 0.017468225 -0.0616054
000350 22 db fd bc e8 68 32 bd 45 f5 af ba 7f e6 03 bd
       -0.03098828 -0.043557078 -0.0013424536 -0.03220224
000360 aa 84 a2 bc f0 ac 14 bc 01 8c ef 3c ce b7 1c 39
       -0.01983865 -0.009074435 0.029241564 0.00014945792
000370 9d ef 38 3d e0 a9 30 3d d0 6d b2 bb 6a 3a a1 bd
       0.045150388 0.043130755 -0.0054452196 -0.0787247
000380 54 92 37 bd 63 ca a0 bc ca 23 c4 bc 50 6f ad bb
       -0.044817284 -0.019627756 -0.023942847 -0.0052928105
000390 d4 3b 87 3d d1 de 6c bd 7a c6 ce bc a8 07 41 3d
       0.06603208 -0.05782968 -0.025241125 0.047126442
0003a0 32 54 78 3d da 7f b2 3c 7e ab 0a 3d c1 c1 30 3c
       0.06062717 0.02178948 0.033854954 0.010788382
0003b0 ee 04 19 bd 86 47 3b 3d 40 f8 8f bb b4 56 6e bd
       -0.037358217 0.045722507 -0.0043936074 -0.058188155
0003c0 74 ce 1d 3d 67 5e 5e bc 16 09 b0 3c 2a e3 9f 3d
       0.038526967 -0.013572312 0.021488708 0.07807
0003d0 01 1b 89 bd 63 44 42 3d 0c 32 82 3c 0d a3 2c bd
       -0.06694604 0.0474285 0.015893005 -0.042147685
0003e0 1d 54 55 3d 17 3e 5f bd 59 e1 6a 3d d5 fd 6a 3d
       0.05208217 -0.054502573 0.057343815 0.05737098
0003f0 f3 c5 9e 3d 85 aa 47 bd 38 32 53 bc ba 85 8d bd
       0.077525996 -0.048746604 -0.012890391 -0.06910272
